{"format": "graph-model", "generatedBy": "2.0.0-alpha0", "convertedBy": "TensorFlow.js Converter v1.1.2", "modelTopology": {"node": [{"name": "dense_5/bias", "op": "Const", "attr": {"value": {"tensor": {"dtype": "DT_FLOAT", "tensorShape": {"dim": [{"size": "120"}]}}}, "dtype": {"type": "DT_FLOAT"}}}, {"name": "dense_5/kernel", "op": "Const", "attr": {"value": {"tensor": {"dtype": "DT_FLOAT", "tensorShape": {"dim": [{"size": "512"}, {"size": "120"}]}}}, "dtype": {"type": "DT_FLOAT"}}}, {"name": "dense_4/bias", "op": "Const", "attr": {"value": {"tensor": {"dtype": "DT_FLOAT", "tensorShape": {"dim": [{"size": "512"}]}}}, "dtype": {"type": "DT_FLOAT"}}}, {"name": "dense_4/kernel", "op": "Const", "attr": {"dtype": {"type": "DT_FLOAT"}, "value": {"tensor": {"dtype": "DT_FLOAT", "tensorShape": {"dim": [{"size": "1056"}, {"size": "512"}]}}}}}, {"name": "global_average_pooling2d_2/Mean/reduction_indices", "op": "Const", "attr": {"value": {"tensor": {"dtype": "DT_INT32", "tensorShape": {"dim": [{"size": "2"}]}}}, "dtype": {"type": "DT_INT32"}}}, {"name": "NASNet/concatenate_11/concat/axis", "op": "Const", "attr": {"dtype": {"type": "DT_INT32"}, "value": {"tensor": {"dtype": "DT_INT32", "tensorShape": {}}}}}, {"name": "NASNet/separable_conv_2_bn_normal_left5_12/FusedBatchNorm/Offset", "op": "Const", "attr": {"value": {"tensor": {"dtype": "DT_FLOAT", "tensorShape": {"dim": [{"size": "176"}]}}}, "dtype": {"type": "DT_FLOAT"}}}, {"name": "NASNet/separable_conv_2_normal_left5_12/separable_conv2d/merged_input", "op": "Const", "attr": {"value": {"tensor": {"dtype": "DT_FLOAT", "tensorShape": {"dim": [{"size": "1"}, {"size": "1"}, {"size": "176"}, {"size": "176"}]}}}, "dtype": {"type": "DT_FLOAT"}}}, {"name": "separable_conv_2_normal_left5_12/depthwise_kernel", "op": "Const", "attr": {"dtype": {"type": "DT_FLOAT"}, "value": {"tensor": {"dtype": "DT_FLOAT", "tensorShape": {"dim": [{"size": "3"}, {"size": "3"}, {"size": "176"}, {"size": "1"}]}}}}}, {"name": "NASNet/separable_conv_1_bn_normal_left5_12/FusedBatchNorm/Offset", "op": "Const", "attr": {"value": {"tensor": {"dtype": "DT_FLOAT", "tensorShape": {"dim": [{"size": "176"}]}}}, "dtype": {"type": "DT_FLOAT"}}}, {"name": "NASNet/separable_conv_1_normal_left5_12/separable_conv2d/merged_input", "op": "Const", "attr": {"dtype": {"type": "DT_FLOAT"}, "value": {"tensor": {"dtype": "DT_FLOAT", "tensorShape": {"dim": [{"size": "1"}, {"size": "1"}, {"size": "176"}, {"size": "176"}]}}}}}, {"name": "separable_conv_1_normal_left5_12/depthwise_kernel", "op": "Const", "attr": {"dtype": {"type": "DT_FLOAT"}, "value": {"tensor": {"dtype": "DT_FLOAT", "tensorShape": {"dim": [{"size": "3"}, {"size": "3"}, {"size": "176"}, {"size": "1"}]}}}}}, {"name": "NASNet/normal_bn_1_12/FusedBatchNorm/Offset", "op": "Const", "attr": {"value": {"tensor": {"dtype": "DT_FLOAT", "tensorShape": {"dim": [{"size": "176"}]}}}, "dtype": {"type": "DT_FLOAT"}}}, {"name": "NASNet/normal_conv_1_12/Conv2D/merged_input", "op": "Const", "attr": {"value": {"tensor": {"dtype": "DT_FLOAT", "tensorShape": {"dim": [{"size": "1"}, {"size": "1"}, {"size": "1056"}, {"size": "176"}]}}}, "dtype": {"type": "DT_FLOAT"}}}, {"name": "NASNet/separable_conv_2_bn_normal_left5_11/FusedBatchNorm/Offset", "op": "Const", "attr": {"value": {"tensor": {"dtype": "DT_FLOAT", "tensorShape": {"dim": [{"size": "176"}]}}}, "dtype": {"type": "DT_FLOAT"}}}, {"name": "NASNet/separable_conv_2_normal_left5_11/separable_conv2d/merged_input", "op": "Const", "attr": {"value": {"tensor": {"dtype": "DT_FLOAT", "tensorShape": {"dim": [{"size": "1"}, {"size": "1"}, {"size": "176"}, {"size": "176"}]}}}, "dtype": {"type": "DT_FLOAT"}}}, {"name": "separable_conv_2_normal_left5_11/depthwise_kernel", "op": "Const", "attr": {"value": {"tensor": {"dtype": "DT_FLOAT", "tensorShape": {"dim": [{"size": "3"}, {"size": "3"}, {"size": "176"}, {"size": "1"}]}}}, "dtype": {"type": "DT_FLOAT"}}}, {"name": "NASNet/separable_conv_1_bn_normal_left5_11/FusedBatchNorm/Offset", "op": "Const", "attr": {"value": {"tensor": {"dtype": "DT_FLOAT", "tensorShape": {"dim": [{"size": "176"}]}}}, "dtype": {"type": "DT_FLOAT"}}}, {"name": "NASNet/separable_conv_1_normal_left5_11/separable_conv2d/merged_input", "op": "Const", "attr": {"value": {"tensor": {"dtype": "DT_FLOAT", "tensorShape": {"dim": [{"size": "1"}, {"size": "1"}, {"size": "176"}, {"size": "176"}]}}}, "dtype": {"type": "DT_FLOAT"}}}, {"name": "separable_conv_1_normal_left5_11/depthwise_kernel", "op": "Const", "attr": {"value": {"tensor": {"dtype": "DT_FLOAT", "tensorShape": {"dim": [{"size": "3"}, {"size": "3"}, {"size": "176"}, {"size": "1"}]}}}, "dtype": {"type": "DT_FLOAT"}}}, {"name": "NASNet/normal_bn_1_11/FusedBatchNorm/Offset", "op": "Const", "attr": {"value": {"tensor": {"dtype": "DT_FLOAT", "tensorShape": {"dim": [{"size": "176"}]}}}, "dtype": {"type": "DT_FLOAT"}}}, {"name": "NASNet/normal_conv_1_11/Conv2D/merged_input", "op": "Const", "attr": {"value": {"tensor": {"dtype": "DT_FLOAT", "tensorShape": {"dim": [{"size": "1"}, {"size": "1"}, {"size": "1056"}, {"size": "176"}]}}}, "dtype": {"type": "DT_FLOAT"}}}, {"name": "NASNet/separable_conv_2_bn_normal_left5_10/FusedBatchNorm/Offset", "op": "Const", "attr": {"value": {"tensor": {"dtype": "DT_FLOAT", "tensorShape": {"dim": [{"size": "176"}]}}}, "dtype": {"type": "DT_FLOAT"}}}, {"name": "NASNet/separable_conv_2_normal_left5_10/separable_conv2d/merged_input", "op": "Const", "attr": {"value": {"tensor": {"dtype": "DT_FLOAT", "tensorShape": {"dim": [{"size": "1"}, {"size": "1"}, {"size": "176"}, {"size": "176"}]}}}, "dtype": {"type": "DT_FLOAT"}}}, {"name": "separable_conv_2_normal_left5_10/depthwise_kernel", "op": "Const", "attr": {"value": {"tensor": {"dtype": "DT_FLOAT", "tensorShape": {"dim": [{"size": "3"}, {"size": "3"}, {"size": "176"}, {"size": "1"}]}}}, "dtype": {"type": "DT_FLOAT"}}}, {"name": "NASNet/separable_conv_1_bn_normal_left5_10/FusedBatchNorm/Offset", "op": "Const", "attr": {"dtype": {"type": "DT_FLOAT"}, "value": {"tensor": {"dtype": "DT_FLOAT", "tensorShape": {"dim": [{"size": "176"}]}}}}}, {"name": "NASNet/separable_conv_1_normal_left5_10/separable_conv2d/merged_input", "op": "Const", "attr": {"value": {"tensor": {"dtype": "DT_FLOAT", "tensorShape": {"dim": [{"size": "1"}, {"size": "1"}, {"size": "176"}, {"size": "176"}]}}}, "dtype": {"type": "DT_FLOAT"}}}, {"name": "separable_conv_1_normal_left5_10/depthwise_kernel", "op": "Const", "attr": {"dtype": {"type": "DT_FLOAT"}, "value": {"tensor": {"dtype": "DT_FLOAT", "tensorShape": {"dim": [{"size": "3"}, {"size": "3"}, {"size": "176"}, {"size": "1"}]}}}}}, {"name": "NASNet/normal_bn_1_10/FusedBatchNorm/Offset", "op": "Const", "attr": {"dtype": {"type": "DT_FLOAT"}, "value": {"tensor": {"dtype": "DT_FLOAT", "tensorShape": {"dim": [{"size": "176"}]}}}}}, {"name": "NASNet/normal_conv_1_10/Conv2D/merged_input", "op": "Const", "attr": {"value": {"tensor": {"dtype": "DT_FLOAT", "tensorShape": {"dim": [{"size": "1"}, {"size": "1"}, {"size": "1056"}, {"size": "176"}]}}}, "dtype": {"type": "DT_FLOAT"}}}, {"name": "NASNet/separable_conv_2_bn_normal_left5_9/FusedBatchNorm/Offset", "op": "Const", "attr": {"value": {"tensor": {"dtype": "DT_FLOAT", "tensorShape": {"dim": [{"size": "176"}]}}}, "dtype": {"type": "DT_FLOAT"}}}, {"name": "NASNet/separable_conv_2_normal_left5_9/separable_conv2d/merged_input", "op": "Const", "attr": {"value": {"tensor": {"dtype": "DT_FLOAT", "tensorShape": {"dim": [{"size": "1"}, {"size": "1"}, {"size": "176"}, {"size": "176"}]}}}, "dtype": {"type": "DT_FLOAT"}}}, {"name": "separable_conv_2_normal_left5_9/depthwise_kernel", "op": "Const", "attr": {"value": {"tensor": {"dtype": "DT_FLOAT", "tensorShape": {"dim": [{"size": "3"}, {"size": "3"}, {"size": "176"}, {"size": "1"}]}}}, "dtype": {"type": "DT_FLOAT"}}}, {"name": "NASNet/separable_conv_1_bn_normal_left5_9/FusedBatchNorm/Offset", "op": "Const", "attr": {"dtype": {"type": "DT_FLOAT"}, "value": {"tensor": {"dtype": "DT_FLOAT", "tensorShape": {"dim": [{"size": "176"}]}}}}}, {"name": "NASNet/separable_conv_1_normal_left5_9/separable_conv2d/merged_input", "op": "Const", "attr": {"dtype": {"type": "DT_FLOAT"}, "value": {"tensor": {"dtype": "DT_FLOAT", "tensorShape": {"dim": [{"size": "1"}, {"size": "1"}, {"size": "176"}, {"size": "176"}]}}}}}, {"name": "separable_conv_1_normal_left5_9/depthwise_kernel", "op": "Const", "attr": {"dtype": {"type": "DT_FLOAT"}, "value": {"tensor": {"dtype": "DT_FLOAT", "tensorShape": {"dim": [{"size": "3"}, {"size": "3"}, {"size": "176"}, {"size": "1"}]}}}}}, {"name": "NASNet/normal_bn_1_9/FusedBatchNorm/Offset", "op": "Const", "attr": {"value": {"tensor": {"dtype": "DT_FLOAT", "tensorShape": {"dim": [{"size": "176"}]}}}, "dtype": {"type": "DT_FLOAT"}}}, {"name": "NASNet/normal_conv_1_9/Conv2D/merged_input", "op": "Const", "attr": {"value": {"tensor": {"dtype": "DT_FLOAT", "tensorShape": {"dim": [{"size": "1"}, {"size": "1"}, {"size": "704"}, {"size": "176"}]}}}, "dtype": {"type": "DT_FLOAT"}}}, {"name": "NASNet/separable_conv_2_bn_reduction_left4_reduce_8/FusedBatchNorm/Offset", "op": "Const", "attr": {"value": {"tensor": {"dtype": "DT_FLOAT", "tensorShape": {"dim": [{"size": "176"}]}}}, "dtype": {"type": "DT_FLOAT"}}}, {"name": "NASNet/separable_conv_2_reduction_left4_reduce_8/separable_conv2d/merged_input", "op": "Const", "attr": {"value": {"tensor": {"dtype": "DT_FLOAT", "tensorShape": {"dim": [{"size": "1"}, {"size": "1"}, {"size": "176"}, {"size": "176"}]}}}, "dtype": {"type": "DT_FLOAT"}}}, {"name": "separable_conv_2_reduction_left4_reduce_8/depthwise_kernel", "op": "Const", "attr": {"dtype": {"type": "DT_FLOAT"}, "value": {"tensor": {"dtype": "DT_FLOAT", "tensorShape": {"dim": [{"size": "3"}, {"size": "3"}, {"size": "176"}, {"size": "1"}]}}}}}, {"name": "NASNet/separable_conv_1_bn_reduction_left4_reduce_8/FusedBatchNorm/Offset", "op": "Const", "attr": {"value": {"tensor": {"dtype": "DT_FLOAT", "tensorShape": {"dim": [{"size": "176"}]}}}, "dtype": {"type": "DT_FLOAT"}}}, {"name": "NASNet/separable_conv_1_reduction_left4_reduce_8/separable_conv2d/merged_input", "op": "Const", "attr": {"value": {"tensor": {"dtype": "DT_FLOAT", "tensorShape": {"dim": [{"size": "1"}, {"size": "1"}, {"size": "176"}, {"size": "176"}]}}}, "dtype": {"type": "DT_FLOAT"}}}, {"name": "separable_conv_1_reduction_left4_reduce_8/depthwise_kernel", "op": "Const", "attr": {"value": {"tensor": {"dtype": "DT_FLOAT", "tensorShape": {"dim": [{"size": "3"}, {"size": "3"}, {"size": "176"}, {"size": "1"}]}}}, "dtype": {"type": "DT_FLOAT"}}}, {"name": "NASNet/separable_conv_2_bn_reduction_right1_reduce_8/FusedBatchNorm/Offset", "op": "Const", "attr": {"value": {"tensor": {"dtype": "DT_FLOAT", "tensorShape": {"dim": [{"size": "176"}]}}}, "dtype": {"type": "DT_FLOAT"}}}, {"name": "NASNet/separable_conv_2_reduction_right1_reduce_8/separable_conv2d/merged_input", "op": "Const", "attr": {"value": {"tensor": {"dtype": "DT_FLOAT", "tensorShape": {"dim": [{"size": "1"}, {"size": "1"}, {"size": "176"}, {"size": "176"}]}}}, "dtype": {"type": "DT_FLOAT"}}}, {"name": "separable_conv_2_reduction_right1_reduce_8/depthwise_kernel", "op": "Const", "attr": {"dtype": {"type": "DT_FLOAT"}, "value": {"tensor": {"dtype": "DT_FLOAT", "tensorShape": {"dim": [{"size": "7"}, {"size": "7"}, {"size": "176"}, {"size": "1"}]}}}}}, {"name": "NASNet/separable_conv_1_bn_reduction_right1_reduce_8/FusedBatchNorm/Offset", "op": "Const", "attr": {"dtype": {"type": "DT_FLOAT"}, "value": {"tensor": {"dtype": "DT_FLOAT", "tensorShape": {"dim": [{"size": "176"}]}}}}}, {"name": "NASNet/separable_conv_1_reduction_right1_reduce_8/separable_conv2d/merged_input", "op": "Const", "attr": {"value": {"tensor": {"dtype": "DT_FLOAT", "tensorShape": {"dim": [{"size": "1"}, {"size": "1"}, {"size": "176"}, {"size": "176"}]}}}, "dtype": {"type": "DT_FLOAT"}}}, {"name": "separable_conv_1_reduction_right1_reduce_8/depthwise_kernel", "op": "Const", "attr": {"value": {"tensor": {"dtype": "DT_FLOAT", "tensorShape": {"dim": [{"size": "7"}, {"size": "7"}, {"size": "176"}, {"size": "1"}]}}}, "dtype": {"type": "DT_FLOAT"}}}, {"name": "NASNet/separable_conv_1_pad_reduction_right2_reduce_8/Pad/paddings", "op": "Const", "attr": {"value": {"tensor": {"dtype": "DT_INT32", "tensorShape": {"dim": [{"size": "4"}, {"size": "2"}]}}}, "dtype": {"type": "DT_INT32"}}}, {"name": "NASNet/adjust_bn_reduce_8/FusedBatchNorm/Offset", "op": "Const", "attr": {"value": {"tensor": {"dtype": "DT_FLOAT", "tensorShape": {"dim": [{"size": "176"}]}}}, "dtype": {"type": "DT_FLOAT"}}}, {"name": "NASNet/adjust_conv_projection_reduce_8/Conv2D/merged_input", "op": "Const", "attr": {"value": {"tensor": {"dtype": "DT_FLOAT", "tensorShape": {"dim": [{"size": "1"}, {"size": "1"}, {"size": "528"}, {"size": "176"}]}}}, "dtype": {"type": "DT_FLOAT"}}}, {"name": "NASNet/separable_conv_2_bn_normal_left5_7/FusedBatchNorm/Offset", "op": "Const", "attr": {"value": {"tensor": {"dtype": "DT_FLOAT", "tensorShape": {"dim": [{"size": "88"}]}}}, "dtype": {"type": "DT_FLOAT"}}}, {"name": "NASNet/separable_conv_2_normal_left5_7/separable_conv2d/merged_input", "op": "Const", "attr": {"value": {"tensor": {"dtype": "DT_FLOAT", "tensorShape": {"dim": [{"size": "1"}, {"size": "1"}, {"size": "88"}, {"size": "88"}]}}}, "dtype": {"type": "DT_FLOAT"}}}, {"name": "separable_conv_2_normal_left5_7/depthwise_kernel", "op": "Const", "attr": {"value": {"tensor": {"dtype": "DT_FLOAT", "tensorShape": {"dim": [{"size": "3"}, {"size": "3"}, {"size": "88"}, {"size": "1"}]}}}, "dtype": {"type": "DT_FLOAT"}}}, {"name": "NASNet/separable_conv_1_bn_normal_left5_7/FusedBatchNorm/Offset", "op": "Const", "attr": {"value": {"tensor": {"dtype": "DT_FLOAT", "tensorShape": {"dim": [{"size": "88"}]}}}, "dtype": {"type": "DT_FLOAT"}}}, {"name": "NASNet/separable_conv_1_normal_left5_7/separable_conv2d/merged_input", "op": "Const", "attr": {"value": {"tensor": {"dtype": "DT_FLOAT", "tensorShape": {"dim": [{"size": "1"}, {"size": "1"}, {"size": "88"}, {"size": "88"}]}}}, "dtype": {"type": "DT_FLOAT"}}}, {"name": "separable_conv_1_normal_left5_7/depthwise_kernel", "op": "Const", "attr": {"value": {"tensor": {"dtype": "DT_FLOAT", "tensorShape": {"dim": [{"size": "3"}, {"size": "3"}, {"size": "88"}, {"size": "1"}]}}}, "dtype": {"type": "DT_FLOAT"}}}, {"name": "NASNet/normal_bn_1_7/FusedBatchNorm/Offset", "op": "Const", "attr": {"value": {"tensor": {"dtype": "DT_FLOAT", "tensorShape": {"dim": [{"size": "88"}]}}}, "dtype": {"type": "DT_FLOAT"}}}, {"name": "NASNet/normal_conv_1_7/Conv2D/merged_input", "op": "Const", "attr": {"value": {"tensor": {"dtype": "DT_FLOAT", "tensorShape": {"dim": [{"size": "1"}, {"size": "1"}, {"size": "528"}, {"size": "88"}]}}}, "dtype": {"type": "DT_FLOAT"}}}, {"name": "NASNet/separable_conv_2_bn_normal_left5_6/FusedBatchNorm/Offset", "op": "Const", "attr": {"dtype": {"type": "DT_FLOAT"}, "value": {"tensor": {"dtype": "DT_FLOAT", "tensorShape": {"dim": [{"size": "88"}]}}}}}, {"name": "NASNet/separable_conv_2_normal_left5_6/separable_conv2d/merged_input", "op": "Const", "attr": {"value": {"tensor": {"dtype": "DT_FLOAT", "tensorShape": {"dim": [{"size": "1"}, {"size": "1"}, {"size": "88"}, {"size": "88"}]}}}, "dtype": {"type": "DT_FLOAT"}}}, {"name": "separable_conv_2_normal_left5_6/depthwise_kernel", "op": "Const", "attr": {"dtype": {"type": "DT_FLOAT"}, "value": {"tensor": {"dtype": "DT_FLOAT", "tensorShape": {"dim": [{"size": "3"}, {"size": "3"}, {"size": "88"}, {"size": "1"}]}}}}}, {"name": "NASNet/separable_conv_1_bn_normal_left5_6/FusedBatchNorm/Offset", "op": "Const", "attr": {"value": {"tensor": {"dtype": "DT_FLOAT", "tensorShape": {"dim": [{"size": "88"}]}}}, "dtype": {"type": "DT_FLOAT"}}}, {"name": "NASNet/separable_conv_1_normal_left5_6/separable_conv2d/merged_input", "op": "Const", "attr": {"value": {"tensor": {"dtype": "DT_FLOAT", "tensorShape": {"dim": [{"size": "1"}, {"size": "1"}, {"size": "88"}, {"size": "88"}]}}}, "dtype": {"type": "DT_FLOAT"}}}, {"name": "separable_conv_1_normal_left5_6/depthwise_kernel", "op": "Const", "attr": {"value": {"tensor": {"dtype": "DT_FLOAT", "tensorShape": {"dim": [{"size": "3"}, {"size": "3"}, {"size": "88"}, {"size": "1"}]}}}, "dtype": {"type": "DT_FLOAT"}}}, {"name": "NASNet/normal_bn_1_6/FusedBatchNorm/Offset", "op": "Const", "attr": {"value": {"tensor": {"dtype": "DT_FLOAT", "tensorShape": {"dim": [{"size": "88"}]}}}, "dtype": {"type": "DT_FLOAT"}}}, {"name": "NASNet/normal_conv_1_6/Conv2D/merged_input", "op": "Const", "attr": {"value": {"tensor": {"dtype": "DT_FLOAT", "tensorShape": {"dim": [{"size": "1"}, {"size": "1"}, {"size": "528"}, {"size": "88"}]}}}, "dtype": {"type": "DT_FLOAT"}}}, {"name": "NASNet/separable_conv_2_bn_normal_left5_5/FusedBatchNorm/Offset", "op": "Const", "attr": {"value": {"tensor": {"dtype": "DT_FLOAT", "tensorShape": {"dim": [{"size": "88"}]}}}, "dtype": {"type": "DT_FLOAT"}}}, {"name": "NASNet/separable_conv_2_normal_left5_5/separable_conv2d/merged_input", "op": "Const", "attr": {"value": {"tensor": {"dtype": "DT_FLOAT", "tensorShape": {"dim": [{"size": "1"}, {"size": "1"}, {"size": "88"}, {"size": "88"}]}}}, "dtype": {"type": "DT_FLOAT"}}}, {"name": "separable_conv_2_normal_left5_5/depthwise_kernel", "op": "Const", "attr": {"value": {"tensor": {"dtype": "DT_FLOAT", "tensorShape": {"dim": [{"size": "3"}, {"size": "3"}, {"size": "88"}, {"size": "1"}]}}}, "dtype": {"type": "DT_FLOAT"}}}, {"name": "NASNet/separable_conv_1_bn_normal_left5_5/FusedBatchNorm/Offset", "op": "Const", "attr": {"value": {"tensor": {"dtype": "DT_FLOAT", "tensorShape": {"dim": [{"size": "88"}]}}}, "dtype": {"type": "DT_FLOAT"}}}, {"name": "NASNet/separable_conv_1_normal_left5_5/separable_conv2d/merged_input", "op": "Const", "attr": {"value": {"tensor": {"dtype": "DT_FLOAT", "tensorShape": {"dim": [{"size": "1"}, {"size": "1"}, {"size": "88"}, {"size": "88"}]}}}, "dtype": {"type": "DT_FLOAT"}}}, {"name": "separable_conv_1_normal_left5_5/depthwise_kernel", "op": "Const", "attr": {"value": {"tensor": {"dtype": "DT_FLOAT", "tensorShape": {"dim": [{"size": "3"}, {"size": "3"}, {"size": "88"}, {"size": "1"}]}}}, "dtype": {"type": "DT_FLOAT"}}}, {"name": "NASNet/normal_bn_1_5/FusedBatchNorm/Offset", "op": "Const", "attr": {"dtype": {"type": "DT_FLOAT"}, "value": {"tensor": {"dtype": "DT_FLOAT", "tensorShape": {"dim": [{"size": "88"}]}}}}}, {"name": "NASNet/normal_conv_1_5/Conv2D/merged_input", "op": "Const", "attr": {"value": {"tensor": {"dtype": "DT_FLOAT", "tensorShape": {"dim": [{"size": "1"}, {"size": "1"}, {"size": "352"}, {"size": "88"}]}}}, "dtype": {"type": "DT_FLOAT"}}}, {"name": "NASNet/separable_conv_2_bn_reduction_left4_reduce_4/FusedBatchNorm/Offset", "op": "Const", "attr": {"value": {"tensor": {"dtype": "DT_FLOAT", "tensorShape": {"dim": [{"size": "88"}]}}}, "dtype": {"type": "DT_FLOAT"}}}, {"name": "NASNet/separable_conv_2_reduction_left4_reduce_4/separable_conv2d/merged_input", "op": "Const", "attr": {"dtype": {"type": "DT_FLOAT"}, "value": {"tensor": {"dtype": "DT_FLOAT", "tensorShape": {"dim": [{"size": "1"}, {"size": "1"}, {"size": "88"}, {"size": "88"}]}}}}}, {"name": "separable_conv_2_reduction_left4_reduce_4/depthwise_kernel", "op": "Const", "attr": {"value": {"tensor": {"dtype": "DT_FLOAT", "tensorShape": {"dim": [{"size": "3"}, {"size": "3"}, {"size": "88"}, {"size": "1"}]}}}, "dtype": {"type": "DT_FLOAT"}}}, {"name": "NASNet/separable_conv_1_bn_reduction_left4_reduce_4/FusedBatchNorm/Offset", "op": "Const", "attr": {"value": {"tensor": {"dtype": "DT_FLOAT", "tensorShape": {"dim": [{"size": "88"}]}}}, "dtype": {"type": "DT_FLOAT"}}}, {"name": "NASNet/separable_conv_1_reduction_left4_reduce_4/separable_conv2d/merged_input", "op": "Const", "attr": {"value": {"tensor": {"dtype": "DT_FLOAT", "tensorShape": {"dim": [{"size": "1"}, {"size": "1"}, {"size": "88"}, {"size": "88"}]}}}, "dtype": {"type": "DT_FLOAT"}}}, {"name": "separable_conv_1_reduction_left4_reduce_4/depthwise_kernel", "op": "Const", "attr": {"dtype": {"type": "DT_FLOAT"}, "value": {"tensor": {"dtype": "DT_FLOAT", "tensorShape": {"dim": [{"size": "3"}, {"size": "3"}, {"size": "88"}, {"size": "1"}]}}}}}, {"name": "NASNet/separable_conv_2_bn_reduction_right1_reduce_4/FusedBatchNorm/Offset", "op": "Const", "attr": {"value": {"tensor": {"dtype": "DT_FLOAT", "tensorShape": {"dim": [{"size": "88"}]}}}, "dtype": {"type": "DT_FLOAT"}}}, {"name": "NASNet/separable_conv_2_reduction_right1_reduce_4/separable_conv2d/merged_input", "op": "Const", "attr": {"value": {"tensor": {"dtype": "DT_FLOAT", "tensorShape": {"dim": [{"size": "1"}, {"size": "1"}, {"size": "88"}, {"size": "88"}]}}}, "dtype": {"type": "DT_FLOAT"}}}, {"name": "separable_conv_2_reduction_right1_reduce_4/depthwise_kernel", "op": "Const", "attr": {"value": {"tensor": {"dtype": "DT_FLOAT", "tensorShape": {"dim": [{"size": "7"}, {"size": "7"}, {"size": "88"}, {"size": "1"}]}}}, "dtype": {"type": "DT_FLOAT"}}}, {"name": "NASNet/separable_conv_1_bn_reduction_right1_reduce_4/FusedBatchNorm/Offset", "op": "Const", "attr": {"dtype": {"type": "DT_FLOAT"}, "value": {"tensor": {"dtype": "DT_FLOAT", "tensorShape": {"dim": [{"size": "88"}]}}}}}, {"name": "NASNet/separable_conv_1_reduction_right1_reduce_4/separable_conv2d/merged_input", "op": "Const", "attr": {"value": {"tensor": {"dtype": "DT_FLOAT", "tensorShape": {"dim": [{"size": "1"}, {"size": "1"}, {"size": "88"}, {"size": "88"}]}}}, "dtype": {"type": "DT_FLOAT"}}}, {"name": "separable_conv_1_reduction_right1_reduce_4/depthwise_kernel", "op": "Const", "attr": {"value": {"tensor": {"dtype": "DT_FLOAT", "tensorShape": {"dim": [{"size": "7"}, {"size": "7"}, {"size": "88"}, {"size": "1"}]}}}, "dtype": {"type": "DT_FLOAT"}}}, {"name": "NASNet/adjust_bn_reduce_4/FusedBatchNorm/Offset", "op": "Const", "attr": {"value": {"tensor": {"dtype": "DT_FLOAT", "tensorShape": {"dim": [{"size": "88"}]}}}, "dtype": {"type": "DT_FLOAT"}}}, {"name": "NASNet/adjust_conv_projection_reduce_4/Conv2D/merged_input", "op": "Const", "attr": {"value": {"tensor": {"dtype": "DT_FLOAT", "tensorShape": {"dim": [{"size": "1"}, {"size": "1"}, {"size": "264"}, {"size": "88"}]}}}, "dtype": {"type": "DT_FLOAT"}}}, {"name": "NASNet/separable_conv_2_bn_normal_left5_2/FusedBatchNorm/Offset", "op": "Const", "attr": {"dtype": {"type": "DT_FLOAT"}, "value": {"tensor": {"dtype": "DT_FLOAT", "tensorShape": {"dim": [{"size": "44"}]}}}}}, {"name": "NASNet/separable_conv_2_normal_left5_2/separable_conv2d/merged_input", "op": "Const", "attr": {"value": {"tensor": {"dtype": "DT_FLOAT", "tensorShape": {"dim": [{"size": "1"}, {"size": "1"}, {"size": "44"}, {"size": "44"}]}}}, "dtype": {"type": "DT_FLOAT"}}}, {"name": "separable_conv_2_normal_left5_2/depthwise_kernel", "op": "Const", "attr": {"dtype": {"type": "DT_FLOAT"}, "value": {"tensor": {"dtype": "DT_FLOAT", "tensorShape": {"dim": [{"size": "3"}, {"size": "3"}, {"size": "44"}, {"size": "1"}]}}}}}, {"name": "NASNet/separable_conv_1_bn_normal_left5_2/FusedBatchNorm/Offset", "op": "Const", "attr": {"value": {"tensor": {"dtype": "DT_FLOAT", "tensorShape": {"dim": [{"size": "44"}]}}}, "dtype": {"type": "DT_FLOAT"}}}, {"name": "NASNet/separable_conv_1_normal_left5_2/separable_conv2d/merged_input", "op": "Const", "attr": {"dtype": {"type": "DT_FLOAT"}, "value": {"tensor": {"dtype": "DT_FLOAT", "tensorShape": {"dim": [{"size": "1"}, {"size": "1"}, {"size": "44"}, {"size": "44"}]}}}}}, {"name": "separable_conv_1_normal_left5_2/depthwise_kernel", "op": "Const", "attr": {"value": {"tensor": {"dtype": "DT_FLOAT", "tensorShape": {"dim": [{"size": "3"}, {"size": "3"}, {"size": "44"}, {"size": "1"}]}}}, "dtype": {"type": "DT_FLOAT"}}}, {"name": "NASNet/normal_bn_1_2/FusedBatchNorm/Offset", "op": "Const", "attr": {"dtype": {"type": "DT_FLOAT"}, "value": {"tensor": {"dtype": "DT_FLOAT", "tensorShape": {"dim": [{"size": "44"}]}}}}}, {"name": "NASNet/normal_conv_1_2/Conv2D/merged_input", "op": "Const", "attr": {"value": {"tensor": {"dtype": "DT_FLOAT", "tensorShape": {"dim": [{"size": "1"}, {"size": "1"}, {"size": "264"}, {"size": "44"}]}}}, "dtype": {"type": "DT_FLOAT"}}}, {"name": "NASNet/separable_conv_2_bn_normal_left5_1/FusedBatchNorm/Offset", "op": "Const", "attr": {"value": {"tensor": {"dtype": "DT_FLOAT", "tensorShape": {"dim": [{"size": "44"}]}}}, "dtype": {"type": "DT_FLOAT"}}}, {"name": "NASNet/separable_conv_2_normal_left5_1/separable_conv2d/merged_input", "op": "Const", "attr": {"value": {"tensor": {"dtype": "DT_FLOAT", "tensorShape": {"dim": [{"size": "1"}, {"size": "1"}, {"size": "44"}, {"size": "44"}]}}}, "dtype": {"type": "DT_FLOAT"}}}, {"name": "separable_conv_2_normal_left5_1/depthwise_kernel", "op": "Const", "attr": {"value": {"tensor": {"dtype": "DT_FLOAT", "tensorShape": {"dim": [{"size": "3"}, {"size": "3"}, {"size": "44"}, {"size": "1"}]}}}, "dtype": {"type": "DT_FLOAT"}}}, {"name": "NASNet/separable_conv_1_bn_normal_left5_1/FusedBatchNorm/Offset", "op": "Const", "attr": {"dtype": {"type": "DT_FLOAT"}, "value": {"tensor": {"dtype": "DT_FLOAT", "tensorShape": {"dim": [{"size": "44"}]}}}}}, {"name": "NASNet/separable_conv_1_normal_left5_1/separable_conv2d/merged_input", "op": "Const", "attr": {"value": {"tensor": {"dtype": "DT_FLOAT", "tensorShape": {"dim": [{"size": "1"}, {"size": "1"}, {"size": "44"}, {"size": "44"}]}}}, "dtype": {"type": "DT_FLOAT"}}}, {"name": "separable_conv_1_normal_left5_1/depthwise_kernel", "op": "Const", "attr": {"value": {"tensor": {"dtype": "DT_FLOAT", "tensorShape": {"dim": [{"size": "3"}, {"size": "3"}, {"size": "44"}, {"size": "1"}]}}}, "dtype": {"type": "DT_FLOAT"}}}, {"name": "NASNet/normal_bn_1_1/FusedBatchNorm/Offset", "op": "Const", "attr": {"value": {"tensor": {"dtype": "DT_FLOAT", "tensorShape": {"dim": [{"size": "44"}]}}}, "dtype": {"type": "DT_FLOAT"}}}, {"name": "NASNet/normal_conv_1_1/Conv2D/merged_input", "op": "Const", "attr": {"value": {"tensor": {"dtype": "DT_FLOAT", "tensorShape": {"dim": [{"size": "1"}, {"size": "1"}, {"size": "264"}, {"size": "44"}]}}}, "dtype": {"type": "DT_FLOAT"}}}, {"name": "NASNet/separable_conv_2_bn_normal_left5_0/FusedBatchNorm/Offset", "op": "Const", "attr": {"value": {"tensor": {"dtype": "DT_FLOAT", "tensorShape": {"dim": [{"size": "44"}]}}}, "dtype": {"type": "DT_FLOAT"}}}, {"name": "NASNet/separable_conv_2_normal_left5_0/separable_conv2d/merged_input", "op": "Const", "attr": {"dtype": {"type": "DT_FLOAT"}, "value": {"tensor": {"dtype": "DT_FLOAT", "tensorShape": {"dim": [{"size": "1"}, {"size": "1"}, {"size": "44"}, {"size": "44"}]}}}}}, {"name": "separable_conv_2_normal_left5_0/depthwise_kernel", "op": "Const", "attr": {"dtype": {"type": "DT_FLOAT"}, "value": {"tensor": {"dtype": "DT_FLOAT", "tensorShape": {"dim": [{"size": "3"}, {"size": "3"}, {"size": "44"}, {"size": "1"}]}}}}}, {"name": "NASNet/separable_conv_1_bn_normal_left5_0/FusedBatchNorm/Offset", "op": "Const", "attr": {"value": {"tensor": {"dtype": "DT_FLOAT", "tensorShape": {"dim": [{"size": "44"}]}}}, "dtype": {"type": "DT_FLOAT"}}}, {"name": "NASNet/separable_conv_1_normal_left5_0/separable_conv2d/merged_input", "op": "Const", "attr": {"value": {"tensor": {"dtype": "DT_FLOAT", "tensorShape": {"dim": [{"size": "1"}, {"size": "1"}, {"size": "44"}, {"size": "44"}]}}}, "dtype": {"type": "DT_FLOAT"}}}, {"name": "separable_conv_1_normal_left5_0/depthwise_kernel", "op": "Const", "attr": {"value": {"tensor": {"dtype": "DT_FLOAT", "tensorShape": {"dim": [{"size": "3"}, {"size": "3"}, {"size": "44"}, {"size": "1"}]}}}, "dtype": {"type": "DT_FLOAT"}}}, {"name": "NASNet/normal_bn_1_0/FusedBatchNorm/Offset", "op": "Const", "attr": {"value": {"tensor": {"dtype": "DT_FLOAT", "tensorShape": {"dim": [{"size": "44"}]}}}, "dtype": {"type": "DT_FLOAT"}}}, {"name": "NASNet/normal_conv_1_0/Conv2D/merged_input", "op": "Const", "attr": {"value": {"tensor": {"dtype": "DT_FLOAT", "tensorShape": {"dim": [{"size": "1"}, {"size": "1"}, {"size": "88"}, {"size": "44"}]}}}, "dtype": {"type": "DT_FLOAT"}}}, {"name": "NASNet/separable_conv_2_bn_reduction_left4_stem_2/FusedBatchNorm/Offset", "op": "Const", "attr": {"value": {"tensor": {"dtype": "DT_FLOAT", "tensorShape": {"dim": [{"size": "22"}]}}}, "dtype": {"type": "DT_FLOAT"}}}, {"name": "NASNet/separable_conv_2_reduction_left4_stem_2/separable_conv2d/merged_input", "op": "Const", "attr": {"value": {"tensor": {"dtype": "DT_FLOAT", "tensorShape": {"dim": [{"size": "1"}, {"size": "1"}, {"size": "22"}, {"size": "22"}]}}}, "dtype": {"type": "DT_FLOAT"}}}, {"name": "separable_conv_2_reduction_left4_stem_2/depthwise_kernel", "op": "Const", "attr": {"value": {"tensor": {"dtype": "DT_FLOAT", "tensorShape": {"dim": [{"size": "3"}, {"size": "3"}, {"size": "22"}, {"size": "1"}]}}}, "dtype": {"type": "DT_FLOAT"}}}, {"name": "NASNet/separable_conv_1_bn_reduction_left4_stem_2/FusedBatchNorm/Offset", "op": "Const", "attr": {"value": {"tensor": {"dtype": "DT_FLOAT", "tensorShape": {"dim": [{"size": "22"}]}}}, "dtype": {"type": "DT_FLOAT"}}}, {"name": "NASNet/separable_conv_1_reduction_left4_stem_2/separable_conv2d/merged_input", "op": "Const", "attr": {"dtype": {"type": "DT_FLOAT"}, "value": {"tensor": {"dtype": "DT_FLOAT", "tensorShape": {"dim": [{"size": "1"}, {"size": "1"}, {"size": "22"}, {"size": "22"}]}}}}}, {"name": "separable_conv_1_reduction_left4_stem_2/depthwise_kernel", "op": "Const", "attr": {"value": {"tensor": {"dtype": "DT_FLOAT", "tensorShape": {"dim": [{"size": "3"}, {"size": "3"}, {"size": "22"}, {"size": "1"}]}}}, "dtype": {"type": "DT_FLOAT"}}}, {"name": "NASNet/separable_conv_2_bn_reduction_right1_stem_2/FusedBatchNorm/Offset", "op": "Const", "attr": {"value": {"tensor": {"dtype": "DT_FLOAT", "tensorShape": {"dim": [{"size": "22"}]}}}, "dtype": {"type": "DT_FLOAT"}}}, {"name": "NASNet/separable_conv_2_reduction_right1_stem_2/separable_conv2d/merged_input", "op": "Const", "attr": {"value": {"tensor": {"dtype": "DT_FLOAT", "tensorShape": {"dim": [{"size": "1"}, {"size": "1"}, {"size": "22"}, {"size": "22"}]}}}, "dtype": {"type": "DT_FLOAT"}}}, {"name": "separable_conv_2_reduction_right1_stem_2/depthwise_kernel", "op": "Const", "attr": {"value": {"tensor": {"dtype": "DT_FLOAT", "tensorShape": {"dim": [{"size": "7"}, {"size": "7"}, {"size": "22"}, {"size": "1"}]}}}, "dtype": {"type": "DT_FLOAT"}}}, {"name": "NASNet/separable_conv_1_bn_reduction_right1_stem_2/FusedBatchNorm/Offset", "op": "Const", "attr": {"value": {"tensor": {"dtype": "DT_FLOAT", "tensorShape": {"dim": [{"size": "22"}]}}}, "dtype": {"type": "DT_FLOAT"}}}, {"name": "NASNet/separable_conv_1_reduction_right1_stem_2/separable_conv2d/merged_input", "op": "Const", "attr": {"dtype": {"type": "DT_FLOAT"}, "value": {"tensor": {"dtype": "DT_FLOAT", "tensorShape": {"dim": [{"size": "1"}, {"size": "1"}, {"size": "22"}, {"size": "22"}]}}}}}, {"name": "separable_conv_1_reduction_right1_stem_2/depthwise_kernel", "op": "Const", "attr": {"value": {"tensor": {"dtype": "DT_FLOAT", "tensorShape": {"dim": [{"size": "7"}, {"size": "7"}, {"size": "22"}, {"size": "1"}]}}}, "dtype": {"type": "DT_FLOAT"}}}, {"name": "NASNet/adjust_bn_stem_2/FusedBatchNorm/Offset", "op": "Const", "attr": {"value": {"tensor": {"dtype": "DT_FLOAT", "tensorShape": {"dim": [{"size": "22"}]}}}, "dtype": {"type": "DT_FLOAT"}}}, {"name": "adjust_conv_2_stem_2/kernel", "op": "Const", "attr": {"value": {"tensor": {"dtype": "DT_FLOAT", "tensorShape": {"dim": [{"size": "1"}, {"size": "1"}, {"size": "32"}, {"size": "11"}]}}}, "dtype": {"type": "DT_FLOAT"}}}, {"name": "NASNet/cropping2d_11/strided_slice/stack_2", "op": "Const", "attr": {"value": {"tensor": {"dtype": "DT_INT32", "tensorShape": {"dim": [{"size": "4"}]}}}, "dtype": {"type": "DT_INT32"}}}, {"name": "NASNet/cropping2d_11/strided_slice/stack_1", "op": "Const", "attr": {"value": {"tensor": {"dtype": "DT_INT32", "tensorShape": {"dim": [{"size": "4"}]}}}, "dtype": {"type": "DT_INT32"}}}, {"name": "NASNet/cropping2d_11/strided_slice/stack", "op": "Const", "attr": {"value": {"tensor": {"dtype": "DT_INT32", "tensorShape": {"dim": [{"size": "4"}]}}}, "dtype": {"type": "DT_INT32"}}}, {"name": "NASNet/zero_padding2d_11/Pad/paddings", "op": "Const", "attr": {"value": {"tensor": {"dtype": "DT_INT32", "tensorShape": {"dim": [{"size": "4"}, {"size": "2"}]}}}, "dtype": {"type": "DT_INT32"}}}, {"name": "NASNet/stem_bn1/FusedBatchNorm/Offset", "op": "Const", "attr": {"value": {"tensor": {"dtype": "DT_FLOAT", "tensorShape": {"dim": [{"size": "32"}]}}}, "dtype": {"type": "DT_FLOAT"}}}, {"name": "NASNet/stem_conv1/Conv2D/merged_input", "op": "Const", "attr": {"value": {"tensor": {"dtype": "DT_FLOAT", "tensorShape": {"dim": [{"size": "3"}, {"size": "3"}, {"size": "3"}, {"size": "32"}]}}}, "dtype": {"type": "DT_FLOAT"}}}, {"name": "NASNet_input", "op": "Placeholder", "attr": {"dtype": {"type": "DT_FLOAT"}, "shape": {"shape": {"dim": [{"size": "-1"}, {"size": "224"}, {"size": "224"}, {"size": "3"}]}}}}, {"name": "adjust_conv_1_stem_2/kernel", "op": "Const", "attr": {"value": {"tensor": {"dtype": "DT_FLOAT", "tensorShape": {"dim": [{"size": "1"}, {"size": "1"}, {"size": "32"}, {"size": "11"}]}}}, "dtype": {"type": "DT_FLOAT"}}}, {"name": "NASNet/adjust_bn_stem_2/FusedBatchNorm/Scaled", "op": "Const", "attr": {"value": {"tensor": {"dtype": "DT_FLOAT", "tensorShape": {"dim": [{"size": "22"}]}}}, "dtype": {"type": "DT_FLOAT"}}}, {"name": "NASNet/separable_conv_2_bn_reduction_left1_stem_2/FusedBatchNorm/Offset", "op": "Const", "attr": {"value": {"tensor": {"dtype": "DT_FLOAT", "tensorShape": {"dim": [{"size": "22"}]}}}, "dtype": {"type": "DT_FLOAT"}}}, {"name": "NASNet/separable_conv_2_reduction_left1_stem_2/separable_conv2d/merged_input", "op": "Const", "attr": {"dtype": {"type": "DT_FLOAT"}, "value": {"tensor": {"dtype": "DT_FLOAT", "tensorShape": {"dim": [{"size": "1"}, {"size": "1"}, {"size": "22"}, {"size": "22"}]}}}}}, {"name": "separable_conv_2_reduction_left1_stem_2/depthwise_kernel", "op": "Const", "attr": {"value": {"tensor": {"dtype": "DT_FLOAT", "tensorShape": {"dim": [{"size": "5"}, {"size": "5"}, {"size": "22"}, {"size": "1"}]}}}, "dtype": {"type": "DT_FLOAT"}}}, {"name": "NASNet/separable_conv_1_bn_reduction_left1_stem_2/FusedBatchNorm/Offset", "op": "Const", "attr": {"value": {"tensor": {"dtype": "DT_FLOAT", "tensorShape": {"dim": [{"size": "22"}]}}}, "dtype": {"type": "DT_FLOAT"}}}, {"name": "NASNet/separable_conv_1_reduction_left1_stem_2/separable_conv2d/merged_input", "op": "Const", "attr": {"value": {"tensor": {"dtype": "DT_FLOAT", "tensorShape": {"dim": [{"size": "1"}, {"size": "1"}, {"size": "22"}, {"size": "22"}]}}}, "dtype": {"type": "DT_FLOAT"}}}, {"name": "separable_conv_1_reduction_left1_stem_2/depthwise_kernel", "op": "Const", "attr": {"value": {"tensor": {"dtype": "DT_FLOAT", "tensorShape": {"dim": [{"size": "5"}, {"size": "5"}, {"size": "22"}, {"size": "1"}]}}}, "dtype": {"type": "DT_FLOAT"}}}, {"name": "NASNet/separable_conv_1_pad_reduction_right3_reduce_8/Pad/paddings", "op": "Const", "attr": {"value": {"tensor": {"dtype": "DT_INT32", "tensorShape": {"dim": [{"size": "4"}, {"size": "2"}]}}}, "dtype": {"type": "DT_INT32"}}}, {"name": "NASNet/reduction_bn_1_stem_2/FusedBatchNorm/Offset", "op": "Const", "attr": {"value": {"tensor": {"dtype": "DT_FLOAT", "tensorShape": {"dim": [{"size": "22"}]}}}, "dtype": {"type": "DT_FLOAT"}}}, {"name": "NASNet/reduction_conv_1_stem_2/Conv2D/merged_input", "op": "Const", "attr": {"value": {"tensor": {"dtype": "DT_FLOAT", "tensorShape": {"dim": [{"size": "1"}, {"size": "1"}, {"size": "44"}, {"size": "22"}]}}}, "dtype": {"type": "DT_FLOAT"}}}, {"name": "NASNet/separable_conv_2_bn_reduction_left4_stem_1/FusedBatchNorm/Offset", "op": "Const", "attr": {"value": {"tensor": {"dtype": "DT_FLOAT", "tensorShape": {"dim": [{"size": "11"}]}}}, "dtype": {"type": "DT_FLOAT"}}}, {"name": "NASNet/separable_conv_2_reduction_left4_stem_1/separable_conv2d/merged_input", "op": "Const", "attr": {"value": {"tensor": {"dtype": "DT_FLOAT", "tensorShape": {"dim": [{"size": "1"}, {"size": "1"}, {"size": "11"}, {"size": "11"}]}}}, "dtype": {"type": "DT_FLOAT"}}}, {"name": "separable_conv_2_reduction_left4_stem_1/depthwise_kernel", "op": "Const", "attr": {"value": {"tensor": {"dtype": "DT_FLOAT", "tensorShape": {"dim": [{"size": "3"}, {"size": "3"}, {"size": "11"}, {"size": "1"}]}}}, "dtype": {"type": "DT_FLOAT"}}}, {"name": "NASNet/separable_conv_1_bn_reduction_left4_stem_1/FusedBatchNorm/Offset", "op": "Const", "attr": {"dtype": {"type": "DT_FLOAT"}, "value": {"tensor": {"dtype": "DT_FLOAT", "tensorShape": {"dim": [{"size": "11"}]}}}}}, {"name": "NASNet/separable_conv_1_reduction_left4_stem_1/separable_conv2d/merged_input", "op": "Const", "attr": {"value": {"tensor": {"dtype": "DT_FLOAT", "tensorShape": {"dim": [{"size": "1"}, {"size": "1"}, {"size": "11"}, {"size": "11"}]}}}, "dtype": {"type": "DT_FLOAT"}}}, {"name": "separable_conv_1_reduction_left4_stem_1/depthwise_kernel", "op": "Const", "attr": {"value": {"tensor": {"dtype": "DT_FLOAT", "tensorShape": {"dim": [{"size": "3"}, {"size": "3"}, {"size": "11"}, {"size": "1"}]}}}, "dtype": {"type": "DT_FLOAT"}}}, {"name": "NASNet/separable_conv_2_bn_reduction_right1_stem_1/FusedBatchNorm/Offset", "op": "Const", "attr": {"value": {"tensor": {"dtype": "DT_FLOAT", "tensorShape": {"dim": [{"size": "11"}]}}}, "dtype": {"type": "DT_FLOAT"}}}, {"name": "NASNet/separable_conv_2_reduction_right1_stem_1/separable_conv2d/merged_input", "op": "Const", "attr": {"value": {"tensor": {"dtype": "DT_FLOAT", "tensorShape": {"dim": [{"size": "1"}, {"size": "1"}, {"size": "11"}, {"size": "11"}]}}}, "dtype": {"type": "DT_FLOAT"}}}, {"name": "separable_conv_2_reduction_right1_stem_1/depthwise_kernel", "op": "Const", "attr": {"value": {"tensor": {"dtype": "DT_FLOAT", "tensorShape": {"dim": [{"size": "7"}, {"size": "7"}, {"size": "11"}, {"size": "1"}]}}}, "dtype": {"type": "DT_FLOAT"}}}, {"name": "NASNet/separable_conv_1_bn_reduction_right1_stem_1/FusedBatchNorm/Offset", "op": "Const", "attr": {"value": {"tensor": {"dtype": "DT_FLOAT", "tensorShape": {"dim": [{"size": "11"}]}}}, "dtype": {"type": "DT_FLOAT"}}}, {"name": "NASNet/separable_conv_1_reduction_right1_stem_1/separable_conv2d/merged_input", "op": "Const", "attr": {"value": {"tensor": {"dtype": "DT_FLOAT", "tensorShape": {"dim": [{"size": "1"}, {"size": "1"}, {"size": "32"}, {"size": "11"}]}}}, "dtype": {"type": "DT_FLOAT"}}}, {"name": "separable_conv_1_reduction_right1_stem_1/depthwise_kernel", "op": "Const", "attr": {"value": {"tensor": {"dtype": "DT_FLOAT", "tensorShape": {"dim": [{"size": "7"}, {"size": "7"}, {"size": "32"}, {"size": "1"}]}}}, "dtype": {"type": "DT_FLOAT"}}}, {"name": "NASNet/separable_conv_1_pad_reduction_right2_stem_1/Pad/paddings", "op": "Const", "attr": {"value": {"tensor": {"dtype": "DT_INT32", "tensorShape": {"dim": [{"size": "4"}, {"size": "2"}]}}}, "dtype": {"type": "DT_INT32"}}}, {"name": "NASNet/separable_conv_2_bn_reduction_left1_stem_1/FusedBatchNorm/Offset", "op": "Const", "attr": {"value": {"tensor": {"dtype": "DT_FLOAT", "tensorShape": {"dim": [{"size": "11"}]}}}, "dtype": {"type": "DT_FLOAT"}}}, {"name": "NASNet/separable_conv_2_reduction_left1_stem_1/separable_conv2d/merged_input", "op": "Const", "attr": {"dtype": {"type": "DT_FLOAT"}, "value": {"tensor": {"dtype": "DT_FLOAT", "tensorShape": {"dim": [{"size": "1"}, {"size": "1"}, {"size": "11"}, {"size": "11"}]}}}}}, {"name": "separable_conv_2_reduction_left1_stem_1/depthwise_kernel", "op": "Const", "attr": {"value": {"tensor": {"dtype": "DT_FLOAT", "tensorShape": {"dim": [{"size": "5"}, {"size": "5"}, {"size": "11"}, {"size": "1"}]}}}, "dtype": {"type": "DT_FLOAT"}}}, {"name": "NASNet/separable_conv_1_bn_reduction_left1_stem_1/FusedBatchNorm/Offset", "op": "Const", "attr": {"value": {"tensor": {"dtype": "DT_FLOAT", "tensorShape": {"dim": [{"size": "11"}]}}}, "dtype": {"type": "DT_FLOAT"}}}, {"name": "NASNet/separable_conv_1_reduction_left1_stem_1/separable_conv2d/merged_input", "op": "Const", "attr": {"value": {"tensor": {"dtype": "DT_FLOAT", "tensorShape": {"dim": [{"size": "1"}, {"size": "1"}, {"size": "11"}, {"size": "11"}]}}}, "dtype": {"type": "DT_FLOAT"}}}, {"name": "separable_conv_1_reduction_left1_stem_1/depthwise_kernel", "op": "Const", "attr": {"value": {"tensor": {"dtype": "DT_FLOAT", "tensorShape": {"dim": [{"size": "5"}, {"size": "5"}, {"size": "11"}, {"size": "1"}]}}}, "dtype": {"type": "DT_FLOAT"}}}, {"name": "NASNet/separable_conv_1_pad_reduction_right3_stem_1/Pad/paddings", "op": "Const", "attr": {"value": {"tensor": {"dtype": "DT_INT32", "tensorShape": {"dim": [{"size": "4"}, {"size": "2"}]}}}, "dtype": {"type": "DT_INT32"}}}, {"name": "NASNet/reduction_bn_1_stem_1/FusedBatchNorm/Offset", "op": "Const", "attr": {"value": {"tensor": {"dtype": "DT_FLOAT", "tensorShape": {"dim": [{"size": "11"}]}}}, "dtype": {"type": "DT_FLOAT"}}}, {"name": "NASNet/reduction_conv_1_stem_1/Conv2D/merged_input", "op": "Const", "attr": {"value": {"tensor": {"dtype": "DT_FLOAT", "tensorShape": {"dim": [{"size": "1"}, {"size": "1"}, {"size": "32"}, {"size": "11"}]}}}, "dtype": {"type": "DT_FLOAT"}}}, {"name": "NASNet/reduction_pad_1_stem_1/Pad/paddings", "op": "Const", "attr": {"dtype": {"type": "DT_INT32"}, "value": {"tensor": {"dtype": "DT_INT32", "tensorShape": {"dim": [{"size": "4"}, {"size": "2"}]}}}}}, {"name": "NASNet/separable_conv_2_bn_reduction_right2_stem_1/FusedBatchNorm/Offset", "op": "Const", "attr": {"dtype": {"type": "DT_FLOAT"}, "value": {"tensor": {"dtype": "DT_FLOAT", "tensorShape": {"dim": [{"size": "11"}]}}}}}, {"name": "NASNet/separable_conv_2_reduction_right2_stem_1/separable_conv2d/merged_input", "op": "Const", "attr": {"value": {"tensor": {"dtype": "DT_FLOAT", "tensorShape": {"dim": [{"size": "1"}, {"size": "1"}, {"size": "11"}, {"size": "11"}]}}}, "dtype": {"type": "DT_FLOAT"}}}, {"name": "separable_conv_2_reduction_right2_stem_1/depthwise_kernel", "op": "Const", "attr": {"value": {"tensor": {"dtype": "DT_FLOAT", "tensorShape": {"dim": [{"size": "7"}, {"size": "7"}, {"size": "11"}, {"size": "1"}]}}}, "dtype": {"type": "DT_FLOAT"}}}, {"name": "NASNet/separable_conv_1_bn_reduction_right2_stem_1/FusedBatchNorm/Offset", "op": "Const", "attr": {"dtype": {"type": "DT_FLOAT"}, "value": {"tensor": {"dtype": "DT_FLOAT", "tensorShape": {"dim": [{"size": "11"}]}}}}}, {"name": "NASNet/separable_conv_1_reduction_right2_stem_1/separable_conv2d/merged_input", "op": "Const", "attr": {"value": {"tensor": {"dtype": "DT_FLOAT", "tensorShape": {"dim": [{"size": "1"}, {"size": "1"}, {"size": "32"}, {"size": "11"}]}}}, "dtype": {"type": "DT_FLOAT"}}}, {"name": "separable_conv_1_reduction_right2_stem_1/depthwise_kernel", "op": "Const", "attr": {"value": {"tensor": {"dtype": "DT_FLOAT", "tensorShape": {"dim": [{"size": "7"}, {"size": "7"}, {"size": "32"}, {"size": "1"}]}}}, "dtype": {"type": "DT_FLOAT"}}}, {"name": "NASNet/separable_conv_2_bn_reduction_right3_stem_1/FusedBatchNorm/Offset", "op": "Const", "attr": {"value": {"tensor": {"dtype": "DT_FLOAT", "tensorShape": {"dim": [{"size": "11"}]}}}, "dtype": {"type": "DT_FLOAT"}}}, {"name": "NASNet/separable_conv_2_reduction_right3_stem_1/separable_conv2d/merged_input", "op": "Const", "attr": {"value": {"tensor": {"dtype": "DT_FLOAT", "tensorShape": {"dim": [{"size": "1"}, {"size": "1"}, {"size": "11"}, {"size": "11"}]}}}, "dtype": {"type": "DT_FLOAT"}}}, {"name": "separable_conv_2_reduction_right3_stem_1/depthwise_kernel", "op": "Const", "attr": {"dtype": {"type": "DT_FLOAT"}, "value": {"tensor": {"dtype": "DT_FLOAT", "tensorShape": {"dim": [{"size": "5"}, {"size": "5"}, {"size": "11"}, {"size": "1"}]}}}}}, {"name": "NASNet/separable_conv_1_bn_reduction_right3_stem_1/FusedBatchNorm/Offset", "op": "Const", "attr": {"value": {"tensor": {"dtype": "DT_FLOAT", "tensorShape": {"dim": [{"size": "11"}]}}}, "dtype": {"type": "DT_FLOAT"}}}, {"name": "NASNet/separable_conv_1_reduction_right3_stem_1/separable_conv2d/merged_input", "op": "Const", "attr": {"value": {"tensor": {"dtype": "DT_FLOAT", "tensorShape": {"dim": [{"size": "1"}, {"size": "1"}, {"size": "32"}, {"size": "11"}]}}}, "dtype": {"type": "DT_FLOAT"}}}, {"name": "separable_conv_1_reduction_right3_stem_1/depthwise_kernel", "op": "Const", "attr": {"value": {"tensor": {"dtype": "DT_FLOAT", "tensorShape": {"dim": [{"size": "5"}, {"size": "5"}, {"size": "32"}, {"size": "1"}]}}}, "dtype": {"type": "DT_FLOAT"}}}, {"name": "NASNet/separable_conv_2_bn_reduction_right2_stem_2/FusedBatchNorm/Offset", "op": "Const", "attr": {"dtype": {"type": "DT_FLOAT"}, "value": {"tensor": {"dtype": "DT_FLOAT", "tensorShape": {"dim": [{"size": "22"}]}}}}}, {"name": "NASNet/separable_conv_2_reduction_right2_stem_2/separable_conv2d/merged_input", "op": "Const", "attr": {"dtype": {"type": "DT_FLOAT"}, "value": {"tensor": {"dtype": "DT_FLOAT", "tensorShape": {"dim": [{"size": "1"}, {"size": "1"}, {"size": "22"}, {"size": "22"}]}}}}}, {"name": "separable_conv_2_reduction_right2_stem_2/depthwise_kernel", "op": "Const", "attr": {"dtype": {"type": "DT_FLOAT"}, "value": {"tensor": {"dtype": "DT_FLOAT", "tensorShape": {"dim": [{"size": "7"}, {"size": "7"}, {"size": "22"}, {"size": "1"}]}}}}}, {"name": "NASNet/separable_conv_1_bn_reduction_right2_stem_2/FusedBatchNorm/Offset", "op": "Const", "attr": {"dtype": {"type": "DT_FLOAT"}, "value": {"tensor": {"dtype": "DT_FLOAT", "tensorShape": {"dim": [{"size": "22"}]}}}}}, {"name": "NASNet/separable_conv_1_reduction_right2_stem_2/separable_conv2d/merged_input", "op": "Const", "attr": {"value": {"tensor": {"dtype": "DT_FLOAT", "tensorShape": {"dim": [{"size": "1"}, {"size": "1"}, {"size": "22"}, {"size": "22"}]}}}, "dtype": {"type": "DT_FLOAT"}}}, {"name": "separable_conv_1_reduction_right2_stem_2/depthwise_kernel", "op": "Const", "attr": {"value": {"tensor": {"dtype": "DT_FLOAT", "tensorShape": {"dim": [{"size": "7"}, {"size": "7"}, {"size": "22"}, {"size": "1"}]}}}, "dtype": {"type": "DT_FLOAT"}}}, {"name": "NASNet/separable_conv_2_bn_reduction_right3_stem_2/FusedBatchNorm/Offset", "op": "Const", "attr": {"value": {"tensor": {"dtype": "DT_FLOAT", "tensorShape": {"dim": [{"size": "22"}]}}}, "dtype": {"type": "DT_FLOAT"}}}, {"name": "NASNet/separable_conv_2_reduction_right3_stem_2/separable_conv2d/merged_input", "op": "Const", "attr": {"value": {"tensor": {"dtype": "DT_FLOAT", "tensorShape": {"dim": [{"size": "1"}, {"size": "1"}, {"size": "22"}, {"size": "22"}]}}}, "dtype": {"type": "DT_FLOAT"}}}, {"name": "separable_conv_2_reduction_right3_stem_2/depthwise_kernel", "op": "Const", "attr": {"dtype": {"type": "DT_FLOAT"}, "value": {"tensor": {"dtype": "DT_FLOAT", "tensorShape": {"dim": [{"size": "5"}, {"size": "5"}, {"size": "22"}, {"size": "1"}]}}}}}, {"name": "NASNet/separable_conv_1_bn_reduction_right3_stem_2/FusedBatchNorm/Offset", "op": "Const", "attr": {"value": {"tensor": {"dtype": "DT_FLOAT", "tensorShape": {"dim": [{"size": "22"}]}}}, "dtype": {"type": "DT_FLOAT"}}}, {"name": "NASNet/separable_conv_1_reduction_right3_stem_2/separable_conv2d/merged_input", "op": "Const", "attr": {"value": {"tensor": {"dtype": "DT_FLOAT", "tensorShape": {"dim": [{"size": "1"}, {"size": "1"}, {"size": "22"}, {"size": "22"}]}}}, "dtype": {"type": "DT_FLOAT"}}}, {"name": "separable_conv_1_reduction_right3_stem_2/depthwise_kernel", "op": "Const", "attr": {"value": {"tensor": {"dtype": "DT_FLOAT", "tensorShape": {"dim": [{"size": "5"}, {"size": "5"}, {"size": "22"}, {"size": "1"}]}}}, "dtype": {"type": "DT_FLOAT"}}}, {"name": "NASNet/adjust_bn_0/FusedBatchNorm/Offset", "op": "Const", "attr": {"value": {"tensor": {"dtype": "DT_FLOAT", "tensorShape": {"dim": [{"size": "44"}]}}}, "dtype": {"type": "DT_FLOAT"}}}, {"name": "adjust_conv_2_0/kernel", "op": "Const", "attr": {"value": {"tensor": {"dtype": "DT_FLOAT", "tensorShape": {"dim": [{"size": "1"}, {"size": "1"}, {"size": "44"}, {"size": "22"}]}}}, "dtype": {"type": "DT_FLOAT"}}}, {"name": "adjust_conv_1_0/kernel", "op": "Const", "attr": {"dtype": {"type": "DT_FLOAT"}, "value": {"tensor": {"dtype": "DT_FLOAT", "tensorShape": {"dim": [{"size": "1"}, {"size": "1"}, {"size": "44"}, {"size": "22"}]}}}}}, {"name": "NASNet/adjust_bn_0/FusedBatchNorm/Scaled", "op": "Const", "attr": {"dtype": {"type": "DT_FLOAT"}, "value": {"tensor": {"dtype": "DT_FLOAT", "tensorShape": {"dim": [{"size": "44"}]}}}}}, {"name": "NASNet/separable_conv_2_bn_normal_right2_0/FusedBatchNorm/Offset", "op": "Const", "attr": {"value": {"tensor": {"dtype": "DT_FLOAT", "tensorShape": {"dim": [{"size": "44"}]}}}, "dtype": {"type": "DT_FLOAT"}}}, {"name": "NASNet/separable_conv_2_normal_right2_0/separable_conv2d/merged_input", "op": "Const", "attr": {"dtype": {"type": "DT_FLOAT"}, "value": {"tensor": {"dtype": "DT_FLOAT", "tensorShape": {"dim": [{"size": "1"}, {"size": "1"}, {"size": "44"}, {"size": "44"}]}}}}}, {"name": "separable_conv_2_normal_right2_0/depthwise_kernel", "op": "Const", "attr": {"value": {"tensor": {"dtype": "DT_FLOAT", "tensorShape": {"dim": [{"size": "3"}, {"size": "3"}, {"size": "44"}, {"size": "1"}]}}}, "dtype": {"type": "DT_FLOAT"}}}, {"name": "NASNet/separable_conv_1_bn_normal_right2_0/FusedBatchNorm/Offset", "op": "Const", "attr": {"dtype": {"type": "DT_FLOAT"}, "value": {"tensor": {"dtype": "DT_FLOAT", "tensorShape": {"dim": [{"size": "44"}]}}}}}, {"name": "NASNet/separable_conv_1_normal_right2_0/separable_conv2d/merged_input", "op": "Const", "attr": {"value": {"tensor": {"dtype": "DT_FLOAT", "tensorShape": {"dim": [{"size": "1"}, {"size": "1"}, {"size": "44"}, {"size": "44"}]}}}, "dtype": {"type": "DT_FLOAT"}}}, {"name": "separable_conv_1_normal_right2_0/depthwise_kernel", "op": "Const", "attr": {"value": {"tensor": {"dtype": "DT_FLOAT", "tensorShape": {"dim": [{"size": "3"}, {"size": "3"}, {"size": "44"}, {"size": "1"}]}}}, "dtype": {"type": "DT_FLOAT"}}}, {"name": "NASNet/separable_conv_2_bn_normal_left2_0/FusedBatchNorm/Offset", "op": "Const", "attr": {"value": {"tensor": {"dtype": "DT_FLOAT", "tensorShape": {"dim": [{"size": "44"}]}}}, "dtype": {"type": "DT_FLOAT"}}}, {"name": "NASNet/separable_conv_2_normal_left2_0/separable_conv2d/merged_input", "op": "Const", "attr": {"dtype": {"type": "DT_FLOAT"}, "value": {"tensor": {"dtype": "DT_FLOAT", "tensorShape": {"dim": [{"size": "1"}, {"size": "1"}, {"size": "44"}, {"size": "44"}]}}}}}, {"name": "separable_conv_2_normal_left2_0/depthwise_kernel", "op": "Const", "attr": {"value": {"tensor": {"dtype": "DT_FLOAT", "tensorShape": {"dim": [{"size": "5"}, {"size": "5"}, {"size": "44"}, {"size": "1"}]}}}, "dtype": {"type": "DT_FLOAT"}}}, {"name": "NASNet/separable_conv_1_bn_normal_left2_0/FusedBatchNorm/Offset", "op": "Const", "attr": {"value": {"tensor": {"dtype": "DT_FLOAT", "tensorShape": {"dim": [{"size": "44"}]}}}, "dtype": {"type": "DT_FLOAT"}}}, {"name": "NASNet/separable_conv_1_normal_left2_0/separable_conv2d/merged_input", "op": "Const", "attr": {"dtype": {"type": "DT_FLOAT"}, "value": {"tensor": {"dtype": "DT_FLOAT", "tensorShape": {"dim": [{"size": "1"}, {"size": "1"}, {"size": "44"}, {"size": "44"}]}}}}}, {"name": "separable_conv_1_normal_left2_0/depthwise_kernel", "op": "Const", "attr": {"value": {"tensor": {"dtype": "DT_FLOAT", "tensorShape": {"dim": [{"size": "5"}, {"size": "5"}, {"size": "44"}, {"size": "1"}]}}}, "dtype": {"type": "DT_FLOAT"}}}, {"name": "NASNet/separable_conv_2_bn_normal_right1_0/FusedBatchNorm/Offset", "op": "Const", "attr": {"value": {"tensor": {"dtype": "DT_FLOAT", "tensorShape": {"dim": [{"size": "44"}]}}}, "dtype": {"type": "DT_FLOAT"}}}, {"name": "NASNet/separable_conv_2_normal_right1_0/separable_conv2d/merged_input", "op": "Const", "attr": {"value": {"tensor": {"dtype": "DT_FLOAT", "tensorShape": {"dim": [{"size": "1"}, {"size": "1"}, {"size": "44"}, {"size": "44"}]}}}, "dtype": {"type": "DT_FLOAT"}}}, {"name": "separable_conv_2_normal_right1_0/depthwise_kernel", "op": "Const", "attr": {"value": {"tensor": {"dtype": "DT_FLOAT", "tensorShape": {"dim": [{"size": "3"}, {"size": "3"}, {"size": "44"}, {"size": "1"}]}}}, "dtype": {"type": "DT_FLOAT"}}}, {"name": "NASNet/separable_conv_1_bn_normal_right1_0/FusedBatchNorm/Offset", "op": "Const", "attr": {"value": {"tensor": {"dtype": "DT_FLOAT", "tensorShape": {"dim": [{"size": "44"}]}}}, "dtype": {"type": "DT_FLOAT"}}}, {"name": "NASNet/separable_conv_1_normal_right1_0/separable_conv2d/merged_input", "op": "Const", "attr": {"dtype": {"type": "DT_FLOAT"}, "value": {"tensor": {"dtype": "DT_FLOAT", "tensorShape": {"dim": [{"size": "1"}, {"size": "1"}, {"size": "44"}, {"size": "44"}]}}}}}, {"name": "separable_conv_1_normal_right1_0/depthwise_kernel", "op": "Const", "attr": {"value": {"tensor": {"dtype": "DT_FLOAT", "tensorShape": {"dim": [{"size": "3"}, {"size": "3"}, {"size": "44"}, {"size": "1"}]}}}, "dtype": {"type": "DT_FLOAT"}}}, {"name": "NASNet/separable_conv_2_bn_normal_left1_0/FusedBatchNorm/Offset", "op": "Const", "attr": {"value": {"tensor": {"dtype": "DT_FLOAT", "tensorShape": {"dim": [{"size": "44"}]}}}, "dtype": {"type": "DT_FLOAT"}}}, {"name": "NASNet/separable_conv_2_normal_left1_0/separable_conv2d/merged_input", "op": "Const", "attr": {"value": {"tensor": {"dtype": "DT_FLOAT", "tensorShape": {"dim": [{"size": "1"}, {"size": "1"}, {"size": "44"}, {"size": "44"}]}}}, "dtype": {"type": "DT_FLOAT"}}}, {"name": "separable_conv_2_normal_left1_0/depthwise_kernel", "op": "Const", "attr": {"value": {"tensor": {"dtype": "DT_FLOAT", "tensorShape": {"dim": [{"size": "5"}, {"size": "5"}, {"size": "44"}, {"size": "1"}]}}}, "dtype": {"type": "DT_FLOAT"}}}, {"name": "NASNet/separable_conv_1_bn_normal_left1_0/FusedBatchNorm/Offset", "op": "Const", "attr": {"value": {"tensor": {"dtype": "DT_FLOAT", "tensorShape": {"dim": [{"size": "44"}]}}}, "dtype": {"type": "DT_FLOAT"}}}, {"name": "NASNet/separable_conv_1_normal_left1_0/separable_conv2d/merged_input", "op": "Const", "attr": {"dtype": {"type": "DT_FLOAT"}, "value": {"tensor": {"dtype": "DT_FLOAT", "tensorShape": {"dim": [{"size": "1"}, {"size": "1"}, {"size": "44"}, {"size": "44"}]}}}}}, {"name": "separable_conv_1_normal_left1_0/depthwise_kernel", "op": "Const", "attr": {"value": {"tensor": {"dtype": "DT_FLOAT", "tensorShape": {"dim": [{"size": "5"}, {"size": "5"}, {"size": "44"}, {"size": "1"}]}}}, "dtype": {"type": "DT_FLOAT"}}}, {"name": "NASNet/adjust_bn_1/FusedBatchNorm/Offset", "op": "Const", "attr": {"dtype": {"type": "DT_FLOAT"}, "value": {"tensor": {"dtype": "DT_FLOAT", "tensorShape": {"dim": [{"size": "44"}]}}}}}, {"name": "NASNet/adjust_conv_projection_1/Conv2D/merged_input", "op": "Const", "attr": {"value": {"tensor": {"dtype": "DT_FLOAT", "tensorShape": {"dim": [{"size": "1"}, {"size": "1"}, {"size": "88"}, {"size": "44"}]}}}, "dtype": {"type": "DT_FLOAT"}}}, {"name": "NASNet/separable_conv_2_bn_normal_right2_1/FusedBatchNorm/Offset", "op": "Const", "attr": {"value": {"tensor": {"dtype": "DT_FLOAT", "tensorShape": {"dim": [{"size": "44"}]}}}, "dtype": {"type": "DT_FLOAT"}}}, {"name": "NASNet/separable_conv_2_normal_right2_1/separable_conv2d/merged_input", "op": "Const", "attr": {"dtype": {"type": "DT_FLOAT"}, "value": {"tensor": {"dtype": "DT_FLOAT", "tensorShape": {"dim": [{"size": "1"}, {"size": "1"}, {"size": "44"}, {"size": "44"}]}}}}}, {"name": "separable_conv_2_normal_right2_1/depthwise_kernel", "op": "Const", "attr": {"value": {"tensor": {"dtype": "DT_FLOAT", "tensorShape": {"dim": [{"size": "3"}, {"size": "3"}, {"size": "44"}, {"size": "1"}]}}}, "dtype": {"type": "DT_FLOAT"}}}, {"name": "NASNet/separable_conv_1_bn_normal_right2_1/FusedBatchNorm/Offset", "op": "Const", "attr": {"dtype": {"type": "DT_FLOAT"}, "value": {"tensor": {"dtype": "DT_FLOAT", "tensorShape": {"dim": [{"size": "44"}]}}}}}, {"name": "NASNet/separable_conv_1_normal_right2_1/separable_conv2d/merged_input", "op": "Const", "attr": {"value": {"tensor": {"dtype": "DT_FLOAT", "tensorShape": {"dim": [{"size": "1"}, {"size": "1"}, {"size": "44"}, {"size": "44"}]}}}, "dtype": {"type": "DT_FLOAT"}}}, {"name": "separable_conv_1_normal_right2_1/depthwise_kernel", "op": "Const", "attr": {"value": {"tensor": {"dtype": "DT_FLOAT", "tensorShape": {"dim": [{"size": "3"}, {"size": "3"}, {"size": "44"}, {"size": "1"}]}}}, "dtype": {"type": "DT_FLOAT"}}}, {"name": "NASNet/separable_conv_2_bn_normal_left2_1/FusedBatchNorm/Offset", "op": "Const", "attr": {"dtype": {"type": "DT_FLOAT"}, "value": {"tensor": {"dtype": "DT_FLOAT", "tensorShape": {"dim": [{"size": "44"}]}}}}}, {"name": "NASNet/separable_conv_2_normal_left2_1/separable_conv2d/merged_input", "op": "Const", "attr": {"value": {"tensor": {"dtype": "DT_FLOAT", "tensorShape": {"dim": [{"size": "1"}, {"size": "1"}, {"size": "44"}, {"size": "44"}]}}}, "dtype": {"type": "DT_FLOAT"}}}, {"name": "separable_conv_2_normal_left2_1/depthwise_kernel", "op": "Const", "attr": {"value": {"tensor": {"dtype": "DT_FLOAT", "tensorShape": {"dim": [{"size": "5"}, {"size": "5"}, {"size": "44"}, {"size": "1"}]}}}, "dtype": {"type": "DT_FLOAT"}}}, {"name": "NASNet/separable_conv_1_bn_normal_left2_1/FusedBatchNorm/Offset", "op": "Const", "attr": {"value": {"tensor": {"dtype": "DT_FLOAT", "tensorShape": {"dim": [{"size": "44"}]}}}, "dtype": {"type": "DT_FLOAT"}}}, {"name": "NASNet/separable_conv_1_normal_left2_1/separable_conv2d/merged_input", "op": "Const", "attr": {"value": {"tensor": {"dtype": "DT_FLOAT", "tensorShape": {"dim": [{"size": "1"}, {"size": "1"}, {"size": "44"}, {"size": "44"}]}}}, "dtype": {"type": "DT_FLOAT"}}}, {"name": "separable_conv_1_normal_left2_1/depthwise_kernel", "op": "Const", "attr": {"value": {"tensor": {"dtype": "DT_FLOAT", "tensorShape": {"dim": [{"size": "5"}, {"size": "5"}, {"size": "44"}, {"size": "1"}]}}}, "dtype": {"type": "DT_FLOAT"}}}, {"name": "NASNet/separable_conv_2_bn_normal_right1_1/FusedBatchNorm/Offset", "op": "Const", "attr": {"value": {"tensor": {"dtype": "DT_FLOAT", "tensorShape": {"dim": [{"size": "44"}]}}}, "dtype": {"type": "DT_FLOAT"}}}, {"name": "NASNet/separable_conv_2_normal_right1_1/separable_conv2d/merged_input", "op": "Const", "attr": {"value": {"tensor": {"dtype": "DT_FLOAT", "tensorShape": {"dim": [{"size": "1"}, {"size": "1"}, {"size": "44"}, {"size": "44"}]}}}, "dtype": {"type": "DT_FLOAT"}}}, {"name": "separable_conv_2_normal_right1_1/depthwise_kernel", "op": "Const", "attr": {"dtype": {"type": "DT_FLOAT"}, "value": {"tensor": {"dtype": "DT_FLOAT", "tensorShape": {"dim": [{"size": "3"}, {"size": "3"}, {"size": "44"}, {"size": "1"}]}}}}}, {"name": "NASNet/separable_conv_1_bn_normal_right1_1/FusedBatchNorm/Offset", "op": "Const", "attr": {"value": {"tensor": {"dtype": "DT_FLOAT", "tensorShape": {"dim": [{"size": "44"}]}}}, "dtype": {"type": "DT_FLOAT"}}}, {"name": "NASNet/separable_conv_1_normal_right1_1/separable_conv2d/merged_input", "op": "Const", "attr": {"value": {"tensor": {"dtype": "DT_FLOAT", "tensorShape": {"dim": [{"size": "1"}, {"size": "1"}, {"size": "44"}, {"size": "44"}]}}}, "dtype": {"type": "DT_FLOAT"}}}, {"name": "separable_conv_1_normal_right1_1/depthwise_kernel", "op": "Const", "attr": {"value": {"tensor": {"dtype": "DT_FLOAT", "tensorShape": {"dim": [{"size": "3"}, {"size": "3"}, {"size": "44"}, {"size": "1"}]}}}, "dtype": {"type": "DT_FLOAT"}}}, {"name": "NASNet/separable_conv_2_bn_normal_left1_1/FusedBatchNorm/Offset", "op": "Const", "attr": {"value": {"tensor": {"dtype": "DT_FLOAT", "tensorShape": {"dim": [{"size": "44"}]}}}, "dtype": {"type": "DT_FLOAT"}}}, {"name": "NASNet/separable_conv_2_normal_left1_1/separable_conv2d/merged_input", "op": "Const", "attr": {"value": {"tensor": {"dtype": "DT_FLOAT", "tensorShape": {"dim": [{"size": "1"}, {"size": "1"}, {"size": "44"}, {"size": "44"}]}}}, "dtype": {"type": "DT_FLOAT"}}}, {"name": "separable_conv_2_normal_left1_1/depthwise_kernel", "op": "Const", "attr": {"value": {"tensor": {"dtype": "DT_FLOAT", "tensorShape": {"dim": [{"size": "5"}, {"size": "5"}, {"size": "44"}, {"size": "1"}]}}}, "dtype": {"type": "DT_FLOAT"}}}, {"name": "NASNet/separable_conv_1_bn_normal_left1_1/FusedBatchNorm/Offset", "op": "Const", "attr": {"value": {"tensor": {"dtype": "DT_FLOAT", "tensorShape": {"dim": [{"size": "44"}]}}}, "dtype": {"type": "DT_FLOAT"}}}, {"name": "NASNet/separable_conv_1_normal_left1_1/separable_conv2d/merged_input", "op": "Const", "attr": {"value": {"tensor": {"dtype": "DT_FLOAT", "tensorShape": {"dim": [{"size": "1"}, {"size": "1"}, {"size": "44"}, {"size": "44"}]}}}, "dtype": {"type": "DT_FLOAT"}}}, {"name": "separable_conv_1_normal_left1_1/depthwise_kernel", "op": "Const", "attr": {"dtype": {"type": "DT_FLOAT"}, "value": {"tensor": {"dtype": "DT_FLOAT", "tensorShape": {"dim": [{"size": "5"}, {"size": "5"}, {"size": "44"}, {"size": "1"}]}}}}}, {"name": "NASNet/adjust_bn_2/FusedBatchNorm/Offset", "op": "Const", "attr": {"dtype": {"type": "DT_FLOAT"}, "value": {"tensor": {"dtype": "DT_FLOAT", "tensorShape": {"dim": [{"size": "44"}]}}}}}, {"name": "NASNet/adjust_conv_projection_2/Conv2D/merged_input", "op": "Const", "attr": {"value": {"tensor": {"dtype": "DT_FLOAT", "tensorShape": {"dim": [{"size": "1"}, {"size": "1"}, {"size": "264"}, {"size": "44"}]}}}, "dtype": {"type": "DT_FLOAT"}}}, {"name": "NASNet/separable_conv_2_bn_normal_right2_2/FusedBatchNorm/Offset", "op": "Const", "attr": {"value": {"tensor": {"dtype": "DT_FLOAT", "tensorShape": {"dim": [{"size": "44"}]}}}, "dtype": {"type": "DT_FLOAT"}}}, {"name": "NASNet/separable_conv_2_normal_right2_2/separable_conv2d/merged_input", "op": "Const", "attr": {"value": {"tensor": {"dtype": "DT_FLOAT", "tensorShape": {"dim": [{"size": "1"}, {"size": "1"}, {"size": "44"}, {"size": "44"}]}}}, "dtype": {"type": "DT_FLOAT"}}}, {"name": "separable_conv_2_normal_right2_2/depthwise_kernel", "op": "Const", "attr": {"value": {"tensor": {"dtype": "DT_FLOAT", "tensorShape": {"dim": [{"size": "3"}, {"size": "3"}, {"size": "44"}, {"size": "1"}]}}}, "dtype": {"type": "DT_FLOAT"}}}, {"name": "NASNet/separable_conv_1_bn_normal_right2_2/FusedBatchNorm/Offset", "op": "Const", "attr": {"value": {"tensor": {"dtype": "DT_FLOAT", "tensorShape": {"dim": [{"size": "44"}]}}}, "dtype": {"type": "DT_FLOAT"}}}, {"name": "NASNet/separable_conv_1_normal_right2_2/separable_conv2d/merged_input", "op": "Const", "attr": {"value": {"tensor": {"dtype": "DT_FLOAT", "tensorShape": {"dim": [{"size": "1"}, {"size": "1"}, {"size": "44"}, {"size": "44"}]}}}, "dtype": {"type": "DT_FLOAT"}}}, {"name": "separable_conv_1_normal_right2_2/depthwise_kernel", "op": "Const", "attr": {"value": {"tensor": {"dtype": "DT_FLOAT", "tensorShape": {"dim": [{"size": "3"}, {"size": "3"}, {"size": "44"}, {"size": "1"}]}}}, "dtype": {"type": "DT_FLOAT"}}}, {"name": "NASNet/separable_conv_2_bn_normal_left2_2/FusedBatchNorm/Offset", "op": "Const", "attr": {"value": {"tensor": {"dtype": "DT_FLOAT", "tensorShape": {"dim": [{"size": "44"}]}}}, "dtype": {"type": "DT_FLOAT"}}}, {"name": "NASNet/separable_conv_2_normal_left2_2/separable_conv2d/merged_input", "op": "Const", "attr": {"dtype": {"type": "DT_FLOAT"}, "value": {"tensor": {"dtype": "DT_FLOAT", "tensorShape": {"dim": [{"size": "1"}, {"size": "1"}, {"size": "44"}, {"size": "44"}]}}}}}, {"name": "separable_conv_2_normal_left2_2/depthwise_kernel", "op": "Const", "attr": {"value": {"tensor": {"dtype": "DT_FLOAT", "tensorShape": {"dim": [{"size": "5"}, {"size": "5"}, {"size": "44"}, {"size": "1"}]}}}, "dtype": {"type": "DT_FLOAT"}}}, {"name": "NASNet/separable_conv_1_bn_normal_left2_2/FusedBatchNorm/Offset", "op": "Const", "attr": {"dtype": {"type": "DT_FLOAT"}, "value": {"tensor": {"dtype": "DT_FLOAT", "tensorShape": {"dim": [{"size": "44"}]}}}}}, {"name": "NASNet/separable_conv_1_normal_left2_2/separable_conv2d/merged_input", "op": "Const", "attr": {"value": {"tensor": {"dtype": "DT_FLOAT", "tensorShape": {"dim": [{"size": "1"}, {"size": "1"}, {"size": "44"}, {"size": "44"}]}}}, "dtype": {"type": "DT_FLOAT"}}}, {"name": "separable_conv_1_normal_left2_2/depthwise_kernel", "op": "Const", "attr": {"value": {"tensor": {"dtype": "DT_FLOAT", "tensorShape": {"dim": [{"size": "5"}, {"size": "5"}, {"size": "44"}, {"size": "1"}]}}}, "dtype": {"type": "DT_FLOAT"}}}, {"name": "NASNet/separable_conv_2_bn_normal_right1_2/FusedBatchNorm/Offset", "op": "Const", "attr": {"dtype": {"type": "DT_FLOAT"}, "value": {"tensor": {"dtype": "DT_FLOAT", "tensorShape": {"dim": [{"size": "44"}]}}}}}, {"name": "NASNet/separable_conv_2_normal_right1_2/separable_conv2d/merged_input", "op": "Const", "attr": {"value": {"tensor": {"dtype": "DT_FLOAT", "tensorShape": {"dim": [{"size": "1"}, {"size": "1"}, {"size": "44"}, {"size": "44"}]}}}, "dtype": {"type": "DT_FLOAT"}}}, {"name": "separable_conv_2_normal_right1_2/depthwise_kernel", "op": "Const", "attr": {"dtype": {"type": "DT_FLOAT"}, "value": {"tensor": {"dtype": "DT_FLOAT", "tensorShape": {"dim": [{"size": "3"}, {"size": "3"}, {"size": "44"}, {"size": "1"}]}}}}}, {"name": "NASNet/separable_conv_1_bn_normal_right1_2/FusedBatchNorm/Offset", "op": "Const", "attr": {"dtype": {"type": "DT_FLOAT"}, "value": {"tensor": {"dtype": "DT_FLOAT", "tensorShape": {"dim": [{"size": "44"}]}}}}}, {"name": "NASNet/separable_conv_1_normal_right1_2/separable_conv2d/merged_input", "op": "Const", "attr": {"dtype": {"type": "DT_FLOAT"}, "value": {"tensor": {"dtype": "DT_FLOAT", "tensorShape": {"dim": [{"size": "1"}, {"size": "1"}, {"size": "44"}, {"size": "44"}]}}}}}, {"name": "separable_conv_1_normal_right1_2/depthwise_kernel", "op": "Const", "attr": {"value": {"tensor": {"dtype": "DT_FLOAT", "tensorShape": {"dim": [{"size": "3"}, {"size": "3"}, {"size": "44"}, {"size": "1"}]}}}, "dtype": {"type": "DT_FLOAT"}}}, {"name": "NASNet/separable_conv_2_bn_normal_left1_2/FusedBatchNorm/Offset", "op": "Const", "attr": {"value": {"tensor": {"dtype": "DT_FLOAT", "tensorShape": {"dim": [{"size": "44"}]}}}, "dtype": {"type": "DT_FLOAT"}}}, {"name": "NASNet/separable_conv_2_normal_left1_2/separable_conv2d/merged_input", "op": "Const", "attr": {"dtype": {"type": "DT_FLOAT"}, "value": {"tensor": {"dtype": "DT_FLOAT", "tensorShape": {"dim": [{"size": "1"}, {"size": "1"}, {"size": "44"}, {"size": "44"}]}}}}}, {"name": "separable_conv_2_normal_left1_2/depthwise_kernel", "op": "Const", "attr": {"value": {"tensor": {"dtype": "DT_FLOAT", "tensorShape": {"dim": [{"size": "5"}, {"size": "5"}, {"size": "44"}, {"size": "1"}]}}}, "dtype": {"type": "DT_FLOAT"}}}, {"name": "NASNet/separable_conv_1_bn_normal_left1_2/FusedBatchNorm/Offset", "op": "Const", "attr": {"value": {"tensor": {"dtype": "DT_FLOAT", "tensorShape": {"dim": [{"size": "44"}]}}}, "dtype": {"type": "DT_FLOAT"}}}, {"name": "NASNet/separable_conv_1_normal_left1_2/separable_conv2d/merged_input", "op": "Const", "attr": {"dtype": {"type": "DT_FLOAT"}, "value": {"tensor": {"dtype": "DT_FLOAT", "tensorShape": {"dim": [{"size": "1"}, {"size": "1"}, {"size": "44"}, {"size": "44"}]}}}}}, {"name": "separable_conv_1_normal_left1_2/depthwise_kernel", "op": "Const", "attr": {"value": {"tensor": {"dtype": "DT_FLOAT", "tensorShape": {"dim": [{"size": "5"}, {"size": "5"}, {"size": "44"}, {"size": "1"}]}}}, "dtype": {"type": "DT_FLOAT"}}}, {"name": "NASNet/separable_conv_2_bn_reduction_left1_reduce_4/FusedBatchNorm/Offset", "op": "Const", "attr": {"dtype": {"type": "DT_FLOAT"}, "value": {"tensor": {"dtype": "DT_FLOAT", "tensorShape": {"dim": [{"size": "88"}]}}}}}, {"name": "NASNet/separable_conv_2_reduction_left1_reduce_4/separable_conv2d/merged_input", "op": "Const", "attr": {"value": {"tensor": {"dtype": "DT_FLOAT", "tensorShape": {"dim": [{"size": "1"}, {"size": "1"}, {"size": "88"}, {"size": "88"}]}}}, "dtype": {"type": "DT_FLOAT"}}}, {"name": "separable_conv_2_reduction_left1_reduce_4/depthwise_kernel", "op": "Const", "attr": {"value": {"tensor": {"dtype": "DT_FLOAT", "tensorShape": {"dim": [{"size": "5"}, {"size": "5"}, {"size": "88"}, {"size": "1"}]}}}, "dtype": {"type": "DT_FLOAT"}}}, {"name": "NASNet/separable_conv_1_bn_reduction_left1_reduce_4/FusedBatchNorm/Offset", "op": "Const", "attr": {"value": {"tensor": {"dtype": "DT_FLOAT", "tensorShape": {"dim": [{"size": "88"}]}}}, "dtype": {"type": "DT_FLOAT"}}}, {"name": "NASNet/separable_conv_1_reduction_left1_reduce_4/separable_conv2d/merged_input", "op": "Const", "attr": {"dtype": {"type": "DT_FLOAT"}, "value": {"tensor": {"dtype": "DT_FLOAT", "tensorShape": {"dim": [{"size": "1"}, {"size": "1"}, {"size": "88"}, {"size": "88"}]}}}}}, {"name": "separable_conv_1_reduction_left1_reduce_4/depthwise_kernel", "op": "Const", "attr": {"value": {"tensor": {"dtype": "DT_FLOAT", "tensorShape": {"dim": [{"size": "5"}, {"size": "5"}, {"size": "88"}, {"size": "1"}]}}}, "dtype": {"type": "DT_FLOAT"}}}, {"name": "NASNet/reduction_bn_1_reduce_4/FusedBatchNorm/Offset", "op": "Const", "attr": {"value": {"tensor": {"dtype": "DT_FLOAT", "tensorShape": {"dim": [{"size": "88"}]}}}, "dtype": {"type": "DT_FLOAT"}}}, {"name": "NASNet/reduction_conv_1_reduce_4/Conv2D/merged_input", "op": "Const", "attr": {"dtype": {"type": "DT_FLOAT"}, "value": {"tensor": {"dtype": "DT_FLOAT", "tensorShape": {"dim": [{"size": "1"}, {"size": "1"}, {"size": "264"}, {"size": "88"}]}}}}}, {"name": "NASNet/separable_conv_2_bn_normal_left5_3/FusedBatchNorm/Offset", "op": "Const", "attr": {"value": {"tensor": {"dtype": "DT_FLOAT", "tensorShape": {"dim": [{"size": "44"}]}}}, "dtype": {"type": "DT_FLOAT"}}}, {"name": "NASNet/separable_conv_2_normal_left5_3/separable_conv2d/merged_input", "op": "Const", "attr": {"dtype": {"type": "DT_FLOAT"}, "value": {"tensor": {"dtype": "DT_FLOAT", "tensorShape": {"dim": [{"size": "1"}, {"size": "1"}, {"size": "44"}, {"size": "44"}]}}}}}, {"name": "separable_conv_2_normal_left5_3/depthwise_kernel", "op": "Const", "attr": {"dtype": {"type": "DT_FLOAT"}, "value": {"tensor": {"dtype": "DT_FLOAT", "tensorShape": {"dim": [{"size": "3"}, {"size": "3"}, {"size": "44"}, {"size": "1"}]}}}}}, {"name": "NASNet/separable_conv_1_bn_normal_left5_3/FusedBatchNorm/Offset", "op": "Const", "attr": {"value": {"tensor": {"dtype": "DT_FLOAT", "tensorShape": {"dim": [{"size": "44"}]}}}, "dtype": {"type": "DT_FLOAT"}}}, {"name": "NASNet/separable_conv_1_normal_left5_3/separable_conv2d/merged_input", "op": "Const", "attr": {"value": {"tensor": {"dtype": "DT_FLOAT", "tensorShape": {"dim": [{"size": "1"}, {"size": "1"}, {"size": "44"}, {"size": "44"}]}}}, "dtype": {"type": "DT_FLOAT"}}}, {"name": "separable_conv_1_normal_left5_3/depthwise_kernel", "op": "Const", "attr": {"value": {"tensor": {"dtype": "DT_FLOAT", "tensorShape": {"dim": [{"size": "3"}, {"size": "3"}, {"size": "44"}, {"size": "1"}]}}}, "dtype": {"type": "DT_FLOAT"}}}, {"name": "NASNet/normal_bn_1_3/FusedBatchNorm/Offset", "op": "Const", "attr": {"value": {"tensor": {"dtype": "DT_FLOAT", "tensorShape": {"dim": [{"size": "44"}]}}}, "dtype": {"type": "DT_FLOAT"}}}, {"name": "NASNet/normal_conv_1_3/Conv2D/merged_input", "op": "Const", "attr": {"value": {"tensor": {"dtype": "DT_FLOAT", "tensorShape": {"dim": [{"size": "1"}, {"size": "1"}, {"size": "264"}, {"size": "44"}]}}}, "dtype": {"type": "DT_FLOAT"}}}, {"name": "NASNet/adjust_bn_3/FusedBatchNorm/Offset", "op": "Const", "attr": {"value": {"tensor": {"dtype": "DT_FLOAT", "tensorShape": {"dim": [{"size": "44"}]}}}, "dtype": {"type": "DT_FLOAT"}}}, {"name": "NASNet/adjust_conv_projection_3/Conv2D/merged_input", "op": "Const", "attr": {"value": {"tensor": {"dtype": "DT_FLOAT", "tensorShape": {"dim": [{"size": "1"}, {"size": "1"}, {"size": "264"}, {"size": "44"}]}}}, "dtype": {"type": "DT_FLOAT"}}}, {"name": "NASNet/separable_conv_2_bn_normal_right2_3/FusedBatchNorm/Offset", "op": "Const", "attr": {"value": {"tensor": {"dtype": "DT_FLOAT", "tensorShape": {"dim": [{"size": "44"}]}}}, "dtype": {"type": "DT_FLOAT"}}}, {"name": "NASNet/separable_conv_2_normal_right2_3/separable_conv2d/merged_input", "op": "Const", "attr": {"value": {"tensor": {"dtype": "DT_FLOAT", "tensorShape": {"dim": [{"size": "1"}, {"size": "1"}, {"size": "44"}, {"size": "44"}]}}}, "dtype": {"type": "DT_FLOAT"}}}, {"name": "separable_conv_2_normal_right2_3/depthwise_kernel", "op": "Const", "attr": {"value": {"tensor": {"dtype": "DT_FLOAT", "tensorShape": {"dim": [{"size": "3"}, {"size": "3"}, {"size": "44"}, {"size": "1"}]}}}, "dtype": {"type": "DT_FLOAT"}}}, {"name": "NASNet/separable_conv_1_bn_normal_right2_3/FusedBatchNorm/Offset", "op": "Const", "attr": {"value": {"tensor": {"dtype": "DT_FLOAT", "tensorShape": {"dim": [{"size": "44"}]}}}, "dtype": {"type": "DT_FLOAT"}}}, {"name": "NASNet/separable_conv_1_normal_right2_3/separable_conv2d/merged_input", "op": "Const", "attr": {"value": {"tensor": {"dtype": "DT_FLOAT", "tensorShape": {"dim": [{"size": "1"}, {"size": "1"}, {"size": "44"}, {"size": "44"}]}}}, "dtype": {"type": "DT_FLOAT"}}}, {"name": "separable_conv_1_normal_right2_3/depthwise_kernel", "op": "Const", "attr": {"value": {"tensor": {"dtype": "DT_FLOAT", "tensorShape": {"dim": [{"size": "3"}, {"size": "3"}, {"size": "44"}, {"size": "1"}]}}}, "dtype": {"type": "DT_FLOAT"}}}, {"name": "NASNet/separable_conv_2_bn_normal_left2_3/FusedBatchNorm/Offset", "op": "Const", "attr": {"value": {"tensor": {"dtype": "DT_FLOAT", "tensorShape": {"dim": [{"size": "44"}]}}}, "dtype": {"type": "DT_FLOAT"}}}, {"name": "NASNet/separable_conv_2_normal_left2_3/separable_conv2d/merged_input", "op": "Const", "attr": {"value": {"tensor": {"dtype": "DT_FLOAT", "tensorShape": {"dim": [{"size": "1"}, {"size": "1"}, {"size": "44"}, {"size": "44"}]}}}, "dtype": {"type": "DT_FLOAT"}}}, {"name": "separable_conv_2_normal_left2_3/depthwise_kernel", "op": "Const", "attr": {"value": {"tensor": {"dtype": "DT_FLOAT", "tensorShape": {"dim": [{"size": "5"}, {"size": "5"}, {"size": "44"}, {"size": "1"}]}}}, "dtype": {"type": "DT_FLOAT"}}}, {"name": "NASNet/separable_conv_1_bn_normal_left2_3/FusedBatchNorm/Offset", "op": "Const", "attr": {"value": {"tensor": {"dtype": "DT_FLOAT", "tensorShape": {"dim": [{"size": "44"}]}}}, "dtype": {"type": "DT_FLOAT"}}}, {"name": "NASNet/separable_conv_1_normal_left2_3/separable_conv2d/merged_input", "op": "Const", "attr": {"value": {"tensor": {"dtype": "DT_FLOAT", "tensorShape": {"dim": [{"size": "1"}, {"size": "1"}, {"size": "44"}, {"size": "44"}]}}}, "dtype": {"type": "DT_FLOAT"}}}, {"name": "separable_conv_1_normal_left2_3/depthwise_kernel", "op": "Const", "attr": {"value": {"tensor": {"dtype": "DT_FLOAT", "tensorShape": {"dim": [{"size": "5"}, {"size": "5"}, {"size": "44"}, {"size": "1"}]}}}, "dtype": {"type": "DT_FLOAT"}}}, {"name": "NASNet/separable_conv_2_bn_normal_right1_3/FusedBatchNorm/Offset", "op": "Const", "attr": {"value": {"tensor": {"dtype": "DT_FLOAT", "tensorShape": {"dim": [{"size": "44"}]}}}, "dtype": {"type": "DT_FLOAT"}}}, {"name": "NASNet/separable_conv_2_normal_right1_3/separable_conv2d/merged_input", "op": "Const", "attr": {"dtype": {"type": "DT_FLOAT"}, "value": {"tensor": {"dtype": "DT_FLOAT", "tensorShape": {"dim": [{"size": "1"}, {"size": "1"}, {"size": "44"}, {"size": "44"}]}}}}}, {"name": "separable_conv_2_normal_right1_3/depthwise_kernel", "op": "Const", "attr": {"value": {"tensor": {"dtype": "DT_FLOAT", "tensorShape": {"dim": [{"size": "3"}, {"size": "3"}, {"size": "44"}, {"size": "1"}]}}}, "dtype": {"type": "DT_FLOAT"}}}, {"name": "NASNet/separable_conv_1_bn_normal_right1_3/FusedBatchNorm/Offset", "op": "Const", "attr": {"value": {"tensor": {"dtype": "DT_FLOAT", "tensorShape": {"dim": [{"size": "44"}]}}}, "dtype": {"type": "DT_FLOAT"}}}, {"name": "NASNet/separable_conv_1_normal_right1_3/separable_conv2d/merged_input", "op": "Const", "attr": {"value": {"tensor": {"dtype": "DT_FLOAT", "tensorShape": {"dim": [{"size": "1"}, {"size": "1"}, {"size": "44"}, {"size": "44"}]}}}, "dtype": {"type": "DT_FLOAT"}}}, {"name": "separable_conv_1_normal_right1_3/depthwise_kernel", "op": "Const", "attr": {"dtype": {"type": "DT_FLOAT"}, "value": {"tensor": {"dtype": "DT_FLOAT", "tensorShape": {"dim": [{"size": "3"}, {"size": "3"}, {"size": "44"}, {"size": "1"}]}}}}}, {"name": "NASNet/separable_conv_2_bn_normal_left1_3/FusedBatchNorm/Offset", "op": "Const", "attr": {"value": {"tensor": {"dtype": "DT_FLOAT", "tensorShape": {"dim": [{"size": "44"}]}}}, "dtype": {"type": "DT_FLOAT"}}}, {"name": "NASNet/separable_conv_2_normal_left1_3/separable_conv2d/merged_input", "op": "Const", "attr": {"value": {"tensor": {"dtype": "DT_FLOAT", "tensorShape": {"dim": [{"size": "1"}, {"size": "1"}, {"size": "44"}, {"size": "44"}]}}}, "dtype": {"type": "DT_FLOAT"}}}, {"name": "separable_conv_2_normal_left1_3/depthwise_kernel", "op": "Const", "attr": {"value": {"tensor": {"dtype": "DT_FLOAT", "tensorShape": {"dim": [{"size": "5"}, {"size": "5"}, {"size": "44"}, {"size": "1"}]}}}, "dtype": {"type": "DT_FLOAT"}}}, {"name": "NASNet/separable_conv_1_bn_normal_left1_3/FusedBatchNorm/Offset", "op": "Const", "attr": {"dtype": {"type": "DT_FLOAT"}, "value": {"tensor": {"dtype": "DT_FLOAT", "tensorShape": {"dim": [{"size": "44"}]}}}}}, {"name": "NASNet/separable_conv_1_normal_left1_3/separable_conv2d/merged_input", "op": "Const", "attr": {"value": {"tensor": {"dtype": "DT_FLOAT", "tensorShape": {"dim": [{"size": "1"}, {"size": "1"}, {"size": "44"}, {"size": "44"}]}}}, "dtype": {"type": "DT_FLOAT"}}}, {"name": "separable_conv_1_normal_left1_3/depthwise_kernel", "op": "Const", "attr": {"value": {"tensor": {"dtype": "DT_FLOAT", "tensorShape": {"dim": [{"size": "5"}, {"size": "5"}, {"size": "44"}, {"size": "1"}]}}}, "dtype": {"type": "DT_FLOAT"}}}, {"name": "NASNet/separable_conv_2_bn_reduction_right2_reduce_4/FusedBatchNorm/Offset", "op": "Const", "attr": {"dtype": {"type": "DT_FLOAT"}, "value": {"tensor": {"dtype": "DT_FLOAT", "tensorShape": {"dim": [{"size": "88"}]}}}}}, {"name": "NASNet/separable_conv_2_reduction_right2_reduce_4/separable_conv2d/merged_input", "op": "Const", "attr": {"value": {"tensor": {"dtype": "DT_FLOAT", "tensorShape": {"dim": [{"size": "1"}, {"size": "1"}, {"size": "88"}, {"size": "88"}]}}}, "dtype": {"type": "DT_FLOAT"}}}, {"name": "separable_conv_2_reduction_right2_reduce_4/depthwise_kernel", "op": "Const", "attr": {"value": {"tensor": {"dtype": "DT_FLOAT", "tensorShape": {"dim": [{"size": "7"}, {"size": "7"}, {"size": "88"}, {"size": "1"}]}}}, "dtype": {"type": "DT_FLOAT"}}}, {"name": "NASNet/separable_conv_1_bn_reduction_right2_reduce_4/FusedBatchNorm/Offset", "op": "Const", "attr": {"dtype": {"type": "DT_FLOAT"}, "value": {"tensor": {"dtype": "DT_FLOAT", "tensorShape": {"dim": [{"size": "88"}]}}}}}, {"name": "NASNet/separable_conv_1_reduction_right2_reduce_4/separable_conv2d/merged_input", "op": "Const", "attr": {"dtype": {"type": "DT_FLOAT"}, "value": {"tensor": {"dtype": "DT_FLOAT", "tensorShape": {"dim": [{"size": "1"}, {"size": "1"}, {"size": "88"}, {"size": "88"}]}}}}}, {"name": "separable_conv_1_reduction_right2_reduce_4/depthwise_kernel", "op": "Const", "attr": {"value": {"tensor": {"dtype": "DT_FLOAT", "tensorShape": {"dim": [{"size": "7"}, {"size": "7"}, {"size": "88"}, {"size": "1"}]}}}, "dtype": {"type": "DT_FLOAT"}}}, {"name": "NASNet/separable_conv_2_bn_reduction_right3_reduce_4/FusedBatchNorm/Offset", "op": "Const", "attr": {"value": {"tensor": {"dtype": "DT_FLOAT", "tensorShape": {"dim": [{"size": "88"}]}}}, "dtype": {"type": "DT_FLOAT"}}}, {"name": "NASNet/separable_conv_2_reduction_right3_reduce_4/separable_conv2d/merged_input", "op": "Const", "attr": {"value": {"tensor": {"dtype": "DT_FLOAT", "tensorShape": {"dim": [{"size": "1"}, {"size": "1"}, {"size": "88"}, {"size": "88"}]}}}, "dtype": {"type": "DT_FLOAT"}}}, {"name": "separable_conv_2_reduction_right3_reduce_4/depthwise_kernel", "op": "Const", "attr": {"value": {"tensor": {"dtype": "DT_FLOAT", "tensorShape": {"dim": [{"size": "5"}, {"size": "5"}, {"size": "88"}, {"size": "1"}]}}}, "dtype": {"type": "DT_FLOAT"}}}, {"name": "NASNet/separable_conv_1_bn_reduction_right3_reduce_4/FusedBatchNorm/Offset", "op": "Const", "attr": {"dtype": {"type": "DT_FLOAT"}, "value": {"tensor": {"dtype": "DT_FLOAT", "tensorShape": {"dim": [{"size": "88"}]}}}}}, {"name": "NASNet/separable_conv_1_reduction_right3_reduce_4/separable_conv2d/merged_input", "op": "Const", "attr": {"dtype": {"type": "DT_FLOAT"}, "value": {"tensor": {"dtype": "DT_FLOAT", "tensorShape": {"dim": [{"size": "1"}, {"size": "1"}, {"size": "88"}, {"size": "88"}]}}}}}, {"name": "separable_conv_1_reduction_right3_reduce_4/depthwise_kernel", "op": "Const", "attr": {"value": {"tensor": {"dtype": "DT_FLOAT", "tensorShape": {"dim": [{"size": "5"}, {"size": "5"}, {"size": "88"}, {"size": "1"}]}}}, "dtype": {"type": "DT_FLOAT"}}}, {"name": "NASNet/adjust_bn_5/FusedBatchNorm/Offset", "op": "Const", "attr": {"value": {"tensor": {"dtype": "DT_FLOAT", "tensorShape": {"dim": [{"size": "88"}]}}}, "dtype": {"type": "DT_FLOAT"}}}, {"name": "adjust_conv_2_5/kernel", "op": "Const", "attr": {"value": {"tensor": {"dtype": "DT_FLOAT", "tensorShape": {"dim": [{"size": "1"}, {"size": "1"}, {"size": "264"}, {"size": "44"}]}}}, "dtype": {"type": "DT_FLOAT"}}}, {"name": "adjust_conv_1_5/kernel", "op": "Const", "attr": {"value": {"tensor": {"dtype": "DT_FLOAT", "tensorShape": {"dim": [{"size": "1"}, {"size": "1"}, {"size": "264"}, {"size": "44"}]}}}, "dtype": {"type": "DT_FLOAT"}}}, {"name": "NASNet/adjust_bn_5/FusedBatchNorm/Scaled", "op": "Const", "attr": {"value": {"tensor": {"dtype": "DT_FLOAT", "tensorShape": {"dim": [{"size": "88"}]}}}, "dtype": {"type": "DT_FLOAT"}}}, {"name": "NASNet/separable_conv_2_bn_normal_right2_5/FusedBatchNorm/Offset", "op": "Const", "attr": {"value": {"tensor": {"dtype": "DT_FLOAT", "tensorShape": {"dim": [{"size": "88"}]}}}, "dtype": {"type": "DT_FLOAT"}}}, {"name": "NASNet/separable_conv_2_normal_right2_5/separable_conv2d/merged_input", "op": "Const", "attr": {"value": {"tensor": {"dtype": "DT_FLOAT", "tensorShape": {"dim": [{"size": "1"}, {"size": "1"}, {"size": "88"}, {"size": "88"}]}}}, "dtype": {"type": "DT_FLOAT"}}}, {"name": "separable_conv_2_normal_right2_5/depthwise_kernel", "op": "Const", "attr": {"value": {"tensor": {"dtype": "DT_FLOAT", "tensorShape": {"dim": [{"size": "3"}, {"size": "3"}, {"size": "88"}, {"size": "1"}]}}}, "dtype": {"type": "DT_FLOAT"}}}, {"name": "NASNet/separable_conv_1_bn_normal_right2_5/FusedBatchNorm/Offset", "op": "Const", "attr": {"value": {"tensor": {"dtype": "DT_FLOAT", "tensorShape": {"dim": [{"size": "88"}]}}}, "dtype": {"type": "DT_FLOAT"}}}, {"name": "NASNet/separable_conv_1_normal_right2_5/separable_conv2d/merged_input", "op": "Const", "attr": {"value": {"tensor": {"dtype": "DT_FLOAT", "tensorShape": {"dim": [{"size": "1"}, {"size": "1"}, {"size": "88"}, {"size": "88"}]}}}, "dtype": {"type": "DT_FLOAT"}}}, {"name": "separable_conv_1_normal_right2_5/depthwise_kernel", "op": "Const", "attr": {"value": {"tensor": {"dtype": "DT_FLOAT", "tensorShape": {"dim": [{"size": "3"}, {"size": "3"}, {"size": "88"}, {"size": "1"}]}}}, "dtype": {"type": "DT_FLOAT"}}}, {"name": "NASNet/separable_conv_2_bn_normal_left2_5/FusedBatchNorm/Offset", "op": "Const", "attr": {"value": {"tensor": {"dtype": "DT_FLOAT", "tensorShape": {"dim": [{"size": "88"}]}}}, "dtype": {"type": "DT_FLOAT"}}}, {"name": "NASNet/separable_conv_2_normal_left2_5/separable_conv2d/merged_input", "op": "Const", "attr": {"dtype": {"type": "DT_FLOAT"}, "value": {"tensor": {"dtype": "DT_FLOAT", "tensorShape": {"dim": [{"size": "1"}, {"size": "1"}, {"size": "88"}, {"size": "88"}]}}}}}, {"name": "separable_conv_2_normal_left2_5/depthwise_kernel", "op": "Const", "attr": {"value": {"tensor": {"dtype": "DT_FLOAT", "tensorShape": {"dim": [{"size": "5"}, {"size": "5"}, {"size": "88"}, {"size": "1"}]}}}, "dtype": {"type": "DT_FLOAT"}}}, {"name": "NASNet/separable_conv_1_bn_normal_left2_5/FusedBatchNorm/Offset", "op": "Const", "attr": {"value": {"tensor": {"dtype": "DT_FLOAT", "tensorShape": {"dim": [{"size": "88"}]}}}, "dtype": {"type": "DT_FLOAT"}}}, {"name": "NASNet/separable_conv_1_normal_left2_5/separable_conv2d/merged_input", "op": "Const", "attr": {"value": {"tensor": {"dtype": "DT_FLOAT", "tensorShape": {"dim": [{"size": "1"}, {"size": "1"}, {"size": "88"}, {"size": "88"}]}}}, "dtype": {"type": "DT_FLOAT"}}}, {"name": "separable_conv_1_normal_left2_5/depthwise_kernel", "op": "Const", "attr": {"value": {"tensor": {"dtype": "DT_FLOAT", "tensorShape": {"dim": [{"size": "5"}, {"size": "5"}, {"size": "88"}, {"size": "1"}]}}}, "dtype": {"type": "DT_FLOAT"}}}, {"name": "NASNet/separable_conv_2_bn_normal_right1_5/FusedBatchNorm/Offset", "op": "Const", "attr": {"value": {"tensor": {"dtype": "DT_FLOAT", "tensorShape": {"dim": [{"size": "88"}]}}}, "dtype": {"type": "DT_FLOAT"}}}, {"name": "NASNet/separable_conv_2_normal_right1_5/separable_conv2d/merged_input", "op": "Const", "attr": {"dtype": {"type": "DT_FLOAT"}, "value": {"tensor": {"dtype": "DT_FLOAT", "tensorShape": {"dim": [{"size": "1"}, {"size": "1"}, {"size": "88"}, {"size": "88"}]}}}}}, {"name": "separable_conv_2_normal_right1_5/depthwise_kernel", "op": "Const", "attr": {"dtype": {"type": "DT_FLOAT"}, "value": {"tensor": {"dtype": "DT_FLOAT", "tensorShape": {"dim": [{"size": "3"}, {"size": "3"}, {"size": "88"}, {"size": "1"}]}}}}}, {"name": "NASNet/separable_conv_1_bn_normal_right1_5/FusedBatchNorm/Offset", "op": "Const", "attr": {"dtype": {"type": "DT_FLOAT"}, "value": {"tensor": {"dtype": "DT_FLOAT", "tensorShape": {"dim": [{"size": "88"}]}}}}}, {"name": "NASNet/separable_conv_1_normal_right1_5/separable_conv2d/merged_input", "op": "Const", "attr": {"value": {"tensor": {"dtype": "DT_FLOAT", "tensorShape": {"dim": [{"size": "1"}, {"size": "1"}, {"size": "88"}, {"size": "88"}]}}}, "dtype": {"type": "DT_FLOAT"}}}, {"name": "separable_conv_1_normal_right1_5/depthwise_kernel", "op": "Const", "attr": {"value": {"tensor": {"dtype": "DT_FLOAT", "tensorShape": {"dim": [{"size": "3"}, {"size": "3"}, {"size": "88"}, {"size": "1"}]}}}, "dtype": {"type": "DT_FLOAT"}}}, {"name": "NASNet/separable_conv_2_bn_normal_left1_5/FusedBatchNorm/Offset", "op": "Const", "attr": {"value": {"tensor": {"dtype": "DT_FLOAT", "tensorShape": {"dim": [{"size": "88"}]}}}, "dtype": {"type": "DT_FLOAT"}}}, {"name": "NASNet/separable_conv_2_normal_left1_5/separable_conv2d/merged_input", "op": "Const", "attr": {"dtype": {"type": "DT_FLOAT"}, "value": {"tensor": {"dtype": "DT_FLOAT", "tensorShape": {"dim": [{"size": "1"}, {"size": "1"}, {"size": "88"}, {"size": "88"}]}}}}}, {"name": "separable_conv_2_normal_left1_5/depthwise_kernel", "op": "Const", "attr": {"dtype": {"type": "DT_FLOAT"}, "value": {"tensor": {"dtype": "DT_FLOAT", "tensorShape": {"dim": [{"size": "5"}, {"size": "5"}, {"size": "88"}, {"size": "1"}]}}}}}, {"name": "NASNet/separable_conv_1_bn_normal_left1_5/FusedBatchNorm/Offset", "op": "Const", "attr": {"value": {"tensor": {"dtype": "DT_FLOAT", "tensorShape": {"dim": [{"size": "88"}]}}}, "dtype": {"type": "DT_FLOAT"}}}, {"name": "NASNet/separable_conv_1_normal_left1_5/separable_conv2d/merged_input", "op": "Const", "attr": {"value": {"tensor": {"dtype": "DT_FLOAT", "tensorShape": {"dim": [{"size": "1"}, {"size": "1"}, {"size": "88"}, {"size": "88"}]}}}, "dtype": {"type": "DT_FLOAT"}}}, {"name": "separable_conv_1_normal_left1_5/depthwise_kernel", "op": "Const", "attr": {"dtype": {"type": "DT_FLOAT"}, "value": {"tensor": {"dtype": "DT_FLOAT", "tensorShape": {"dim": [{"size": "5"}, {"size": "5"}, {"size": "88"}, {"size": "1"}]}}}}}, {"name": "NASNet/adjust_bn_6/FusedBatchNorm/Offset", "op": "Const", "attr": {"value": {"tensor": {"dtype": "DT_FLOAT", "tensorShape": {"dim": [{"size": "88"}]}}}, "dtype": {"type": "DT_FLOAT"}}}, {"name": "NASNet/adjust_conv_projection_6/Conv2D/merged_input", "op": "Const", "attr": {"value": {"tensor": {"dtype": "DT_FLOAT", "tensorShape": {"dim": [{"size": "1"}, {"size": "1"}, {"size": "352"}, {"size": "88"}]}}}, "dtype": {"type": "DT_FLOAT"}}}, {"name": "NASNet/separable_conv_2_bn_normal_right2_6/FusedBatchNorm/Offset", "op": "Const", "attr": {"value": {"tensor": {"dtype": "DT_FLOAT", "tensorShape": {"dim": [{"size": "88"}]}}}, "dtype": {"type": "DT_FLOAT"}}}, {"name": "NASNet/separable_conv_2_normal_right2_6/separable_conv2d/merged_input", "op": "Const", "attr": {"value": {"tensor": {"dtype": "DT_FLOAT", "tensorShape": {"dim": [{"size": "1"}, {"size": "1"}, {"size": "88"}, {"size": "88"}]}}}, "dtype": {"type": "DT_FLOAT"}}}, {"name": "separable_conv_2_normal_right2_6/depthwise_kernel", "op": "Const", "attr": {"dtype": {"type": "DT_FLOAT"}, "value": {"tensor": {"dtype": "DT_FLOAT", "tensorShape": {"dim": [{"size": "3"}, {"size": "3"}, {"size": "88"}, {"size": "1"}]}}}}}, {"name": "NASNet/separable_conv_1_bn_normal_right2_6/FusedBatchNorm/Offset", "op": "Const", "attr": {"value": {"tensor": {"dtype": "DT_FLOAT", "tensorShape": {"dim": [{"size": "88"}]}}}, "dtype": {"type": "DT_FLOAT"}}}, {"name": "NASNet/separable_conv_1_normal_right2_6/separable_conv2d/merged_input", "op": "Const", "attr": {"value": {"tensor": {"dtype": "DT_FLOAT", "tensorShape": {"dim": [{"size": "1"}, {"size": "1"}, {"size": "88"}, {"size": "88"}]}}}, "dtype": {"type": "DT_FLOAT"}}}, {"name": "separable_conv_1_normal_right2_6/depthwise_kernel", "op": "Const", "attr": {"value": {"tensor": {"dtype": "DT_FLOAT", "tensorShape": {"dim": [{"size": "3"}, {"size": "3"}, {"size": "88"}, {"size": "1"}]}}}, "dtype": {"type": "DT_FLOAT"}}}, {"name": "NASNet/separable_conv_2_bn_normal_left2_6/FusedBatchNorm/Offset", "op": "Const", "attr": {"value": {"tensor": {"dtype": "DT_FLOAT", "tensorShape": {"dim": [{"size": "88"}]}}}, "dtype": {"type": "DT_FLOAT"}}}, {"name": "NASNet/separable_conv_2_normal_left2_6/separable_conv2d/merged_input", "op": "Const", "attr": {"value": {"tensor": {"dtype": "DT_FLOAT", "tensorShape": {"dim": [{"size": "1"}, {"size": "1"}, {"size": "88"}, {"size": "88"}]}}}, "dtype": {"type": "DT_FLOAT"}}}, {"name": "separable_conv_2_normal_left2_6/depthwise_kernel", "op": "Const", "attr": {"value": {"tensor": {"dtype": "DT_FLOAT", "tensorShape": {"dim": [{"size": "5"}, {"size": "5"}, {"size": "88"}, {"size": "1"}]}}}, "dtype": {"type": "DT_FLOAT"}}}, {"name": "NASNet/separable_conv_1_bn_normal_left2_6/FusedBatchNorm/Offset", "op": "Const", "attr": {"dtype": {"type": "DT_FLOAT"}, "value": {"tensor": {"dtype": "DT_FLOAT", "tensorShape": {"dim": [{"size": "88"}]}}}}}, {"name": "NASNet/separable_conv_1_normal_left2_6/separable_conv2d/merged_input", "op": "Const", "attr": {"value": {"tensor": {"dtype": "DT_FLOAT", "tensorShape": {"dim": [{"size": "1"}, {"size": "1"}, {"size": "88"}, {"size": "88"}]}}}, "dtype": {"type": "DT_FLOAT"}}}, {"name": "separable_conv_1_normal_left2_6/depthwise_kernel", "op": "Const", "attr": {"value": {"tensor": {"dtype": "DT_FLOAT", "tensorShape": {"dim": [{"size": "5"}, {"size": "5"}, {"size": "88"}, {"size": "1"}]}}}, "dtype": {"type": "DT_FLOAT"}}}, {"name": "NASNet/separable_conv_2_bn_normal_right1_6/FusedBatchNorm/Offset", "op": "Const", "attr": {"value": {"tensor": {"dtype": "DT_FLOAT", "tensorShape": {"dim": [{"size": "88"}]}}}, "dtype": {"type": "DT_FLOAT"}}}, {"name": "NASNet/separable_conv_2_normal_right1_6/separable_conv2d/merged_input", "op": "Const", "attr": {"dtype": {"type": "DT_FLOAT"}, "value": {"tensor": {"dtype": "DT_FLOAT", "tensorShape": {"dim": [{"size": "1"}, {"size": "1"}, {"size": "88"}, {"size": "88"}]}}}}}, {"name": "separable_conv_2_normal_right1_6/depthwise_kernel", "op": "Const", "attr": {"value": {"tensor": {"dtype": "DT_FLOAT", "tensorShape": {"dim": [{"size": "3"}, {"size": "3"}, {"size": "88"}, {"size": "1"}]}}}, "dtype": {"type": "DT_FLOAT"}}}, {"name": "NASNet/separable_conv_1_bn_normal_right1_6/FusedBatchNorm/Offset", "op": "Const", "attr": {"dtype": {"type": "DT_FLOAT"}, "value": {"tensor": {"dtype": "DT_FLOAT", "tensorShape": {"dim": [{"size": "88"}]}}}}}, {"name": "NASNet/separable_conv_1_normal_right1_6/separable_conv2d/merged_input", "op": "Const", "attr": {"value": {"tensor": {"dtype": "DT_FLOAT", "tensorShape": {"dim": [{"size": "1"}, {"size": "1"}, {"size": "88"}, {"size": "88"}]}}}, "dtype": {"type": "DT_FLOAT"}}}, {"name": "separable_conv_1_normal_right1_6/depthwise_kernel", "op": "Const", "attr": {"value": {"tensor": {"dtype": "DT_FLOAT", "tensorShape": {"dim": [{"size": "3"}, {"size": "3"}, {"size": "88"}, {"size": "1"}]}}}, "dtype": {"type": "DT_FLOAT"}}}, {"name": "NASNet/separable_conv_2_bn_normal_left1_6/FusedBatchNorm/Offset", "op": "Const", "attr": {"value": {"tensor": {"dtype": "DT_FLOAT", "tensorShape": {"dim": [{"size": "88"}]}}}, "dtype": {"type": "DT_FLOAT"}}}, {"name": "NASNet/separable_conv_2_normal_left1_6/separable_conv2d/merged_input", "op": "Const", "attr": {"value": {"tensor": {"dtype": "DT_FLOAT", "tensorShape": {"dim": [{"size": "1"}, {"size": "1"}, {"size": "88"}, {"size": "88"}]}}}, "dtype": {"type": "DT_FLOAT"}}}, {"name": "separable_conv_2_normal_left1_6/depthwise_kernel", "op": "Const", "attr": {"dtype": {"type": "DT_FLOAT"}, "value": {"tensor": {"dtype": "DT_FLOAT", "tensorShape": {"dim": [{"size": "5"}, {"size": "5"}, {"size": "88"}, {"size": "1"}]}}}}}, {"name": "NASNet/separable_conv_1_bn_normal_left1_6/FusedBatchNorm/Offset", "op": "Const", "attr": {"value": {"tensor": {"dtype": "DT_FLOAT", "tensorShape": {"dim": [{"size": "88"}]}}}, "dtype": {"type": "DT_FLOAT"}}}, {"name": "NASNet/separable_conv_1_normal_left1_6/separable_conv2d/merged_input", "op": "Const", "attr": {"value": {"tensor": {"dtype": "DT_FLOAT", "tensorShape": {"dim": [{"size": "1"}, {"size": "1"}, {"size": "88"}, {"size": "88"}]}}}, "dtype": {"type": "DT_FLOAT"}}}, {"name": "separable_conv_1_normal_left1_6/depthwise_kernel", "op": "Const", "attr": {"value": {"tensor": {"dtype": "DT_FLOAT", "tensorShape": {"dim": [{"size": "5"}, {"size": "5"}, {"size": "88"}, {"size": "1"}]}}}, "dtype": {"type": "DT_FLOAT"}}}, {"name": "NASNet/adjust_bn_7/FusedBatchNorm/Offset", "op": "Const", "attr": {"value": {"tensor": {"dtype": "DT_FLOAT", "tensorShape": {"dim": [{"size": "88"}]}}}, "dtype": {"type": "DT_FLOAT"}}}, {"name": "NASNet/adjust_conv_projection_7/Conv2D/merged_input", "op": "Const", "attr": {"value": {"tensor": {"dtype": "DT_FLOAT", "tensorShape": {"dim": [{"size": "1"}, {"size": "1"}, {"size": "528"}, {"size": "88"}]}}}, "dtype": {"type": "DT_FLOAT"}}}, {"name": "NASNet/separable_conv_2_bn_normal_right2_7/FusedBatchNorm/Offset", "op": "Const", "attr": {"value": {"tensor": {"dtype": "DT_FLOAT", "tensorShape": {"dim": [{"size": "88"}]}}}, "dtype": {"type": "DT_FLOAT"}}}, {"name": "NASNet/separable_conv_2_normal_right2_7/separable_conv2d/merged_input", "op": "Const", "attr": {"value": {"tensor": {"dtype": "DT_FLOAT", "tensorShape": {"dim": [{"size": "1"}, {"size": "1"}, {"size": "88"}, {"size": "88"}]}}}, "dtype": {"type": "DT_FLOAT"}}}, {"name": "separable_conv_2_normal_right2_7/depthwise_kernel", "op": "Const", "attr": {"value": {"tensor": {"dtype": "DT_FLOAT", "tensorShape": {"dim": [{"size": "3"}, {"size": "3"}, {"size": "88"}, {"size": "1"}]}}}, "dtype": {"type": "DT_FLOAT"}}}, {"name": "NASNet/separable_conv_1_bn_normal_right2_7/FusedBatchNorm/Offset", "op": "Const", "attr": {"value": {"tensor": {"dtype": "DT_FLOAT", "tensorShape": {"dim": [{"size": "88"}]}}}, "dtype": {"type": "DT_FLOAT"}}}, {"name": "NASNet/separable_conv_1_normal_right2_7/separable_conv2d/merged_input", "op": "Const", "attr": {"value": {"tensor": {"dtype": "DT_FLOAT", "tensorShape": {"dim": [{"size": "1"}, {"size": "1"}, {"size": "88"}, {"size": "88"}]}}}, "dtype": {"type": "DT_FLOAT"}}}, {"name": "separable_conv_1_normal_right2_7/depthwise_kernel", "op": "Const", "attr": {"value": {"tensor": {"dtype": "DT_FLOAT", "tensorShape": {"dim": [{"size": "3"}, {"size": "3"}, {"size": "88"}, {"size": "1"}]}}}, "dtype": {"type": "DT_FLOAT"}}}, {"name": "NASNet/separable_conv_2_bn_normal_left2_7/FusedBatchNorm/Offset", "op": "Const", "attr": {"value": {"tensor": {"dtype": "DT_FLOAT", "tensorShape": {"dim": [{"size": "88"}]}}}, "dtype": {"type": "DT_FLOAT"}}}, {"name": "NASNet/separable_conv_2_normal_left2_7/separable_conv2d/merged_input", "op": "Const", "attr": {"value": {"tensor": {"dtype": "DT_FLOAT", "tensorShape": {"dim": [{"size": "1"}, {"size": "1"}, {"size": "88"}, {"size": "88"}]}}}, "dtype": {"type": "DT_FLOAT"}}}, {"name": "separable_conv_2_normal_left2_7/depthwise_kernel", "op": "Const", "attr": {"value": {"tensor": {"dtype": "DT_FLOAT", "tensorShape": {"dim": [{"size": "5"}, {"size": "5"}, {"size": "88"}, {"size": "1"}]}}}, "dtype": {"type": "DT_FLOAT"}}}, {"name": "NASNet/separable_conv_1_bn_normal_left2_7/FusedBatchNorm/Offset", "op": "Const", "attr": {"dtype": {"type": "DT_FLOAT"}, "value": {"tensor": {"dtype": "DT_FLOAT", "tensorShape": {"dim": [{"size": "88"}]}}}}}, {"name": "NASNet/separable_conv_1_normal_left2_7/separable_conv2d/merged_input", "op": "Const", "attr": {"value": {"tensor": {"dtype": "DT_FLOAT", "tensorShape": {"dim": [{"size": "1"}, {"size": "1"}, {"size": "88"}, {"size": "88"}]}}}, "dtype": {"type": "DT_FLOAT"}}}, {"name": "separable_conv_1_normal_left2_7/depthwise_kernel", "op": "Const", "attr": {"value": {"tensor": {"dtype": "DT_FLOAT", "tensorShape": {"dim": [{"size": "5"}, {"size": "5"}, {"size": "88"}, {"size": "1"}]}}}, "dtype": {"type": "DT_FLOAT"}}}, {"name": "NASNet/separable_conv_2_bn_normal_right1_7/FusedBatchNorm/Offset", "op": "Const", "attr": {"value": {"tensor": {"dtype": "DT_FLOAT", "tensorShape": {"dim": [{"size": "88"}]}}}, "dtype": {"type": "DT_FLOAT"}}}, {"name": "NASNet/separable_conv_2_normal_right1_7/separable_conv2d/merged_input", "op": "Const", "attr": {"value": {"tensor": {"dtype": "DT_FLOAT", "tensorShape": {"dim": [{"size": "1"}, {"size": "1"}, {"size": "88"}, {"size": "88"}]}}}, "dtype": {"type": "DT_FLOAT"}}}, {"name": "separable_conv_2_normal_right1_7/depthwise_kernel", "op": "Const", "attr": {"value": {"tensor": {"dtype": "DT_FLOAT", "tensorShape": {"dim": [{"size": "3"}, {"size": "3"}, {"size": "88"}, {"size": "1"}]}}}, "dtype": {"type": "DT_FLOAT"}}}, {"name": "NASNet/separable_conv_1_bn_normal_right1_7/FusedBatchNorm/Offset", "op": "Const", "attr": {"dtype": {"type": "DT_FLOAT"}, "value": {"tensor": {"dtype": "DT_FLOAT", "tensorShape": {"dim": [{"size": "88"}]}}}}}, {"name": "NASNet/separable_conv_1_normal_right1_7/separable_conv2d/merged_input", "op": "Const", "attr": {"dtype": {"type": "DT_FLOAT"}, "value": {"tensor": {"dtype": "DT_FLOAT", "tensorShape": {"dim": [{"size": "1"}, {"size": "1"}, {"size": "88"}, {"size": "88"}]}}}}}, {"name": "separable_conv_1_normal_right1_7/depthwise_kernel", "op": "Const", "attr": {"value": {"tensor": {"dtype": "DT_FLOAT", "tensorShape": {"dim": [{"size": "3"}, {"size": "3"}, {"size": "88"}, {"size": "1"}]}}}, "dtype": {"type": "DT_FLOAT"}}}, {"name": "NASNet/separable_conv_2_bn_normal_left1_7/FusedBatchNorm/Offset", "op": "Const", "attr": {"value": {"tensor": {"dtype": "DT_FLOAT", "tensorShape": {"dim": [{"size": "88"}]}}}, "dtype": {"type": "DT_FLOAT"}}}, {"name": "NASNet/separable_conv_2_normal_left1_7/separable_conv2d/merged_input", "op": "Const", "attr": {"dtype": {"type": "DT_FLOAT"}, "value": {"tensor": {"dtype": "DT_FLOAT", "tensorShape": {"dim": [{"size": "1"}, {"size": "1"}, {"size": "88"}, {"size": "88"}]}}}}}, {"name": "separable_conv_2_normal_left1_7/depthwise_kernel", "op": "Const", "attr": {"value": {"tensor": {"dtype": "DT_FLOAT", "tensorShape": {"dim": [{"size": "5"}, {"size": "5"}, {"size": "88"}, {"size": "1"}]}}}, "dtype": {"type": "DT_FLOAT"}}}, {"name": "NASNet/separable_conv_1_bn_normal_left1_7/FusedBatchNorm/Offset", "op": "Const", "attr": {"dtype": {"type": "DT_FLOAT"}, "value": {"tensor": {"dtype": "DT_FLOAT", "tensorShape": {"dim": [{"size": "88"}]}}}}}, {"name": "NASNet/separable_conv_1_normal_left1_7/separable_conv2d/merged_input", "op": "Const", "attr": {"value": {"tensor": {"dtype": "DT_FLOAT", "tensorShape": {"dim": [{"size": "1"}, {"size": "1"}, {"size": "88"}, {"size": "88"}]}}}, "dtype": {"type": "DT_FLOAT"}}}, {"name": "separable_conv_1_normal_left1_7/depthwise_kernel", "op": "Const", "attr": {"value": {"tensor": {"dtype": "DT_FLOAT", "tensorShape": {"dim": [{"size": "5"}, {"size": "5"}, {"size": "88"}, {"size": "1"}]}}}, "dtype": {"type": "DT_FLOAT"}}}, {"name": "NASNet/separable_conv_2_bn_reduction_left1_reduce_8/FusedBatchNorm/Offset", "op": "Const", "attr": {"value": {"tensor": {"dtype": "DT_FLOAT", "tensorShape": {"dim": [{"size": "176"}]}}}, "dtype": {"type": "DT_FLOAT"}}}, {"name": "NASNet/separable_conv_2_reduction_left1_reduce_8/separable_conv2d/merged_input", "op": "Const", "attr": {"value": {"tensor": {"dtype": "DT_FLOAT", "tensorShape": {"dim": [{"size": "1"}, {"size": "1"}, {"size": "176"}, {"size": "176"}]}}}, "dtype": {"type": "DT_FLOAT"}}}, {"name": "separable_conv_2_reduction_left1_reduce_8/depthwise_kernel", "op": "Const", "attr": {"value": {"tensor": {"dtype": "DT_FLOAT", "tensorShape": {"dim": [{"size": "5"}, {"size": "5"}, {"size": "176"}, {"size": "1"}]}}}, "dtype": {"type": "DT_FLOAT"}}}, {"name": "NASNet/separable_conv_1_bn_reduction_left1_reduce_8/FusedBatchNorm/Offset", "op": "Const", "attr": {"value": {"tensor": {"dtype": "DT_FLOAT", "tensorShape": {"dim": [{"size": "176"}]}}}, "dtype": {"type": "DT_FLOAT"}}}, {"name": "NASNet/separable_conv_1_reduction_left1_reduce_8/separable_conv2d/merged_input", "op": "Const", "attr": {"dtype": {"type": "DT_FLOAT"}, "value": {"tensor": {"dtype": "DT_FLOAT", "tensorShape": {"dim": [{"size": "1"}, {"size": "1"}, {"size": "176"}, {"size": "176"}]}}}}}, {"name": "separable_conv_1_reduction_left1_reduce_8/depthwise_kernel", "op": "Const", "attr": {"value": {"tensor": {"dtype": "DT_FLOAT", "tensorShape": {"dim": [{"size": "5"}, {"size": "5"}, {"size": "176"}, {"size": "1"}]}}}, "dtype": {"type": "DT_FLOAT"}}}, {"name": "NASNet/reduction_bn_1_reduce_8/FusedBatchNorm/Offset", "op": "Const", "attr": {"value": {"tensor": {"dtype": "DT_FLOAT", "tensorShape": {"dim": [{"size": "176"}]}}}, "dtype": {"type": "DT_FLOAT"}}}, {"name": "NASNet/reduction_conv_1_reduce_8/Conv2D/merged_input", "op": "Const", "attr": {"value": {"tensor": {"dtype": "DT_FLOAT", "tensorShape": {"dim": [{"size": "1"}, {"size": "1"}, {"size": "528"}, {"size": "176"}]}}}, "dtype": {"type": "DT_FLOAT"}}}, {"name": "NASNet/separable_conv_2_bn_normal_left5_8/FusedBatchNorm/Offset", "op": "Const", "attr": {"dtype": {"type": "DT_FLOAT"}, "value": {"tensor": {"dtype": "DT_FLOAT", "tensorShape": {"dim": [{"size": "88"}]}}}}}, {"name": "NASNet/separable_conv_2_normal_left5_8/separable_conv2d/merged_input", "op": "Const", "attr": {"value": {"tensor": {"dtype": "DT_FLOAT", "tensorShape": {"dim": [{"size": "1"}, {"size": "1"}, {"size": "88"}, {"size": "88"}]}}}, "dtype": {"type": "DT_FLOAT"}}}, {"name": "separable_conv_2_normal_left5_8/depthwise_kernel", "op": "Const", "attr": {"value": {"tensor": {"dtype": "DT_FLOAT", "tensorShape": {"dim": [{"size": "3"}, {"size": "3"}, {"size": "88"}, {"size": "1"}]}}}, "dtype": {"type": "DT_FLOAT"}}}, {"name": "NASNet/separable_conv_1_bn_normal_left5_8/FusedBatchNorm/Offset", "op": "Const", "attr": {"dtype": {"type": "DT_FLOAT"}, "value": {"tensor": {"dtype": "DT_FLOAT", "tensorShape": {"dim": [{"size": "88"}]}}}}}, {"name": "NASNet/separable_conv_1_normal_left5_8/separable_conv2d/merged_input", "op": "Const", "attr": {"dtype": {"type": "DT_FLOAT"}, "value": {"tensor": {"dtype": "DT_FLOAT", "tensorShape": {"dim": [{"size": "1"}, {"size": "1"}, {"size": "88"}, {"size": "88"}]}}}}}, {"name": "separable_conv_1_normal_left5_8/depthwise_kernel", "op": "Const", "attr": {"value": {"tensor": {"dtype": "DT_FLOAT", "tensorShape": {"dim": [{"size": "3"}, {"size": "3"}, {"size": "88"}, {"size": "1"}]}}}, "dtype": {"type": "DT_FLOAT"}}}, {"name": "NASNet/normal_bn_1_8/FusedBatchNorm/Offset", "op": "Const", "attr": {"value": {"tensor": {"dtype": "DT_FLOAT", "tensorShape": {"dim": [{"size": "88"}]}}}, "dtype": {"type": "DT_FLOAT"}}}, {"name": "NASNet/normal_conv_1_8/Conv2D/merged_input", "op": "Const", "attr": {"dtype": {"type": "DT_FLOAT"}, "value": {"tensor": {"dtype": "DT_FLOAT", "tensorShape": {"dim": [{"size": "1"}, {"size": "1"}, {"size": "528"}, {"size": "88"}]}}}}}, {"name": "NASNet/adjust_bn_8/FusedBatchNorm/Offset", "op": "Const", "attr": {"value": {"tensor": {"dtype": "DT_FLOAT", "tensorShape": {"dim": [{"size": "88"}]}}}, "dtype": {"type": "DT_FLOAT"}}}, {"name": "NASNet/adjust_conv_projection_8/Conv2D/merged_input", "op": "Const", "attr": {"value": {"tensor": {"dtype": "DT_FLOAT", "tensorShape": {"dim": [{"size": "1"}, {"size": "1"}, {"size": "528"}, {"size": "88"}]}}}, "dtype": {"type": "DT_FLOAT"}}}, {"name": "NASNet/separable_conv_2_bn_normal_right2_8/FusedBatchNorm/Offset", "op": "Const", "attr": {"value": {"tensor": {"dtype": "DT_FLOAT", "tensorShape": {"dim": [{"size": "88"}]}}}, "dtype": {"type": "DT_FLOAT"}}}, {"name": "NASNet/separable_conv_2_normal_right2_8/separable_conv2d/merged_input", "op": "Const", "attr": {"value": {"tensor": {"dtype": "DT_FLOAT", "tensorShape": {"dim": [{"size": "1"}, {"size": "1"}, {"size": "88"}, {"size": "88"}]}}}, "dtype": {"type": "DT_FLOAT"}}}, {"name": "separable_conv_2_normal_right2_8/depthwise_kernel", "op": "Const", "attr": {"value": {"tensor": {"dtype": "DT_FLOAT", "tensorShape": {"dim": [{"size": "3"}, {"size": "3"}, {"size": "88"}, {"size": "1"}]}}}, "dtype": {"type": "DT_FLOAT"}}}, {"name": "NASNet/separable_conv_1_bn_normal_right2_8/FusedBatchNorm/Offset", "op": "Const", "attr": {"value": {"tensor": {"dtype": "DT_FLOAT", "tensorShape": {"dim": [{"size": "88"}]}}}, "dtype": {"type": "DT_FLOAT"}}}, {"name": "NASNet/separable_conv_1_normal_right2_8/separable_conv2d/merged_input", "op": "Const", "attr": {"value": {"tensor": {"dtype": "DT_FLOAT", "tensorShape": {"dim": [{"size": "1"}, {"size": "1"}, {"size": "88"}, {"size": "88"}]}}}, "dtype": {"type": "DT_FLOAT"}}}, {"name": "separable_conv_1_normal_right2_8/depthwise_kernel", "op": "Const", "attr": {"value": {"tensor": {"dtype": "DT_FLOAT", "tensorShape": {"dim": [{"size": "3"}, {"size": "3"}, {"size": "88"}, {"size": "1"}]}}}, "dtype": {"type": "DT_FLOAT"}}}, {"name": "NASNet/separable_conv_2_bn_normal_left2_8/FusedBatchNorm/Offset", "op": "Const", "attr": {"value": {"tensor": {"dtype": "DT_FLOAT", "tensorShape": {"dim": [{"size": "88"}]}}}, "dtype": {"type": "DT_FLOAT"}}}, {"name": "NASNet/separable_conv_2_normal_left2_8/separable_conv2d/merged_input", "op": "Const", "attr": {"value": {"tensor": {"dtype": "DT_FLOAT", "tensorShape": {"dim": [{"size": "1"}, {"size": "1"}, {"size": "88"}, {"size": "88"}]}}}, "dtype": {"type": "DT_FLOAT"}}}, {"name": "separable_conv_2_normal_left2_8/depthwise_kernel", "op": "Const", "attr": {"value": {"tensor": {"dtype": "DT_FLOAT", "tensorShape": {"dim": [{"size": "5"}, {"size": "5"}, {"size": "88"}, {"size": "1"}]}}}, "dtype": {"type": "DT_FLOAT"}}}, {"name": "NASNet/separable_conv_1_bn_normal_left2_8/FusedBatchNorm/Offset", "op": "Const", "attr": {"value": {"tensor": {"dtype": "DT_FLOAT", "tensorShape": {"dim": [{"size": "88"}]}}}, "dtype": {"type": "DT_FLOAT"}}}, {"name": "NASNet/separable_conv_1_normal_left2_8/separable_conv2d/merged_input", "op": "Const", "attr": {"value": {"tensor": {"dtype": "DT_FLOAT", "tensorShape": {"dim": [{"size": "1"}, {"size": "1"}, {"size": "88"}, {"size": "88"}]}}}, "dtype": {"type": "DT_FLOAT"}}}, {"name": "separable_conv_1_normal_left2_8/depthwise_kernel", "op": "Const", "attr": {"value": {"tensor": {"dtype": "DT_FLOAT", "tensorShape": {"dim": [{"size": "5"}, {"size": "5"}, {"size": "88"}, {"size": "1"}]}}}, "dtype": {"type": "DT_FLOAT"}}}, {"name": "NASNet/separable_conv_2_bn_normal_right1_8/FusedBatchNorm/Offset", "op": "Const", "attr": {"value": {"tensor": {"dtype": "DT_FLOAT", "tensorShape": {"dim": [{"size": "88"}]}}}, "dtype": {"type": "DT_FLOAT"}}}, {"name": "NASNet/separable_conv_2_normal_right1_8/separable_conv2d/merged_input", "op": "Const", "attr": {"value": {"tensor": {"dtype": "DT_FLOAT", "tensorShape": {"dim": [{"size": "1"}, {"size": "1"}, {"size": "88"}, {"size": "88"}]}}}, "dtype": {"type": "DT_FLOAT"}}}, {"name": "separable_conv_2_normal_right1_8/depthwise_kernel", "op": "Const", "attr": {"dtype": {"type": "DT_FLOAT"}, "value": {"tensor": {"dtype": "DT_FLOAT", "tensorShape": {"dim": [{"size": "3"}, {"size": "3"}, {"size": "88"}, {"size": "1"}]}}}}}, {"name": "NASNet/separable_conv_1_bn_normal_right1_8/FusedBatchNorm/Offset", "op": "Const", "attr": {"value": {"tensor": {"dtype": "DT_FLOAT", "tensorShape": {"dim": [{"size": "88"}]}}}, "dtype": {"type": "DT_FLOAT"}}}, {"name": "NASNet/separable_conv_1_normal_right1_8/separable_conv2d/merged_input", "op": "Const", "attr": {"value": {"tensor": {"dtype": "DT_FLOAT", "tensorShape": {"dim": [{"size": "1"}, {"size": "1"}, {"size": "88"}, {"size": "88"}]}}}, "dtype": {"type": "DT_FLOAT"}}}, {"name": "separable_conv_1_normal_right1_8/depthwise_kernel", "op": "Const", "attr": {"value": {"tensor": {"dtype": "DT_FLOAT", "tensorShape": {"dim": [{"size": "3"}, {"size": "3"}, {"size": "88"}, {"size": "1"}]}}}, "dtype": {"type": "DT_FLOAT"}}}, {"name": "NASNet/separable_conv_2_bn_normal_left1_8/FusedBatchNorm/Offset", "op": "Const", "attr": {"dtype": {"type": "DT_FLOAT"}, "value": {"tensor": {"dtype": "DT_FLOAT", "tensorShape": {"dim": [{"size": "88"}]}}}}}, {"name": "NASNet/separable_conv_2_normal_left1_8/separable_conv2d/merged_input", "op": "Const", "attr": {"value": {"tensor": {"dtype": "DT_FLOAT", "tensorShape": {"dim": [{"size": "1"}, {"size": "1"}, {"size": "88"}, {"size": "88"}]}}}, "dtype": {"type": "DT_FLOAT"}}}, {"name": "separable_conv_2_normal_left1_8/depthwise_kernel", "op": "Const", "attr": {"dtype": {"type": "DT_FLOAT"}, "value": {"tensor": {"dtype": "DT_FLOAT", "tensorShape": {"dim": [{"size": "5"}, {"size": "5"}, {"size": "88"}, {"size": "1"}]}}}}}, {"name": "NASNet/separable_conv_1_bn_normal_left1_8/FusedBatchNorm/Offset", "op": "Const", "attr": {"value": {"tensor": {"dtype": "DT_FLOAT", "tensorShape": {"dim": [{"size": "88"}]}}}, "dtype": {"type": "DT_FLOAT"}}}, {"name": "NASNet/separable_conv_1_normal_left1_8/separable_conv2d/merged_input", "op": "Const", "attr": {"value": {"tensor": {"dtype": "DT_FLOAT", "tensorShape": {"dim": [{"size": "1"}, {"size": "1"}, {"size": "88"}, {"size": "88"}]}}}, "dtype": {"type": "DT_FLOAT"}}}, {"name": "separable_conv_1_normal_left1_8/depthwise_kernel", "op": "Const", "attr": {"value": {"tensor": {"dtype": "DT_FLOAT", "tensorShape": {"dim": [{"size": "5"}, {"size": "5"}, {"size": "88"}, {"size": "1"}]}}}, "dtype": {"type": "DT_FLOAT"}}}, {"name": "NASNet/separable_conv_2_bn_reduction_right2_reduce_8/FusedBatchNorm/Offset", "op": "Const", "attr": {"dtype": {"type": "DT_FLOAT"}, "value": {"tensor": {"dtype": "DT_FLOAT", "tensorShape": {"dim": [{"size": "176"}]}}}}}, {"name": "NASNet/separable_conv_2_reduction_right2_reduce_8/separable_conv2d/merged_input", "op": "Const", "attr": {"value": {"tensor": {"dtype": "DT_FLOAT", "tensorShape": {"dim": [{"size": "1"}, {"size": "1"}, {"size": "176"}, {"size": "176"}]}}}, "dtype": {"type": "DT_FLOAT"}}}, {"name": "separable_conv_2_reduction_right2_reduce_8/depthwise_kernel", "op": "Const", "attr": {"value": {"tensor": {"dtype": "DT_FLOAT", "tensorShape": {"dim": [{"size": "7"}, {"size": "7"}, {"size": "176"}, {"size": "1"}]}}}, "dtype": {"type": "DT_FLOAT"}}}, {"name": "NASNet/separable_conv_1_bn_reduction_right2_reduce_8/FusedBatchNorm/Offset", "op": "Const", "attr": {"value": {"tensor": {"dtype": "DT_FLOAT", "tensorShape": {"dim": [{"size": "176"}]}}}, "dtype": {"type": "DT_FLOAT"}}}, {"name": "NASNet/separable_conv_1_reduction_right2_reduce_8/separable_conv2d/merged_input", "op": "Const", "attr": {"value": {"tensor": {"dtype": "DT_FLOAT", "tensorShape": {"dim": [{"size": "1"}, {"size": "1"}, {"size": "176"}, {"size": "176"}]}}}, "dtype": {"type": "DT_FLOAT"}}}, {"name": "separable_conv_1_reduction_right2_reduce_8/depthwise_kernel", "op": "Const", "attr": {"value": {"tensor": {"dtype": "DT_FLOAT", "tensorShape": {"dim": [{"size": "7"}, {"size": "7"}, {"size": "176"}, {"size": "1"}]}}}, "dtype": {"type": "DT_FLOAT"}}}, {"name": "NASNet/separable_conv_2_bn_reduction_right3_reduce_8/FusedBatchNorm/Offset", "op": "Const", "attr": {"value": {"tensor": {"dtype": "DT_FLOAT", "tensorShape": {"dim": [{"size": "176"}]}}}, "dtype": {"type": "DT_FLOAT"}}}, {"name": "NASNet/separable_conv_2_reduction_right3_reduce_8/separable_conv2d/merged_input", "op": "Const", "attr": {"dtype": {"type": "DT_FLOAT"}, "value": {"tensor": {"dtype": "DT_FLOAT", "tensorShape": {"dim": [{"size": "1"}, {"size": "1"}, {"size": "176"}, {"size": "176"}]}}}}}, {"name": "separable_conv_2_reduction_right3_reduce_8/depthwise_kernel", "op": "Const", "attr": {"value": {"tensor": {"dtype": "DT_FLOAT", "tensorShape": {"dim": [{"size": "5"}, {"size": "5"}, {"size": "176"}, {"size": "1"}]}}}, "dtype": {"type": "DT_FLOAT"}}}, {"name": "NASNet/separable_conv_1_bn_reduction_right3_reduce_8/FusedBatchNorm/Offset", "op": "Const", "attr": {"value": {"tensor": {"dtype": "DT_FLOAT", "tensorShape": {"dim": [{"size": "176"}]}}}, "dtype": {"type": "DT_FLOAT"}}}, {"name": "NASNet/separable_conv_1_reduction_right3_reduce_8/separable_conv2d/merged_input", "op": "Const", "attr": {"value": {"tensor": {"dtype": "DT_FLOAT", "tensorShape": {"dim": [{"size": "1"}, {"size": "1"}, {"size": "176"}, {"size": "176"}]}}}, "dtype": {"type": "DT_FLOAT"}}}, {"name": "separable_conv_1_reduction_right3_reduce_8/depthwise_kernel", "op": "Const", "attr": {"dtype": {"type": "DT_FLOAT"}, "value": {"tensor": {"dtype": "DT_FLOAT", "tensorShape": {"dim": [{"size": "5"}, {"size": "5"}, {"size": "176"}, {"size": "1"}]}}}}}, {"name": "NASNet/adjust_bn_9/FusedBatchNorm/Offset", "op": "Const", "attr": {"dtype": {"type": "DT_FLOAT"}, "value": {"tensor": {"dtype": "DT_FLOAT", "tensorShape": {"dim": [{"size": "176"}]}}}}}, {"name": "adjust_conv_2_9/kernel", "op": "Const", "attr": {"value": {"tensor": {"dtype": "DT_FLOAT", "tensorShape": {"dim": [{"size": "1"}, {"size": "1"}, {"size": "528"}, {"size": "88"}]}}}, "dtype": {"type": "DT_FLOAT"}}}, {"name": "adjust_conv_1_9/kernel", "op": "Const", "attr": {"value": {"tensor": {"dtype": "DT_FLOAT", "tensorShape": {"dim": [{"size": "1"}, {"size": "1"}, {"size": "528"}, {"size": "88"}]}}}, "dtype": {"type": "DT_FLOAT"}}}, {"name": "NASNet/adjust_bn_9/FusedBatchNorm/Scaled", "op": "Const", "attr": {"value": {"tensor": {"dtype": "DT_FLOAT", "tensorShape": {"dim": [{"size": "176"}]}}}, "dtype": {"type": "DT_FLOAT"}}}, {"name": "NASNet/separable_conv_2_bn_normal_right2_9/FusedBatchNorm/Offset", "op": "Const", "attr": {"value": {"tensor": {"dtype": "DT_FLOAT", "tensorShape": {"dim": [{"size": "176"}]}}}, "dtype": {"type": "DT_FLOAT"}}}, {"name": "NASNet/separable_conv_2_normal_right2_9/separable_conv2d/merged_input", "op": "Const", "attr": {"value": {"tensor": {"dtype": "DT_FLOAT", "tensorShape": {"dim": [{"size": "1"}, {"size": "1"}, {"size": "176"}, {"size": "176"}]}}}, "dtype": {"type": "DT_FLOAT"}}}, {"name": "separable_conv_2_normal_right2_9/depthwise_kernel", "op": "Const", "attr": {"value": {"tensor": {"dtype": "DT_FLOAT", "tensorShape": {"dim": [{"size": "3"}, {"size": "3"}, {"size": "176"}, {"size": "1"}]}}}, "dtype": {"type": "DT_FLOAT"}}}, {"name": "NASNet/separable_conv_1_bn_normal_right2_9/FusedBatchNorm/Offset", "op": "Const", "attr": {"value": {"tensor": {"dtype": "DT_FLOAT", "tensorShape": {"dim": [{"size": "176"}]}}}, "dtype": {"type": "DT_FLOAT"}}}, {"name": "NASNet/separable_conv_1_normal_right2_9/separable_conv2d/merged_input", "op": "Const", "attr": {"value": {"tensor": {"dtype": "DT_FLOAT", "tensorShape": {"dim": [{"size": "1"}, {"size": "1"}, {"size": "176"}, {"size": "176"}]}}}, "dtype": {"type": "DT_FLOAT"}}}, {"name": "separable_conv_1_normal_right2_9/depthwise_kernel", "op": "Const", "attr": {"value": {"tensor": {"dtype": "DT_FLOAT", "tensorShape": {"dim": [{"size": "3"}, {"size": "3"}, {"size": "176"}, {"size": "1"}]}}}, "dtype": {"type": "DT_FLOAT"}}}, {"name": "NASNet/separable_conv_2_bn_normal_left2_9/FusedBatchNorm/Offset", "op": "Const", "attr": {"dtype": {"type": "DT_FLOAT"}, "value": {"tensor": {"dtype": "DT_FLOAT", "tensorShape": {"dim": [{"size": "176"}]}}}}}, {"name": "NASNet/separable_conv_2_normal_left2_9/separable_conv2d/merged_input", "op": "Const", "attr": {"dtype": {"type": "DT_FLOAT"}, "value": {"tensor": {"dtype": "DT_FLOAT", "tensorShape": {"dim": [{"size": "1"}, {"size": "1"}, {"size": "176"}, {"size": "176"}]}}}}}, {"name": "separable_conv_2_normal_left2_9/depthwise_kernel", "op": "Const", "attr": {"value": {"tensor": {"dtype": "DT_FLOAT", "tensorShape": {"dim": [{"size": "5"}, {"size": "5"}, {"size": "176"}, {"size": "1"}]}}}, "dtype": {"type": "DT_FLOAT"}}}, {"name": "NASNet/separable_conv_1_bn_normal_left2_9/FusedBatchNorm/Offset", "op": "Const", "attr": {"value": {"tensor": {"dtype": "DT_FLOAT", "tensorShape": {"dim": [{"size": "176"}]}}}, "dtype": {"type": "DT_FLOAT"}}}, {"name": "NASNet/separable_conv_1_normal_left2_9/separable_conv2d/merged_input", "op": "Const", "attr": {"value": {"tensor": {"dtype": "DT_FLOAT", "tensorShape": {"dim": [{"size": "1"}, {"size": "1"}, {"size": "176"}, {"size": "176"}]}}}, "dtype": {"type": "DT_FLOAT"}}}, {"name": "separable_conv_1_normal_left2_9/depthwise_kernel", "op": "Const", "attr": {"value": {"tensor": {"dtype": "DT_FLOAT", "tensorShape": {"dim": [{"size": "5"}, {"size": "5"}, {"size": "176"}, {"size": "1"}]}}}, "dtype": {"type": "DT_FLOAT"}}}, {"name": "NASNet/separable_conv_2_bn_normal_right1_9/FusedBatchNorm/Offset", "op": "Const", "attr": {"value": {"tensor": {"dtype": "DT_FLOAT", "tensorShape": {"dim": [{"size": "176"}]}}}, "dtype": {"type": "DT_FLOAT"}}}, {"name": "NASNet/separable_conv_2_normal_right1_9/separable_conv2d/merged_input", "op": "Const", "attr": {"value": {"tensor": {"dtype": "DT_FLOAT", "tensorShape": {"dim": [{"size": "1"}, {"size": "1"}, {"size": "176"}, {"size": "176"}]}}}, "dtype": {"type": "DT_FLOAT"}}}, {"name": "separable_conv_2_normal_right1_9/depthwise_kernel", "op": "Const", "attr": {"dtype": {"type": "DT_FLOAT"}, "value": {"tensor": {"dtype": "DT_FLOAT", "tensorShape": {"dim": [{"size": "3"}, {"size": "3"}, {"size": "176"}, {"size": "1"}]}}}}}, {"name": "NASNet/separable_conv_1_bn_normal_right1_9/FusedBatchNorm/Offset", "op": "Const", "attr": {"dtype": {"type": "DT_FLOAT"}, "value": {"tensor": {"dtype": "DT_FLOAT", "tensorShape": {"dim": [{"size": "176"}]}}}}}, {"name": "NASNet/separable_conv_1_normal_right1_9/separable_conv2d/merged_input", "op": "Const", "attr": {"value": {"tensor": {"dtype": "DT_FLOAT", "tensorShape": {"dim": [{"size": "1"}, {"size": "1"}, {"size": "176"}, {"size": "176"}]}}}, "dtype": {"type": "DT_FLOAT"}}}, {"name": "separable_conv_1_normal_right1_9/depthwise_kernel", "op": "Const", "attr": {"dtype": {"type": "DT_FLOAT"}, "value": {"tensor": {"dtype": "DT_FLOAT", "tensorShape": {"dim": [{"size": "3"}, {"size": "3"}, {"size": "176"}, {"size": "1"}]}}}}}, {"name": "NASNet/separable_conv_2_bn_normal_left1_9/FusedBatchNorm/Offset", "op": "Const", "attr": {"value": {"tensor": {"dtype": "DT_FLOAT", "tensorShape": {"dim": [{"size": "176"}]}}}, "dtype": {"type": "DT_FLOAT"}}}, {"name": "NASNet/separable_conv_2_normal_left1_9/separable_conv2d/merged_input", "op": "Const", "attr": {"value": {"tensor": {"dtype": "DT_FLOAT", "tensorShape": {"dim": [{"size": "1"}, {"size": "1"}, {"size": "176"}, {"size": "176"}]}}}, "dtype": {"type": "DT_FLOAT"}}}, {"name": "separable_conv_2_normal_left1_9/depthwise_kernel", "op": "Const", "attr": {"value": {"tensor": {"dtype": "DT_FLOAT", "tensorShape": {"dim": [{"size": "5"}, {"size": "5"}, {"size": "176"}, {"size": "1"}]}}}, "dtype": {"type": "DT_FLOAT"}}}, {"name": "NASNet/separable_conv_1_bn_normal_left1_9/FusedBatchNorm/Offset", "op": "Const", "attr": {"dtype": {"type": "DT_FLOAT"}, "value": {"tensor": {"dtype": "DT_FLOAT", "tensorShape": {"dim": [{"size": "176"}]}}}}}, {"name": "NASNet/separable_conv_1_normal_left1_9/separable_conv2d/merged_input", "op": "Const", "attr": {"dtype": {"type": "DT_FLOAT"}, "value": {"tensor": {"dtype": "DT_FLOAT", "tensorShape": {"dim": [{"size": "1"}, {"size": "1"}, {"size": "176"}, {"size": "176"}]}}}}}, {"name": "separable_conv_1_normal_left1_9/depthwise_kernel", "op": "Const", "attr": {"value": {"tensor": {"dtype": "DT_FLOAT", "tensorShape": {"dim": [{"size": "5"}, {"size": "5"}, {"size": "176"}, {"size": "1"}]}}}, "dtype": {"type": "DT_FLOAT"}}}, {"name": "NASNet/adjust_bn_10/FusedBatchNorm/Offset", "op": "Const", "attr": {"dtype": {"type": "DT_FLOAT"}, "value": {"tensor": {"dtype": "DT_FLOAT", "tensorShape": {"dim": [{"size": "176"}]}}}}}, {"name": "NASNet/adjust_conv_projection_10/Conv2D/merged_input", "op": "Const", "attr": {"dtype": {"type": "DT_FLOAT"}, "value": {"tensor": {"dtype": "DT_FLOAT", "tensorShape": {"dim": [{"size": "1"}, {"size": "1"}, {"size": "704"}, {"size": "176"}]}}}}}, {"name": "NASNet/separable_conv_2_bn_normal_right2_10/FusedBatchNorm/Offset", "op": "Const", "attr": {"dtype": {"type": "DT_FLOAT"}, "value": {"tensor": {"dtype": "DT_FLOAT", "tensorShape": {"dim": [{"size": "176"}]}}}}}, {"name": "NASNet/separable_conv_2_normal_right2_10/separable_conv2d/merged_input", "op": "Const", "attr": {"value": {"tensor": {"dtype": "DT_FLOAT", "tensorShape": {"dim": [{"size": "1"}, {"size": "1"}, {"size": "176"}, {"size": "176"}]}}}, "dtype": {"type": "DT_FLOAT"}}}, {"name": "separable_conv_2_normal_right2_10/depthwise_kernel", "op": "Const", "attr": {"dtype": {"type": "DT_FLOAT"}, "value": {"tensor": {"dtype": "DT_FLOAT", "tensorShape": {"dim": [{"size": "3"}, {"size": "3"}, {"size": "176"}, {"size": "1"}]}}}}}, {"name": "NASNet/separable_conv_1_bn_normal_right2_10/FusedBatchNorm/Offset", "op": "Const", "attr": {"value": {"tensor": {"dtype": "DT_FLOAT", "tensorShape": {"dim": [{"size": "176"}]}}}, "dtype": {"type": "DT_FLOAT"}}}, {"name": "NASNet/separable_conv_1_normal_right2_10/separable_conv2d/merged_input", "op": "Const", "attr": {"value": {"tensor": {"dtype": "DT_FLOAT", "tensorShape": {"dim": [{"size": "1"}, {"size": "1"}, {"size": "176"}, {"size": "176"}]}}}, "dtype": {"type": "DT_FLOAT"}}}, {"name": "separable_conv_1_normal_right2_10/depthwise_kernel", "op": "Const", "attr": {"value": {"tensor": {"dtype": "DT_FLOAT", "tensorShape": {"dim": [{"size": "3"}, {"size": "3"}, {"size": "176"}, {"size": "1"}]}}}, "dtype": {"type": "DT_FLOAT"}}}, {"name": "NASNet/separable_conv_2_bn_normal_left2_10/FusedBatchNorm/Offset", "op": "Const", "attr": {"dtype": {"type": "DT_FLOAT"}, "value": {"tensor": {"dtype": "DT_FLOAT", "tensorShape": {"dim": [{"size": "176"}]}}}}}, {"name": "NASNet/separable_conv_2_normal_left2_10/separable_conv2d/merged_input", "op": "Const", "attr": {"value": {"tensor": {"dtype": "DT_FLOAT", "tensorShape": {"dim": [{"size": "1"}, {"size": "1"}, {"size": "176"}, {"size": "176"}]}}}, "dtype": {"type": "DT_FLOAT"}}}, {"name": "separable_conv_2_normal_left2_10/depthwise_kernel", "op": "Const", "attr": {"value": {"tensor": {"dtype": "DT_FLOAT", "tensorShape": {"dim": [{"size": "5"}, {"size": "5"}, {"size": "176"}, {"size": "1"}]}}}, "dtype": {"type": "DT_FLOAT"}}}, {"name": "NASNet/separable_conv_1_bn_normal_left2_10/FusedBatchNorm/Offset", "op": "Const", "attr": {"value": {"tensor": {"dtype": "DT_FLOAT", "tensorShape": {"dim": [{"size": "176"}]}}}, "dtype": {"type": "DT_FLOAT"}}}, {"name": "NASNet/separable_conv_1_normal_left2_10/separable_conv2d/merged_input", "op": "Const", "attr": {"dtype": {"type": "DT_FLOAT"}, "value": {"tensor": {"dtype": "DT_FLOAT", "tensorShape": {"dim": [{"size": "1"}, {"size": "1"}, {"size": "176"}, {"size": "176"}]}}}}}, {"name": "separable_conv_1_normal_left2_10/depthwise_kernel", "op": "Const", "attr": {"value": {"tensor": {"dtype": "DT_FLOAT", "tensorShape": {"dim": [{"size": "5"}, {"size": "5"}, {"size": "176"}, {"size": "1"}]}}}, "dtype": {"type": "DT_FLOAT"}}}, {"name": "NASNet/separable_conv_2_bn_normal_right1_10/FusedBatchNorm/Offset", "op": "Const", "attr": {"value": {"tensor": {"dtype": "DT_FLOAT", "tensorShape": {"dim": [{"size": "176"}]}}}, "dtype": {"type": "DT_FLOAT"}}}, {"name": "NASNet/separable_conv_2_normal_right1_10/separable_conv2d/merged_input", "op": "Const", "attr": {"dtype": {"type": "DT_FLOAT"}, "value": {"tensor": {"dtype": "DT_FLOAT", "tensorShape": {"dim": [{"size": "1"}, {"size": "1"}, {"size": "176"}, {"size": "176"}]}}}}}, {"name": "separable_conv_2_normal_right1_10/depthwise_kernel", "op": "Const", "attr": {"value": {"tensor": {"dtype": "DT_FLOAT", "tensorShape": {"dim": [{"size": "3"}, {"size": "3"}, {"size": "176"}, {"size": "1"}]}}}, "dtype": {"type": "DT_FLOAT"}}}, {"name": "NASNet/separable_conv_1_bn_normal_right1_10/FusedBatchNorm/Offset", "op": "Const", "attr": {"value": {"tensor": {"dtype": "DT_FLOAT", "tensorShape": {"dim": [{"size": "176"}]}}}, "dtype": {"type": "DT_FLOAT"}}}, {"name": "NASNet/separable_conv_1_normal_right1_10/separable_conv2d/merged_input", "op": "Const", "attr": {"value": {"tensor": {"dtype": "DT_FLOAT", "tensorShape": {"dim": [{"size": "1"}, {"size": "1"}, {"size": "176"}, {"size": "176"}]}}}, "dtype": {"type": "DT_FLOAT"}}}, {"name": "separable_conv_1_normal_right1_10/depthwise_kernel", "op": "Const", "attr": {"value": {"tensor": {"dtype": "DT_FLOAT", "tensorShape": {"dim": [{"size": "3"}, {"size": "3"}, {"size": "176"}, {"size": "1"}]}}}, "dtype": {"type": "DT_FLOAT"}}}, {"name": "NASNet/separable_conv_2_bn_normal_left1_10/FusedBatchNorm/Offset", "op": "Const", "attr": {"value": {"tensor": {"dtype": "DT_FLOAT", "tensorShape": {"dim": [{"size": "176"}]}}}, "dtype": {"type": "DT_FLOAT"}}}, {"name": "NASNet/separable_conv_2_normal_left1_10/separable_conv2d/merged_input", "op": "Const", "attr": {"dtype": {"type": "DT_FLOAT"}, "value": {"tensor": {"dtype": "DT_FLOAT", "tensorShape": {"dim": [{"size": "1"}, {"size": "1"}, {"size": "176"}, {"size": "176"}]}}}}}, {"name": "separable_conv_2_normal_left1_10/depthwise_kernel", "op": "Const", "attr": {"dtype": {"type": "DT_FLOAT"}, "value": {"tensor": {"dtype": "DT_FLOAT", "tensorShape": {"dim": [{"size": "5"}, {"size": "5"}, {"size": "176"}, {"size": "1"}]}}}}}, {"name": "NASNet/separable_conv_1_bn_normal_left1_10/FusedBatchNorm/Offset", "op": "Const", "attr": {"value": {"tensor": {"dtype": "DT_FLOAT", "tensorShape": {"dim": [{"size": "176"}]}}}, "dtype": {"type": "DT_FLOAT"}}}, {"name": "NASNet/separable_conv_1_normal_left1_10/separable_conv2d/merged_input", "op": "Const", "attr": {"value": {"tensor": {"dtype": "DT_FLOAT", "tensorShape": {"dim": [{"size": "1"}, {"size": "1"}, {"size": "176"}, {"size": "176"}]}}}, "dtype": {"type": "DT_FLOAT"}}}, {"name": "separable_conv_1_normal_left1_10/depthwise_kernel", "op": "Const", "attr": {"value": {"tensor": {"dtype": "DT_FLOAT", "tensorShape": {"dim": [{"size": "5"}, {"size": "5"}, {"size": "176"}, {"size": "1"}]}}}, "dtype": {"type": "DT_FLOAT"}}}, {"name": "NASNet/adjust_bn_11/FusedBatchNorm/Offset", "op": "Const", "attr": {"value": {"tensor": {"dtype": "DT_FLOAT", "tensorShape": {"dim": [{"size": "176"}]}}}, "dtype": {"type": "DT_FLOAT"}}}, {"name": "NASNet/adjust_conv_projection_11/Conv2D/merged_input", "op": "Const", "attr": {"value": {"tensor": {"dtype": "DT_FLOAT", "tensorShape": {"dim": [{"size": "1"}, {"size": "1"}, {"size": "1056"}, {"size": "176"}]}}}, "dtype": {"type": "DT_FLOAT"}}}, {"name": "NASNet/separable_conv_2_bn_normal_right2_11/FusedBatchNorm/Offset", "op": "Const", "attr": {"dtype": {"type": "DT_FLOAT"}, "value": {"tensor": {"dtype": "DT_FLOAT", "tensorShape": {"dim": [{"size": "176"}]}}}}}, {"name": "NASNet/separable_conv_2_normal_right2_11/separable_conv2d/merged_input", "op": "Const", "attr": {"value": {"tensor": {"dtype": "DT_FLOAT", "tensorShape": {"dim": [{"size": "1"}, {"size": "1"}, {"size": "176"}, {"size": "176"}]}}}, "dtype": {"type": "DT_FLOAT"}}}, {"name": "separable_conv_2_normal_right2_11/depthwise_kernel", "op": "Const", "attr": {"value": {"tensor": {"dtype": "DT_FLOAT", "tensorShape": {"dim": [{"size": "3"}, {"size": "3"}, {"size": "176"}, {"size": "1"}]}}}, "dtype": {"type": "DT_FLOAT"}}}, {"name": "NASNet/separable_conv_1_bn_normal_right2_11/FusedBatchNorm/Offset", "op": "Const", "attr": {"dtype": {"type": "DT_FLOAT"}, "value": {"tensor": {"dtype": "DT_FLOAT", "tensorShape": {"dim": [{"size": "176"}]}}}}}, {"name": "NASNet/separable_conv_1_normal_right2_11/separable_conv2d/merged_input", "op": "Const", "attr": {"dtype": {"type": "DT_FLOAT"}, "value": {"tensor": {"dtype": "DT_FLOAT", "tensorShape": {"dim": [{"size": "1"}, {"size": "1"}, {"size": "176"}, {"size": "176"}]}}}}}, {"name": "separable_conv_1_normal_right2_11/depthwise_kernel", "op": "Const", "attr": {"value": {"tensor": {"dtype": "DT_FLOAT", "tensorShape": {"dim": [{"size": "3"}, {"size": "3"}, {"size": "176"}, {"size": "1"}]}}}, "dtype": {"type": "DT_FLOAT"}}}, {"name": "NASNet/separable_conv_2_bn_normal_left2_11/FusedBatchNorm/Offset", "op": "Const", "attr": {"value": {"tensor": {"dtype": "DT_FLOAT", "tensorShape": {"dim": [{"size": "176"}]}}}, "dtype": {"type": "DT_FLOAT"}}}, {"name": "NASNet/separable_conv_2_normal_left2_11/separable_conv2d/merged_input", "op": "Const", "attr": {"value": {"tensor": {"dtype": "DT_FLOAT", "tensorShape": {"dim": [{"size": "1"}, {"size": "1"}, {"size": "176"}, {"size": "176"}]}}}, "dtype": {"type": "DT_FLOAT"}}}, {"name": "separable_conv_2_normal_left2_11/depthwise_kernel", "op": "Const", "attr": {"value": {"tensor": {"dtype": "DT_FLOAT", "tensorShape": {"dim": [{"size": "5"}, {"size": "5"}, {"size": "176"}, {"size": "1"}]}}}, "dtype": {"type": "DT_FLOAT"}}}, {"name": "NASNet/separable_conv_1_bn_normal_left2_11/FusedBatchNorm/Offset", "op": "Const", "attr": {"value": {"tensor": {"dtype": "DT_FLOAT", "tensorShape": {"dim": [{"size": "176"}]}}}, "dtype": {"type": "DT_FLOAT"}}}, {"name": "NASNet/separable_conv_1_normal_left2_11/separable_conv2d/merged_input", "op": "Const", "attr": {"value": {"tensor": {"dtype": "DT_FLOAT", "tensorShape": {"dim": [{"size": "1"}, {"size": "1"}, {"size": "176"}, {"size": "176"}]}}}, "dtype": {"type": "DT_FLOAT"}}}, {"name": "separable_conv_1_normal_left2_11/depthwise_kernel", "op": "Const", "attr": {"value": {"tensor": {"dtype": "DT_FLOAT", "tensorShape": {"dim": [{"size": "5"}, {"size": "5"}, {"size": "176"}, {"size": "1"}]}}}, "dtype": {"type": "DT_FLOAT"}}}, {"name": "NASNet/separable_conv_2_bn_normal_right1_11/FusedBatchNorm/Offset", "op": "Const", "attr": {"value": {"tensor": {"dtype": "DT_FLOAT", "tensorShape": {"dim": [{"size": "176"}]}}}, "dtype": {"type": "DT_FLOAT"}}}, {"name": "NASNet/separable_conv_2_normal_right1_11/separable_conv2d/merged_input", "op": "Const", "attr": {"value": {"tensor": {"dtype": "DT_FLOAT", "tensorShape": {"dim": [{"size": "1"}, {"size": "1"}, {"size": "176"}, {"size": "176"}]}}}, "dtype": {"type": "DT_FLOAT"}}}, {"name": "separable_conv_2_normal_right1_11/depthwise_kernel", "op": "Const", "attr": {"value": {"tensor": {"dtype": "DT_FLOAT", "tensorShape": {"dim": [{"size": "3"}, {"size": "3"}, {"size": "176"}, {"size": "1"}]}}}, "dtype": {"type": "DT_FLOAT"}}}, {"name": "NASNet/separable_conv_1_bn_normal_right1_11/FusedBatchNorm/Offset", "op": "Const", "attr": {"dtype": {"type": "DT_FLOAT"}, "value": {"tensor": {"dtype": "DT_FLOAT", "tensorShape": {"dim": [{"size": "176"}]}}}}}, {"name": "NASNet/separable_conv_1_normal_right1_11/separable_conv2d/merged_input", "op": "Const", "attr": {"dtype": {"type": "DT_FLOAT"}, "value": {"tensor": {"dtype": "DT_FLOAT", "tensorShape": {"dim": [{"size": "1"}, {"size": "1"}, {"size": "176"}, {"size": "176"}]}}}}}, {"name": "separable_conv_1_normal_right1_11/depthwise_kernel", "op": "Const", "attr": {"dtype": {"type": "DT_FLOAT"}, "value": {"tensor": {"dtype": "DT_FLOAT", "tensorShape": {"dim": [{"size": "3"}, {"size": "3"}, {"size": "176"}, {"size": "1"}]}}}}}, {"name": "NASNet/separable_conv_2_bn_normal_left1_11/FusedBatchNorm/Offset", "op": "Const", "attr": {"value": {"tensor": {"dtype": "DT_FLOAT", "tensorShape": {"dim": [{"size": "176"}]}}}, "dtype": {"type": "DT_FLOAT"}}}, {"name": "NASNet/separable_conv_2_normal_left1_11/separable_conv2d/merged_input", "op": "Const", "attr": {"value": {"tensor": {"dtype": "DT_FLOAT", "tensorShape": {"dim": [{"size": "1"}, {"size": "1"}, {"size": "176"}, {"size": "176"}]}}}, "dtype": {"type": "DT_FLOAT"}}}, {"name": "separable_conv_2_normal_left1_11/depthwise_kernel", "op": "Const", "attr": {"value": {"tensor": {"dtype": "DT_FLOAT", "tensorShape": {"dim": [{"size": "5"}, {"size": "5"}, {"size": "176"}, {"size": "1"}]}}}, "dtype": {"type": "DT_FLOAT"}}}, {"name": "NASNet/separable_conv_1_bn_normal_left1_11/FusedBatchNorm/Offset", "op": "Const", "attr": {"value": {"tensor": {"dtype": "DT_FLOAT", "tensorShape": {"dim": [{"size": "176"}]}}}, "dtype": {"type": "DT_FLOAT"}}}, {"name": "NASNet/separable_conv_1_normal_left1_11/separable_conv2d/merged_input", "op": "Const", "attr": {"value": {"tensor": {"dtype": "DT_FLOAT", "tensorShape": {"dim": [{"size": "1"}, {"size": "1"}, {"size": "176"}, {"size": "176"}]}}}, "dtype": {"type": "DT_FLOAT"}}}, {"name": "separable_conv_1_normal_left1_11/depthwise_kernel", "op": "Const", "attr": {"dtype": {"type": "DT_FLOAT"}, "value": {"tensor": {"dtype": "DT_FLOAT", "tensorShape": {"dim": [{"size": "5"}, {"size": "5"}, {"size": "176"}, {"size": "1"}]}}}}}, {"name": "NASNet/adjust_bn_12/FusedBatchNorm/Offset", "op": "Const", "attr": {"value": {"tensor": {"dtype": "DT_FLOAT", "tensorShape": {"dim": [{"size": "176"}]}}}, "dtype": {"type": "DT_FLOAT"}}}, {"name": "NASNet/adjust_conv_projection_12/Conv2D/merged_input", "op": "Const", "attr": {"value": {"tensor": {"dtype": "DT_FLOAT", "tensorShape": {"dim": [{"size": "1"}, {"size": "1"}, {"size": "1056"}, {"size": "176"}]}}}, "dtype": {"type": "DT_FLOAT"}}}, {"name": "NASNet/separable_conv_2_bn_normal_right2_12/FusedBatchNorm/Offset", "op": "Const", "attr": {"value": {"tensor": {"dtype": "DT_FLOAT", "tensorShape": {"dim": [{"size": "176"}]}}}, "dtype": {"type": "DT_FLOAT"}}}, {"name": "NASNet/separable_conv_2_normal_right2_12/separable_conv2d/merged_input", "op": "Const", "attr": {"value": {"tensor": {"dtype": "DT_FLOAT", "tensorShape": {"dim": [{"size": "1"}, {"size": "1"}, {"size": "176"}, {"size": "176"}]}}}, "dtype": {"type": "DT_FLOAT"}}}, {"name": "separable_conv_2_normal_right2_12/depthwise_kernel", "op": "Const", "attr": {"value": {"tensor": {"dtype": "DT_FLOAT", "tensorShape": {"dim": [{"size": "3"}, {"size": "3"}, {"size": "176"}, {"size": "1"}]}}}, "dtype": {"type": "DT_FLOAT"}}}, {"name": "NASNet/separable_conv_1_bn_normal_right2_12/FusedBatchNorm/Offset", "op": "Const", "attr": {"value": {"tensor": {"dtype": "DT_FLOAT", "tensorShape": {"dim": [{"size": "176"}]}}}, "dtype": {"type": "DT_FLOAT"}}}, {"name": "NASNet/separable_conv_1_normal_right2_12/separable_conv2d/merged_input", "op": "Const", "attr": {"value": {"tensor": {"dtype": "DT_FLOAT", "tensorShape": {"dim": [{"size": "1"}, {"size": "1"}, {"size": "176"}, {"size": "176"}]}}}, "dtype": {"type": "DT_FLOAT"}}}, {"name": "separable_conv_1_normal_right2_12/depthwise_kernel", "op": "Const", "attr": {"dtype": {"type": "DT_FLOAT"}, "value": {"tensor": {"dtype": "DT_FLOAT", "tensorShape": {"dim": [{"size": "3"}, {"size": "3"}, {"size": "176"}, {"size": "1"}]}}}}}, {"name": "NASNet/separable_conv_2_bn_normal_left2_12/FusedBatchNorm/Offset", "op": "Const", "attr": {"value": {"tensor": {"dtype": "DT_FLOAT", "tensorShape": {"dim": [{"size": "176"}]}}}, "dtype": {"type": "DT_FLOAT"}}}, {"name": "NASNet/separable_conv_2_normal_left2_12/separable_conv2d/merged_input", "op": "Const", "attr": {"value": {"tensor": {"dtype": "DT_FLOAT", "tensorShape": {"dim": [{"size": "1"}, {"size": "1"}, {"size": "176"}, {"size": "176"}]}}}, "dtype": {"type": "DT_FLOAT"}}}, {"name": "separable_conv_2_normal_left2_12/depthwise_kernel", "op": "Const", "attr": {"value": {"tensor": {"dtype": "DT_FLOAT", "tensorShape": {"dim": [{"size": "5"}, {"size": "5"}, {"size": "176"}, {"size": "1"}]}}}, "dtype": {"type": "DT_FLOAT"}}}, {"name": "NASNet/separable_conv_1_bn_normal_left2_12/FusedBatchNorm/Offset", "op": "Const", "attr": {"value": {"tensor": {"dtype": "DT_FLOAT", "tensorShape": {"dim": [{"size": "176"}]}}}, "dtype": {"type": "DT_FLOAT"}}}, {"name": "NASNet/separable_conv_1_normal_left2_12/separable_conv2d/merged_input", "op": "Const", "attr": {"dtype": {"type": "DT_FLOAT"}, "value": {"tensor": {"dtype": "DT_FLOAT", "tensorShape": {"dim": [{"size": "1"}, {"size": "1"}, {"size": "176"}, {"size": "176"}]}}}}}, {"name": "separable_conv_1_normal_left2_12/depthwise_kernel", "op": "Const", "attr": {"value": {"tensor": {"dtype": "DT_FLOAT", "tensorShape": {"dim": [{"size": "5"}, {"size": "5"}, {"size": "176"}, {"size": "1"}]}}}, "dtype": {"type": "DT_FLOAT"}}}, {"name": "NASNet/separable_conv_2_bn_normal_right1_12/FusedBatchNorm/Offset", "op": "Const", "attr": {"value": {"tensor": {"dtype": "DT_FLOAT", "tensorShape": {"dim": [{"size": "176"}]}}}, "dtype": {"type": "DT_FLOAT"}}}, {"name": "NASNet/separable_conv_2_normal_right1_12/separable_conv2d/merged_input", "op": "Const", "attr": {"dtype": {"type": "DT_FLOAT"}, "value": {"tensor": {"dtype": "DT_FLOAT", "tensorShape": {"dim": [{"size": "1"}, {"size": "1"}, {"size": "176"}, {"size": "176"}]}}}}}, {"name": "separable_conv_2_normal_right1_12/depthwise_kernel", "op": "Const", "attr": {"value": {"tensor": {"dtype": "DT_FLOAT", "tensorShape": {"dim": [{"size": "3"}, {"size": "3"}, {"size": "176"}, {"size": "1"}]}}}, "dtype": {"type": "DT_FLOAT"}}}, {"name": "NASNet/separable_conv_1_bn_normal_right1_12/FusedBatchNorm/Offset", "op": "Const", "attr": {"value": {"tensor": {"dtype": "DT_FLOAT", "tensorShape": {"dim": [{"size": "176"}]}}}, "dtype": {"type": "DT_FLOAT"}}}, {"name": "NASNet/separable_conv_1_normal_right1_12/separable_conv2d/merged_input", "op": "Const", "attr": {"value": {"tensor": {"dtype": "DT_FLOAT", "tensorShape": {"dim": [{"size": "1"}, {"size": "1"}, {"size": "176"}, {"size": "176"}]}}}, "dtype": {"type": "DT_FLOAT"}}}, {"name": "separable_conv_1_normal_right1_12/depthwise_kernel", "op": "Const", "attr": {"value": {"tensor": {"dtype": "DT_FLOAT", "tensorShape": {"dim": [{"size": "3"}, {"size": "3"}, {"size": "176"}, {"size": "1"}]}}}, "dtype": {"type": "DT_FLOAT"}}}, {"name": "NASNet/separable_conv_2_bn_normal_left1_12/FusedBatchNorm/Offset", "op": "Const", "attr": {"value": {"tensor": {"dtype": "DT_FLOAT", "tensorShape": {"dim": [{"size": "176"}]}}}, "dtype": {"type": "DT_FLOAT"}}}, {"name": "NASNet/separable_conv_2_normal_left1_12/separable_conv2d/merged_input", "op": "Const", "attr": {"value": {"tensor": {"dtype": "DT_FLOAT", "tensorShape": {"dim": [{"size": "1"}, {"size": "1"}, {"size": "176"}, {"size": "176"}]}}}, "dtype": {"type": "DT_FLOAT"}}}, {"name": "separable_conv_2_normal_left1_12/depthwise_kernel", "op": "Const", "attr": {"value": {"tensor": {"dtype": "DT_FLOAT", "tensorShape": {"dim": [{"size": "5"}, {"size": "5"}, {"size": "176"}, {"size": "1"}]}}}, "dtype": {"type": "DT_FLOAT"}}}, {"name": "NASNet/separable_conv_1_bn_normal_left1_12/FusedBatchNorm/Offset", "op": "Const", "attr": {"value": {"tensor": {"dtype": "DT_FLOAT", "tensorShape": {"dim": [{"size": "176"}]}}}, "dtype": {"type": "DT_FLOAT"}}}, {"name": "NASNet/separable_conv_1_normal_left1_12/separable_conv2d/merged_input", "op": "Const", "attr": {"value": {"tensor": {"dtype": "DT_FLOAT", "tensorShape": {"dim": [{"size": "1"}, {"size": "1"}, {"size": "176"}, {"size": "176"}]}}}, "dtype": {"type": "DT_FLOAT"}}}, {"name": "separable_conv_1_normal_left1_12/depthwise_kernel", "op": "Const", "attr": {"value": {"tensor": {"dtype": "DT_FLOAT", "tensorShape": {"dim": [{"size": "5"}, {"size": "5"}, {"size": "176"}, {"size": "1"}]}}}, "dtype": {"type": "DT_FLOAT"}}}, {"name": "NASNet/stem_bn1/FusedBatchNorm/Mul", "op": "Conv2D", "input": ["NASNet_input", "NASNet/stem_conv1/Conv2D/merged_input"], "attr": {"T": {"type": "DT_FLOAT"}, "strides": {"list": {"i": ["1", "2", "2", "1"]}}, "data_format": {"s": "TkhXQw=="}, "explicit_paddings": {"list": {}}, "use_cudnn_on_gpu": {"b": true}, "padding": {"s": "VkFMSUQ="}, "dilations": {"list": {"i": ["1", "1", "1", "1"]}}}}, {"name": "NASNet/stem_bn1/FusedBatchNorm", "op": "Add", "input": ["NASNet/stem_bn1/FusedBatchNorm/Mul", "NASNet/stem_bn1/FusedBatchNorm/Offset"], "attr": {"T": {"type": "DT_FLOAT"}}}, {"name": "NASNet/adjust_relu_1_stem_2/Relu", "op": "Relu", "input": ["NASNet/stem_bn1/FusedBatchNorm"], "attr": {"T": {"type": "DT_FLOAT"}}}, {"name": "NASNet/zero_padding2d_8/Pad", "op": "Pad", "input": ["NASNet/adjust_relu_1_stem_2/Relu", "NASNet/zero_padding2d_11/Pad/paddings"], "attr": {"T": {"type": "DT_FLOAT"}, "Tpaddings": {"type": "DT_INT32"}}}, {"name": "NASNet/adjust_avg_pool_1_stem_2/AvgPool", "op": "AvgPool", "input": ["NASNet/adjust_relu_1_stem_2/Relu"], "attr": {"strides": {"list": {"i": ["1", "2", "2", "1"]}}, "data_format": {"s": "TkhXQw=="}, "ksize": {"list": {"i": ["1", "1", "1", "1"]}}, "padding": {"s": "VkFMSUQ="}, "T": {"type": "DT_FLOAT"}}}, {"name": "NASNet/separable_conv_1_pad_reduction_right2_stem_1/Pad", "op": "Pad", "input": ["NASNet/adjust_relu_1_stem_2/Relu", "NASNet/separable_conv_1_pad_reduction_right2_stem_1/Pad/paddings"], "attr": {"T": {"type": "DT_FLOAT"}, "Tpaddings": {"type": "DT_INT32"}}}, {"name": "NASNet/reduction_bn_1_stem_1/FusedBatchNorm/Mul", "op": "Conv2D", "input": ["NASNet/adjust_relu_1_stem_2/Relu", "NASNet/reduction_conv_1_stem_1/Conv2D/merged_input"], "attr": {"padding": {"s": "U0FNRQ=="}, "dilations": {"list": {"i": ["1", "1", "1", "1"]}}, "T": {"type": "DT_FLOAT"}, "strides": {"list": {"i": ["1", "1", "1", "1"]}}, "data_format": {"s": "TkhXQw=="}, "explicit_paddings": {"list": {}}, "use_cudnn_on_gpu": {"b": true}}}, {"name": "NASNet/separable_conv_1_pad_reduction_right3_stem_1/Pad", "op": "Pad", "input": ["NASNet/adjust_relu_1_stem_2/Relu", "NASNet/separable_conv_1_pad_reduction_right3_stem_1/Pad/paddings"], "attr": {"T": {"type": "DT_FLOAT"}, "Tpaddings": {"type": "DT_INT32"}}}, {"name": "NASNet/cropping2d_8/strided_slice", "op": "StridedSlice", "input": ["NASNet/zero_padding2d_8/Pad", "NASNet/cropping2d_11/strided_slice/stack", "NASNet/cropping2d_11/strided_slice/stack_1", "NASNet/cropping2d_11/strided_slice/stack_2"], "attr": {"shrink_axis_mask": {"i": "0"}, "ellipsis_mask": {"i": "0"}, "begin_mask": {"i": "9"}, "new_axis_mask": {"i": "0"}, "end_mask": {"i": "15"}, "Index": {"type": "DT_INT32"}, "T": {"type": "DT_FLOAT"}}}, {"name": "NASNet/adjust_conv_1_stem_2/Conv2D", "op": "Conv2D", "input": ["NASNet/adjust_avg_pool_1_stem_2/AvgPool", "adjust_conv_1_stem_2/kernel"], "attr": {"T": {"type": "DT_FLOAT"}, "data_format": {"s": "TkhXQw=="}, "strides": {"list": {"i": ["1", "1", "1", "1"]}}, "use_cudnn_on_gpu": {"b": true}, "explicit_paddings": {"list": {}}, "padding": {"s": "U0FNRQ=="}, "dilations": {"list": {"i": ["1", "1", "1", "1"]}}}}, {"name": "NASNet/separable_conv_1_reduction_right1_stem_1/separable_conv2d/depthwise", "op": "DepthwiseConv2dNative", "input": ["NASNet/separable_conv_1_pad_reduction_right2_stem_1/Pad", "separable_conv_1_reduction_right1_stem_1/depthwise_kernel"], "attr": {"T": {"type": "DT_FLOAT"}, "strides": {"list": {"i": ["1", "2", "2", "1"]}}, "data_format": {"s": "TkhXQw=="}, "dilations": {"list": {"i": ["1", "1", "1", "1"]}}, "padding": {"s": "VkFMSUQ="}}}, {"name": "NASNet/separable_conv_1_reduction_right2_stem_1/separable_conv2d/depthwise", "op": "DepthwiseConv2dNative", "input": ["NASNet/separable_conv_1_pad_reduction_right2_stem_1/Pad", "separable_conv_1_reduction_right2_stem_1/depthwise_kernel"], "attr": {"dilations": {"list": {"i": ["1", "1", "1", "1"]}}, "padding": {"s": "VkFMSUQ="}, "T": {"type": "DT_FLOAT"}, "data_format": {"s": "TkhXQw=="}, "strides": {"list": {"i": ["1", "2", "2", "1"]}}}}, {"name": "NASNet/reduction_bn_1_stem_1/FusedBatchNorm", "op": "Add", "input": ["NASNet/reduction_bn_1_stem_1/FusedBatchNorm/Mul", "NASNet/reduction_bn_1_stem_1/FusedBatchNorm/Offset"], "attr": {"T": {"type": "DT_FLOAT"}}}, {"name": "NASNet/separable_conv_1_reduction_right3_stem_1/separable_conv2d/depthwise", "op": "DepthwiseConv2dNative", "input": ["NASNet/separable_conv_1_pad_reduction_right3_stem_1/Pad", "separable_conv_1_reduction_right3_stem_1/depthwise_kernel"], "attr": {"dilations": {"list": {"i": ["1", "1", "1", "1"]}}, "padding": {"s": "VkFMSUQ="}, "T": {"type": "DT_FLOAT"}, "data_format": {"s": "TkhXQw=="}, "strides": {"list": {"i": ["1", "2", "2", "1"]}}}}, {"name": "NASNet/adjust_avg_pool_2_stem_2/AvgPool", "op": "AvgPool", "input": ["NASNet/cropping2d_8/strided_slice"], "attr": {"ksize": {"list": {"i": ["1", "1", "1", "1"]}}, "padding": {"s": "VkFMSUQ="}, "T": {"type": "DT_FLOAT"}, "data_format": {"s": "TkhXQw=="}, "strides": {"list": {"i": ["1", "2", "2", "1"]}}}}, {"name": "NASNet/separable_conv_1_bn_reduction_right1_stem_1/FusedBatchNorm/Mul", "op": "Conv2D", "input": ["NASNet/separable_conv_1_reduction_right1_stem_1/separable_conv2d/depthwise", "NASNet/separable_conv_1_reduction_right1_stem_1/separable_conv2d/merged_input"], "attr": {"dilations": {"list": {"i": ["1", "1", "1", "1"]}}, "T": {"type": "DT_FLOAT"}, "data_format": {"s": "TkhXQw=="}, "strides": {"list": {"i": ["1", "1", "1", "1"]}}, "use_cudnn_on_gpu": {"b": true}, "explicit_paddings": {"list": {}}, "padding": {"s": "VkFMSUQ="}}}, {"name": "NASNet/separable_conv_1_bn_reduction_right2_stem_1/FusedBatchNorm/Mul", "op": "Conv2D", "input": ["NASNet/separable_conv_1_reduction_right2_stem_1/separable_conv2d/depthwise", "NASNet/separable_conv_1_reduction_right2_stem_1/separable_conv2d/merged_input"], "attr": {"dilations": {"list": {"i": ["1", "1", "1", "1"]}}, "T": {"type": "DT_FLOAT"}, "strides": {"list": {"i": ["1", "1", "1", "1"]}}, "data_format": {"s": "TkhXQw=="}, "use_cudnn_on_gpu": {"b": true}, "explicit_paddings": {"list": {}}, "padding": {"s": "VkFMSUQ="}}}, {"name": "NASNet/activation_377/Relu", "op": "Relu", "input": ["NASNet/reduction_bn_1_stem_1/FusedBatchNorm"], "attr": {"T": {"type": "DT_FLOAT"}}}, {"name": "NASNet/reduction_pad_1_stem_1/Pad", "op": "Pad", "input": ["NASNet/reduction_bn_1_stem_1/FusedBatchNorm", "NASNet/reduction_pad_1_stem_1/Pad/paddings"], "attr": {"T": {"type": "DT_FLOAT"}, "Tpaddings": {"type": "DT_INT32"}}}, {"name": "NASNet/separable_conv_1_bn_reduction_right3_stem_1/FusedBatchNorm/Mul", "op": "Conv2D", "input": ["NASNet/separable_conv_1_reduction_right3_stem_1/separable_conv2d/depthwise", "NASNet/separable_conv_1_reduction_right3_stem_1/separable_conv2d/merged_input"], "attr": {"T": {"type": "DT_FLOAT"}, "data_format": {"s": "TkhXQw=="}, "strides": {"list": {"i": ["1", "1", "1", "1"]}}, "use_cudnn_on_gpu": {"b": true}, "explicit_paddings": {"list": {}}, "padding": {"s": "VkFMSUQ="}, "dilations": {"list": {"i": ["1", "1", "1", "1"]}}}}, {"name": "NASNet/adjust_conv_2_stem_2/Conv2D", "op": "Conv2D", "input": ["NASNet/adjust_avg_pool_2_stem_2/AvgPool", "adjust_conv_2_stem_2/kernel"], "attr": {"padding": {"s": "U0FNRQ=="}, "dilations": {"list": {"i": ["1", "1", "1", "1"]}}, "T": {"type": "DT_FLOAT"}, "data_format": {"s": "TkhXQw=="}, "strides": {"list": {"i": ["1", "1", "1", "1"]}}, "use_cudnn_on_gpu": {"b": true}, "explicit_paddings": {"list": {}}}}, {"name": "NASNet/separable_conv_1_bn_reduction_right1_stem_1/FusedBatchNorm", "op": "Add", "input": ["NASNet/separable_conv_1_bn_reduction_right1_stem_1/FusedBatchNorm/Mul", "NASNet/separable_conv_1_bn_reduction_right1_stem_1/FusedBatchNorm/Offset"], "attr": {"T": {"type": "DT_FLOAT"}}}, {"name": "NASNet/separable_conv_1_bn_reduction_right2_stem_1/FusedBatchNorm", "op": "Add", "input": ["NASNet/separable_conv_1_bn_reduction_right2_stem_1/FusedBatchNorm/Mul", "NASNet/separable_conv_1_bn_reduction_right2_stem_1/FusedBatchNorm/Offset"], "attr": {"T": {"type": "DT_FLOAT"}}}, {"name": "NASNet/separable_conv_1_pad_reduction_left1_stem_1/Pad", "op": "Pad", "input": ["NASNet/activation_377/Relu", "NASNet/separable_conv_1_pad_reduction_right3_stem_1/Pad/paddings"], "attr": {"T": {"type": "DT_FLOAT"}, "Tpaddings": {"type": "DT_INT32"}}}, {"name": "NASNet/reduction_left2_stem_1/MaxPool", "op": "MaxPool", "input": ["NASNet/reduction_pad_1_stem_1/Pad"], "attr": {"T": {"type": "DT_FLOAT"}, "strides": {"list": {"i": ["1", "2", "2", "1"]}}, "data_format": {"s": "TkhXQw=="}, "ksize": {"list": {"i": ["1", "3", "3", "1"]}}, "padding": {"s": "VkFMSUQ="}}}, {"name": "NASNet/reduction_left3_stem_1/AvgPool", "op": "AvgPool", "input": ["NASNet/reduction_pad_1_stem_1/Pad"], "attr": {"T": {"type": "DT_FLOAT"}, "strides": {"list": {"i": ["1", "2", "2", "1"]}}, "data_format": {"s": "TkhXQw=="}, "ksize": {"list": {"i": ["1", "3", "3", "1"]}}, "padding": {"s": "VkFMSUQ="}}}, {"name": "NASNet/separable_conv_1_bn_reduction_right3_stem_1/FusedBatchNorm", "op": "Add", "input": ["NASNet/separable_conv_1_bn_reduction_right3_stem_1/FusedBatchNorm/Mul", "NASNet/separable_conv_1_bn_reduction_right3_stem_1/FusedBatchNorm/Offset"], "attr": {"T": {"type": "DT_FLOAT"}}}, {"name": "NASNet/concatenate_8/concat", "op": "ConcatV2", "input": ["NASNet/adjust_conv_1_stem_2/Conv2D", "NASNet/adjust_conv_2_stem_2/Conv2D", "NASNet/concatenate_11/concat/axis"], "attr": {"Tidx": {"type": "DT_INT32"}, "T": {"type": "DT_FLOAT"}, "N": {"i": "2"}}}, {"name": "NASNet/activation_380/Relu", "op": "Relu", "input": ["NASNet/separable_conv_1_bn_reduction_right1_stem_1/FusedBatchNorm"], "attr": {"T": {"type": "DT_FLOAT"}}}, {"name": "NASNet/activation_382/Relu", "op": "Relu", "input": ["NASNet/separable_conv_1_bn_reduction_right2_stem_1/FusedBatchNorm"], "attr": {"T": {"type": "DT_FLOAT"}}}, {"name": "NASNet/separable_conv_1_reduction_left1_stem_1/separable_conv2d/depthwise", "op": "DepthwiseConv2dNative", "input": ["NASNet/separable_conv_1_pad_reduction_left1_stem_1/Pad", "separable_conv_1_reduction_left1_stem_1/depthwise_kernel"], "attr": {"dilations": {"list": {"i": ["1", "1", "1", "1"]}}, "padding": {"s": "VkFMSUQ="}, "T": {"type": "DT_FLOAT"}, "data_format": {"s": "TkhXQw=="}, "strides": {"list": {"i": ["1", "2", "2", "1"]}}}}, {"name": "NASNet/activation_384/Relu", "op": "Relu", "input": ["NASNet/separable_conv_1_bn_reduction_right3_stem_1/FusedBatchNorm"], "attr": {"T": {"type": "DT_FLOAT"}}}, {"name": "NASNet/adjust_bn_stem_2/FusedBatchNorm/Mul", "op": "Mul", "input": ["NASNet/adjust_bn_stem_2/FusedBatchNorm/Scaled", "NASNet/concatenate_8/concat"], "attr": {"T": {"type": "DT_FLOAT"}}}, {"name": "NASNet/separable_conv_2_reduction_right1_stem_1/separable_conv2d/depthwise", "op": "DepthwiseConv2dNative", "input": ["NASNet/activation_380/Relu", "separable_conv_2_reduction_right1_stem_1/depthwise_kernel"], "attr": {"T": {"type": "DT_FLOAT"}, "data_format": {"s": "TkhXQw=="}, "strides": {"list": {"i": ["1", "1", "1", "1"]}}, "dilations": {"list": {"i"…
conv2d/merged_input", "shape": [1, 1, 11, 11], "dtype": "float32"}, {"name": "separable_conv_2_reduction_left4_stem_1/depthwise_kernel", "shape": [3, 3, 11, 1], "dtype": "float32"}, {"name": "NASNet/separable_conv_1_bn_reduction_left4_stem_1/FusedBatchNorm/Offset", "shape": [11], "dtype": "float32"}, {"name": "NASNet/separable_conv_1_reduction_left4_stem_1/separable_conv2d/merged_input", "shape": [1, 1, 11, 11], "dtype": "float32"}, {"name": "separable_conv_1_reduction_left4_stem_1/depthwise_kernel", "shape": [3, 3, 11, 1], "dtype": "float32"}, {"name": "NASNet/separable_conv_2_bn_reduction_right1_stem_1/FusedBatchNorm/Offset", "shape": [11], "dtype": "float32"}, {"name": "NASNet/separable_conv_2_reduction_right1_stem_1/separable_conv2d/merged_input", "shape": [1, 1, 11, 11], "dtype": "float32"}, {"name": "separable_conv_2_reduction_right1_stem_1/depthwise_kernel", "shape": [7, 7, 11, 1], "dtype": "float32"}, {"name": "NASNet/separable_conv_1_bn_reduction_right1_stem_1/FusedBatchNorm/Offset", "shape": [11], "dtype": "float32"}, {"name": "NASNet/separable_conv_1_reduction_right1_stem_1/separable_conv2d/merged_input", "shape": [1, 1, 32, 11], "dtype": "float32"}, {"name": "separable_conv_1_reduction_right1_stem_1/depthwise_kernel", "shape": [7, 7, 32, 1], "dtype": "float32"}, {"name": "NASNet/separable_conv_1_pad_reduction_right2_stem_1/Pad/paddings", "shape": [4, 2], "dtype": "int32"}, {"name": "NASNet/separable_conv_2_bn_reduction_left1_stem_1/FusedBatchNorm/Offset", "shape": [11], "dtype": "float32"}, {"name": "NASNet/separable_conv_2_reduction_left1_stem_1/separable_conv2d/merged_input", "shape": [1, 1, 11, 11], "dtype": "float32"}, {"name": "separable_conv_2_reduction_left1_stem_1/depthwise_kernel", "shape": [5, 5, 11, 1], "dtype": "float32"}, {"name": "NASNet/separable_conv_1_bn_reduction_left1_stem_1/FusedBatchNorm/Offset", "shape": [11], "dtype": "float32"}, {"name": "NASNet/separable_conv_1_reduction_left1_stem_1/separable_conv2d/merged_input", "shape": [1, 1, 11, 11], "dtype": "float32"}, {"name": "separable_conv_1_reduction_left1_stem_1/depthwise_kernel", "shape": [5, 5, 11, 1], "dtype": "float32"}, {"name": "NASNet/separable_conv_1_pad_reduction_right3_stem_1/Pad/paddings", "shape": [4, 2], "dtype": "int32"}, {"name": "NASNet/reduction_bn_1_stem_1/FusedBatchNorm/Offset", "shape": [11], "dtype": "float32"}, {"name": "NASNet/reduction_conv_1_stem_1/Conv2D/merged_input", "shape": [1, 1, 32, 11], "dtype": "float32"}, {"name": "NASNet/reduction_pad_1_stem_1/Pad/paddings", "shape": [4, 2], "dtype": "int32"}, {"name": "NASNet/separable_conv_2_bn_reduction_right2_stem_1/FusedBatchNorm/Offset", "shape": [11], "dtype": "float32"}, {"name": "NASNet/separable_conv_2_reduction_right2_stem_1/separable_conv2d/merged_input", "shape": [1, 1, 11, 11], "dtype": "float32"}, {"name": "separable_conv_2_reduction_right2_stem_1/depthwise_kernel", "shape": [7, 7, 11, 1], "dtype": "float32"}, {"name": "NASNet/separable_conv_1_bn_reduction_right2_stem_1/FusedBatchNorm/Offset", "shape": [11], "dtype": "float32"}, {"name": "NASNet/separable_conv_1_reduction_right2_stem_1/separable_conv2d/merged_input", "shape": [1, 1, 32, 11], "dtype": "float32"}, {"name": "separable_conv_1_reduction_right2_stem_1/depthwise_kernel", "shape": [7, 7, 32, 1], "dtype": "float32"}, {"name": "NASNet/separable_conv_2_bn_reduction_right3_stem_1/FusedBatchNorm/Offset", "shape": [11], "dtype": "float32"}, {"name": "NASNet/separable_conv_2_reduction_right3_stem_1/separable_conv2d/merged_input", "shape": [1, 1, 11, 11], "dtype": "float32"}, {"name": "separable_conv_2_reduction_right3_stem_1/depthwise_kernel", "shape": [5, 5, 11, 1], "dtype": "float32"}, {"name": "NASNet/separable_conv_1_bn_reduction_right3_stem_1/FusedBatchNorm/Offset", "shape": [11], "dtype": "float32"}, {"name": "NASNet/separable_conv_1_reduction_right3_stem_1/separable_conv2d/merged_input", "shape": [1, 1, 32, 11], "dtype": "float32"}, {"name": "separable_conv_1_reduction_right3_stem_1/depthwise_kernel", "shape": [5, 5, 32, 1], "dtype": "float32"}, {"name": "NASNet/separable_conv_2_bn_reduction_right2_stem_2/FusedBatchNorm/Offset", "shape": [22], "dtype": "float32"}, {"name": "NASNet/separable_conv_2_reduction_right2_stem_2/separable_conv2d/merged_input", "shape": [1, 1, 22, 22], "dtype": "float32"}, {"name": "separable_conv_2_reduction_right2_stem_2/depthwise_kernel", "shape": [7, 7, 22, 1], "dtype": "float32"}, {"name": "NASNet/separable_conv_1_bn_reduction_right2_stem_2/FusedBatchNorm/Offset", "shape": [22], "dtype": "float32"}, {"name": "NASNet/separable_conv_1_reduction_right2_stem_2/separable_conv2d/merged_input", "shape": [1, 1, 22, 22], "dtype": "float32"}, {"name": "separable_conv_1_reduction_right2_stem_2/depthwise_kernel", "shape": [7, 7, 22, 1], "dtype": "float32"}, {"name": "NASNet/separable_conv_2_bn_reduction_right3_stem_2/FusedBatchNorm/Offset", "shape": [22], "dtype": "float32"}, {"name": "NASNet/separable_conv_2_reduction_right3_stem_2/separable_conv2d/merged_input", "shape": [1, 1, 22, 22], "dtype": "float32"}, {"name": "separable_conv_2_reduction_right3_stem_2/depthwise_kernel", "shape": [5, 5, 22, 1], "dtype": "float32"}, {"name": "NASNet/separable_conv_1_bn_reduction_right3_stem_2/FusedBatchNorm/Offset", "shape": [22], "dtype": "float32"}, {"name": "NASNet/separable_conv_1_reduction_right3_stem_2/separable_conv2d/merged_input", "shape": [1, 1, 22, 22], "dtype": "float32"}, {"name": "separable_conv_1_reduction_right3_stem_2/depthwise_kernel", "shape": [5, 5, 22, 1], "dtype": "float32"}, {"name": "NASNet/adjust_bn_0/FusedBatchNorm/Offset", "shape": [44], "dtype": "float32"}, {"name": "adjust_conv_2_0/kernel", "shape": [1, 1, 44, 22], "dtype": "float32"}, {"name": "adjust_conv_1_0/kernel", "shape": [1, 1, 44, 22], "dtype": "float32"}, {"name": "NASNet/adjust_bn_0/FusedBatchNorm/Scaled", "shape": [44], "dtype": "float32"}, {"name": "NASNet/separable_conv_2_bn_normal_right2_0/FusedBatchNorm/Offset", "shape": [44], "dtype": "float32"}, {"name": "NASNet/separable_conv_2_normal_right2_0/separable_conv2d/merged_input", "shape": [1, 1, 44, 44], "dtype": "float32"}, {"name": "separable_conv_2_normal_right2_0/depthwise_kernel", "shape": [3, 3, 44, 1], "dtype": "float32"}, {"name": "NASNet/separable_conv_1_bn_normal_right2_0/FusedBatchNorm/Offset", "shape": [44], "dtype": "float32"}, {"name": "NASNet/separable_conv_1_normal_right2_0/separable_conv2d/merged_input", "shape": [1, 1, 44, 44], "dtype": "float32"}, {"name": "separable_conv_1_normal_right2_0/depthwise_kernel", "shape": [3, 3, 44, 1], "dtype": "float32"}, {"name": "NASNet/separable_conv_2_bn_normal_left2_0/FusedBatchNorm/Offset", "shape": [44], "dtype": "float32"}, {"name": "NASNet/separable_conv_2_normal_left2_0/separable_conv2d/merged_input", "shape": [1, 1, 44, 44], "dtype": "float32"}, {"name": "separable_conv_2_normal_left2_0/depthwise_kernel", "shape": [5, 5, 44, 1], "dtype": "float32"}, {"name": "NASNet/separable_conv_1_bn_normal_left2_0/FusedBatchNorm/Offset", "shape": [44], "dtype": "float32"}, {"name": "NASNet/separable_conv_1_normal_left2_0/separable_conv2d/merged_input", "shape": [1, 1, 44, 44], "dtype": "float32"}, {"name": "separable_conv_1_normal_left2_0/depthwise_kernel", "shape": [5, 5, 44, 1], "dtype": "float32"}, {"name": "NASNet/separable_conv_2_bn_normal_right1_0/FusedBatchNorm/Offset", "shape": [44], "dtype": "float32"}, {"name": "NASNet/separable_conv_2_normal_right1_0/separable_conv2d/merged_input", "shape": [1, 1, 44, 44], "dtype": "float32"}, {"name": "separable_conv_2_normal_right1_0/depthwise_kernel", "shape": [3, 3, 44, 1], "dtype": "float32"}, {"name": "NASNet/separable_conv_1_bn_normal_right1_0/FusedBatchNorm/Offset", "shape": [44], "dtype": "float32"}, {"name": "NASNet/separable_conv_1_normal_right1_0/separable_conv2d/merged_input", "shape": [1, 1, 44, 44], "dtype": "float32"}, {"name": "separable_conv_1_normal_right1_0/depthwise_kernel", "shape": [3, 3, 44, 1], "dtype": "float32"}, {"name": "NASNet/separable_conv_2_bn_normal_left1_0/FusedBatchNorm/Offset", "shape": [44], "dtype": "float32"}, {"name": "NASNet/separable_conv_2_normal_left1_0/separable_conv2d/merged_input", "shape": [1, 1, 44, 44], "dtype": "float32"}, {"name": "separable_conv_2_normal_left1_0/depthwise_kernel", "shape": [5, 5, 44, 1], "dtype": "float32"}, {"name": "NASNet/separable_conv_1_bn_normal_left1_0/FusedBatchNorm/Offset", "shape": [44], "dtype": "float32"}, {"name": "NASNet/separable_conv_1_normal_left1_0/separable_conv2d/merged_input", "shape": [1, 1, 44, 44], "dtype": "float32"}, {"name": "separable_conv_1_normal_left1_0/depthwise_kernel", "shape": [5, 5, 44, 1], "dtype": "float32"}, {"name": "NASNet/adjust_bn_1/FusedBatchNorm/Offset", "shape": [44], "dtype": "float32"}, {"name": "NASNet/adjust_conv_projection_1/Conv2D/merged_input", "shape": [1, 1, 88, 44], "dtype": "float32"}, {"name": "NASNet/separable_conv_2_bn_normal_right2_1/FusedBatchNorm/Offset", "shape": [44], "dtype": "float32"}, {"name": "NASNet/separable_conv_2_normal_right2_1/separable_conv2d/merged_input", "shape": [1, 1, 44, 44], "dtype": "float32"}, {"name": "separable_conv_2_normal_right2_1/depthwise_kernel", "shape": [3, 3, 44, 1], "dtype": "float32"}, {"name": "NASNet/separable_conv_1_bn_normal_right2_1/FusedBatchNorm/Offset", "shape": [44], "dtype": "float32"}, {"name": "NASNet/separable_conv_1_normal_right2_1/separable_conv2d/merged_input", "shape": [1, 1, 44, 44], "dtype": "float32"}, {"name": "separable_conv_1_normal_right2_1/depthwise_kernel", "shape": [3, 3, 44, 1], "dtype": "float32"}, {"name": "NASNet/separable_conv_2_bn_normal_left2_1/FusedBatchNorm/Offset", "shape": [44], "dtype": "float32"}, {"name": "NASNet/separable_conv_2_normal_left2_1/separable_conv2d/merged_input", "shape": [1, 1, 44, 44], "dtype": "float32"}, {"name": "separable_conv_2_normal_left2_1/depthwise_kernel", "shape": [5, 5, 44, 1], "dtype": "float32"}, {"name": "NASNet/separable_conv_1_bn_normal_left2_1/FusedBatchNorm/Offset", "shape": [44], "dtype": "float32"}, {"name": "NASNet/separable_conv_1_normal_left2_1/separable_conv2d/merged_input", "shape": [1, 1, 44, 44], "dtype": "float32"}, {"name": "separable_conv_1_normal_left2_1/depthwise_kernel", "shape": [5, 5, 44, 1], "dtype": "float32"}, {"name": "NASNet/separable_conv_2_bn_normal_right1_1/FusedBatchNorm/Offset", "shape": [44], "dtype": "float32"}, {"name": "NASNet/separable_conv_2_normal_right1_1/separable_conv2d/merged_input", "shape": [1, 1, 44, 44], "dtype": "float32"}, {"name": "separable_conv_2_normal_right1_1/depthwise_kernel", "shape": [3, 3, 44, 1], "dtype": "float32"}, {"name": "NASNet/separable_conv_1_bn_normal_right1_1/FusedBatchNorm/Offset", "shape": [44], "dtype": "float32"}, {"name": "NASNet/separable_conv_1_normal_right1_1/separable_conv2d/merged_input", "shape": [1, 1, 44, 44], "dtype": "float32"}, {"name": "separable_conv_1_normal_right1_1/depthwise_kernel", "shape": [3, 3, 44, 1], "dtype": "float32"}, {"name": "NASNet/separable_conv_2_bn_normal_left1_1/FusedBatchNorm/Offset", "shape": [44], "dtype": "float32"}, {"name": "NASNet/separable_conv_2_normal_left1_1/separable_conv2d/merged_input", "shape": [1, 1, 44, 44], "dtype": "float32"}, {"name": "separable_conv_2_normal_left1_1/depthwise_kernel", "shape": [5, 5, 44, 1], "dtype": "float32"}, {"name": "NASNet/separable_conv_1_bn_normal_left1_1/FusedBatchNorm/Offset", "shape": [44], "dtype": "float32"}, {"name": "NASNet/separable_conv_1_normal_left1_1/separable_conv2d/merged_input", "shape": [1, 1, 44, 44], "dtype": "float32"}, {"name": "separable_conv_1_normal_left1_1/depthwise_kernel", "shape": [5, 5, 44, 1], "dtype": "float32"}, {"name": "NASNet/adjust_bn_2/FusedBatchNorm/Offset", "shape": [44], "dtype": "float32"}, {"name": "NASNet/adjust_conv_projection_2/Conv2D/merged_input", "shape": [1, 1, 264, 44], "dtype": "float32"}, {"name": "NASNet/separable_conv_2_bn_normal_right2_2/FusedBatchNorm/Offset", "shape": [44], "dtype": "float32"}, {"name": "NASNet/separable_conv_2_normal_right2_2/separable_conv2d/merged_input", "shape": [1, 1, 44, 44], "dtype": "float32"}, {"name": "separable_conv_2_normal_right2_2/depthwise_kernel", "shape": [3, 3, 44, 1], "dtype": "float32"}, {"name": "NASNet/separable_conv_1_bn_normal_right2_2/FusedBatchNorm/Offset", "shape": [44], "dtype": "float32"}, {"name": "NASNet/separable_conv_1_normal_right2_2/separable_conv2d/merged_input", "shape": [1, 1, 44, 44], "dtype": "float32"}, {"name": "separable_conv_1_normal_right2_2/depthwise_kernel", "shape": [3, 3, 44, 1], "dtype": "float32"}, {"name": "NASNet/separable_conv_2_bn_normal_left2_2/FusedBatchNorm/Offset", "shape": [44], "dtype": "float32"}, {"name": "NASNet/separable_conv_2_normal_left2_2/separable_conv2d/merged_input", "shape": [1, 1, 44, 44], "dtype": "float32"}, {"name": "separable_conv_2_normal_left2_2/depthwise_kernel", "shape": [5, 5, 44, 1], "dtype": "float32"}, {"name": "NASNet/separable_conv_1_bn_normal_left2_2/FusedBatchNorm/Offset", "shape": [44], "dtype": "float32"}, {"name": "NASNet/separable_conv_1_normal_left2_2/separable_conv2d/merged_input", "shape": [1, 1, 44, 44], "dtype": "float32"}, {"name": "separable_conv_1_normal_left2_2/depthwise_kernel", "shape": [5, 5, 44, 1], "dtype": "float32"}, {"name": "NASNet/separable_conv_2_bn_normal_right1_2/FusedBatchNorm/Offset", "shape": [44], "dtype": "float32"}, {"name": "NASNet/separable_conv_2_normal_right1_2/separable_conv2d/merged_input", "shape": [1, 1, 44, 44], "dtype": "float32"}, {"name": "separable_conv_2_normal_right1_2/depthwise_kernel", "shape": [3, 3, 44, 1], "dtype": "float32"}, {"name": "NASNet/separable_conv_1_bn_normal_right1_2/FusedBatchNorm/Offset", "shape": [44], "dtype": "float32"}, {"name": "NASNet/separable_conv_1_normal_right1_2/separable_conv2d/merged_input", "shape": [1, 1, 44, 44], "dtype": "float32"}, {"name": "separable_conv_1_normal_right1_2/depthwise_kernel", "shape": [3, 3, 44, 1], "dtype": "float32"}, {"name": "NASNet/separable_conv_2_bn_normal_left1_2/FusedBatchNorm/Offset", "shape": [44], "dtype": "float32"}, {"name": "NASNet/separable_conv_2_normal_left1_2/separable_conv2d/merged_input", "shape": [1, 1, 44, 44], "dtype": "float32"}, {"name": "separable_conv_2_normal_left1_2/depthwise_kernel", "shape": [5, 5, 44, 1], "dtype": "float32"}, {"name": "NASNet/separable_conv_1_bn_normal_left1_2/FusedBatchNorm/Offset", "shape": [44], "dtype": "float32"}, {"name": "NASNet/separable_conv_1_normal_left1_2/separable_conv2d/merged_input", "shape": [1, 1, 44, 44], "dtype": "float32"}, {"name": "separable_conv_1_normal_left1_2/depthwise_kernel", "shape": [5, 5, 44, 1], "dtype": "float32"}, {"name": "NASNet/separable_conv_2_bn_reduction_left1_reduce_4/FusedBatchNorm/Offset", "shape": [88], "dtype": "float32"}, {"name": "NASNet/separable_conv_2_reduction_left1_reduce_4/separable_conv2d/merged_input", "shape": [1, 1, 88, 88], "dtype": "float32"}, {"name": "separable_conv_2_reduction_left1_reduce_4/depthwise_kernel", "shape": [5, 5, 88, 1], "dtype": "float32"}, {"name": "NASNet/separable_conv_1_bn_reduction_left1_reduce_4/FusedBatchNorm/Offset", "shape": [88], "dtype": "float32"}, {"name": "NASNet/separable_conv_1_reduction_left1_reduce_4/separable_conv2d/merged_input", "shape": [1, 1, 88, 88], "dtype": "float32"}, {"name": "separable_conv_1_reduction_left1_reduce_4/depthwise_kernel", "shape": [5, 5, 88, 1], "dtype": "float32"}, {"name": "NASNet/reduction_bn_1_reduce_4/FusedBatchNorm/Offset", "shape": [88], "dtype": "float32"}, {"name": "NASNet/reduction_conv_1_reduce_4/Conv2D/merged_input", "shape": [1, 1, 264, 88], "dtype": "float32"}, {"name": "NASNet/separable_conv_2_bn_normal_left5_3/FusedBatchNorm/Offset", "shape": [44], "dtype": "float32"}, {"name": "NASNet/separable_conv_2_normal_left5_3/separable_conv2d/merged_input", "shape": [1, 1, 44, 44], "dtype": "float32"}, {"name": "separable_conv_2_normal_left5_3/depthwise_kernel", "shape": [3, 3, 44, 1], "dtype": "float32"}, {"name": "NASNet/separable_conv_1_bn_normal_left5_3/FusedBatchNorm/Offset", "shape": [44], "dtype": "float32"}, {"name": "NASNet/separable_conv_1_normal_left5_3/separable_conv2d/merged_input", "shape": [1, 1, 44, 44], "dtype": "float32"}, {"name": "separable_conv_1_normal_left5_3/depthwise_kernel", "shape": [3, 3, 44, 1], "dtype": "float32"}, {"name": "NASNet/normal_bn_1_3/FusedBatchNorm/Offset", "shape": [44], "dtype": "float32"}, {"name": "NASNet/normal_conv_1_3/Conv2D/merged_input", "shape": [1, 1, 264, 44], "dtype": "float32"}, {"name": "NASNet/adjust_bn_3/FusedBatchNorm/Offset", "shape": [44], "dtype": "float32"}, {"name": "NASNet/adjust_conv_projection_3/Conv2D/merged_input", "shape": [1, 1, 264, 44], "dtype": "float32"}, {"name": "NASNet/separable_conv_2_bn_normal_right2_3/FusedBatchNorm/Offset", "shape": [44], "dtype": "float32"}, {"name": "NASNet/separable_conv_2_normal_right2_3/separable_conv2d/merged_input", "shape": [1, 1, 44, 44], "dtype": "float32"}, {"name": "separable_conv_2_normal_right2_3/depthwise_kernel", "shape": [3, 3, 44, 1], "dtype": "float32"}, {"name": "NASNet/separable_conv_1_bn_normal_right2_3/FusedBatchNorm/Offset", "shape": [44], "dtype": "float32"}, {"name": "NASNet/separable_conv_1_normal_right2_3/separable_conv2d/merged_input", "shape": [1, 1, 44, 44], "dtype": "float32"}, {"name": "separable_conv_1_normal_right2_3/depthwise_kernel", "shape": [3, 3, 44, 1], "dtype": "float32"}, {"name": "NASNet/separable_conv_2_bn_normal_left2_3/FusedBatchNorm/Offset", "shape": [44], "dtype": "float32"}, {"name": "NASNet/separable_conv_2_normal_left2_3/separable_conv2d/merged_input", "shape": [1, 1, 44, 44], "dtype": "float32"}, {"name": "separable_conv_2_normal_left2_3/depthwise_kernel", "shape": [5, 5, 44, 1], "dtype": "float32"}, {"name": "NASNet/separable_conv_1_bn_normal_left2_3/FusedBatchNorm/Offset", "shape": [44], "dtype": "float32"}, {"name": "NASNet/separable_conv_1_normal_left2_3/separable_conv2d/merged_input", "shape": [1, 1, 44, 44], "dtype": "float32"}, {"name": "separable_conv_1_normal_left2_3/depthwise_kernel", "shape": [5, 5, 44, 1], "dtype": "float32"}, {"name": "NASNet/separable_conv_2_bn_normal_right1_3/FusedBatchNorm/Offset", "shape": [44], "dtype": "float32"}, {"name": "NASNet/separable_conv_2_normal_right1_3/separable_conv2d/merged_input", "shape": [1, 1, 44, 44], "dtype": "float32"}, {"name": "separable_conv_2_normal_right1_3/depthwise_kernel", "shape": [3, 3, 44, 1], "dtype": "float32"}, {"name": "NASNet/separable_conv_1_bn_normal_right1_3/FusedBatchNorm/Offset", "shape": [44], "dtype": "float32"}, {"name": "NASNet/separable_conv_1_normal_right1_3/separable_conv2d/merged_input", "shape": [1, 1, 44, 44], "dtype": "float32"}, {"name": "separable_conv_1_normal_right1_3/depthwise_kernel", "shape": [3, 3, 44, 1], "dtype": "float32"}, {"name": "NASNet/separable_conv_2_bn_normal_left1_3/FusedBatchNorm/Offset", "shape": [44], "dtype": "float32"}, {"name": "NASNet/separable_conv_2_normal_left1_3/separable_conv2d/merged_input", "shape": [1, 1, 44, 44], "dtype": "float32"}, {"name": "separable_conv_2_normal_left1_3/depthwise_kernel", "shape": [5, 5, 44, 1], "dtype": "float32"}, {"name": "NASNet/separable_conv_1_bn_normal_left1_3/FusedBatchNorm/Offset", "shape": [44], "dtype": "float32"}, {"name": "NASNet/separable_conv_1_normal_left1_3/separable_conv2d/merged_input", "shape": [1, 1, 44, 44], "dtype": "float32"}, {"name": "separable_conv_1_normal_left1_3/depthwise_kernel", "shape": [5, 5, 44, 1], "dtype": "float32"}, {"name": "NASNet/separable_conv_2_bn_reduction_right2_reduce_4/FusedBatchNorm/Offset", "shape": [88], "dtype": "float32"}, {"name": "NASNet/separable_conv_2_reduction_right2_reduce_4/separable_conv2d/merged_input", "shape": [1, 1, 88, 88], "dtype": "float32"}, {"name": "separable_conv_2_reduction_right2_reduce_4/depthwise_kernel", "shape": [7, 7, 88, 1], "dtype": "float32"}, {"name": "NASNet/separable_conv_1_bn_reduction_right2_reduce_4/FusedBatchNorm/Offset", "shape": [88], "dtype": "float32"}, {"name": "NASNet/separable_conv_1_reduction_right2_reduce_4/separable_conv2d/merged_input", "shape": [1, 1, 88, 88], "dtype": "float32"}, {"name": "separable_conv_1_reduction_right2_reduce_4/depthwise_kernel", "shape": [7, 7, 88, 1], "dtype": "float32"}, {"name": "NASNet/separable_conv_2_bn_reduction_right3_reduce_4/FusedBatchNorm/Offset", "shape": [88], "dtype": "float32"}, {"name": "NASNet/separable_conv_2_reduction_right3_reduce_4/separable_conv2d/merged_input", "shape": [1, 1, 88, 88], "dtype": "float32"}, {"name": "separable_conv_2_reduction_right3_reduce_4/depthwise_kernel", "shape": [5, 5, 88, 1], "dtype": "float32"}, {"name": "NASNet/separable_conv_1_bn_reduction_right3_reduce_4/FusedBatchNorm/Offset", "shape": [88], "dtype": "float32"}, {"name": "NASNet/separable_conv_1_reduction_right3_reduce_4/separable_conv2d/merged_input", "shape": [1, 1, 88, 88], "dtype": "float32"}, {"name": "separable_conv_1_reduction_right3_reduce_4/depthwise_kernel", "shape": [5, 5, 88, 1], "dtype": "float32"}, {"name": "NASNet/adjust_bn_5/FusedBatchNorm/Offset", "shape": [88], "dtype": "float32"}, {"name": "adjust_conv_2_5/kernel", "shape": [1, 1, 264, 44], "dtype": "float32"}, {"name": "adjust_conv_1_5/kernel", "shape": [1, 1, 264, 44], "dtype": "float32"}, {"name": "NASNet/adjust_bn_5/FusedBatchNorm/Scaled", "shape": [88], "dtype": "float32"}, {"name": "NASNet/separable_conv_2_bn_normal_right2_5/FusedBatchNorm/Offset", "shape": [88], "dtype": "float32"}, {"name": "NASNet/separable_conv_2_normal_right2_5/separable_conv2d/merged_input", "shape": [1, 1, 88, 88], "dtype": "float32"}, {"name": "separable_conv_2_normal_right2_5/depthwise_kernel", "shape": [3, 3, 88, 1], "dtype": "float32"}, {"name": "NASNet/separable_conv_1_bn_normal_right2_5/FusedBatchNorm/Offset", "shape": [88], "dtype": "float32"}, {"name": "NASNet/separable_conv_1_normal_right2_5/separable_conv2d/merged_input", "shape": [1, 1, 88, 88], "dtype": "float32"}, {"name": "separable_conv_1_normal_right2_5/depthwise_kernel", "shape": [3, 3, 88, 1], "dtype": "float32"}, {"name": "NASNet/separable_conv_2_bn_normal_left2_5/FusedBatchNorm/Offset", "shape": [88], "dtype": "float32"}, {"name": "NASNet/separable_conv_2_normal_left2_5/separable_conv2d/merged_input", "shape": [1, 1, 88, 88], "dtype": "float32"}, {"name": "separable_conv_2_normal_left2_5/depthwise_kernel", "shape": [5, 5, 88, 1], "dtype": "float32"}, {"name": "NASNet/separable_conv_1_bn_normal_left2_5/FusedBatchNorm/Offset", "shape": [88], "dtype": "float32"}, {"name": "NASNet/separable_conv_1_normal_left2_5/separable_conv2d/merged_input", "shape": [1, 1, 88, 88], "dtype": "float32"}, {"name": "separable_conv_1_normal_left2_5/depthwise_kernel", "shape": [5, 5, 88, 1], "dtype": "float32"}, {"name": "NASNet/separable_conv_2_bn_normal_right1_5/FusedBatchNorm/Offset", "shape": [88], "dtype": "float32"}, {"name": "NASNet/separable_conv_2_normal_right1_5/separable_conv2d/merged_input", "shape": [1, 1, 88, 88], "dtype": "float32"}, {"name": "separable_conv_2_normal_right1_5/depthwise_kernel", "shape": [3, 3, 88, 1], "dtype": "float32"}, {"name": "NASNet/separable_conv_1_bn_normal_right1_5/FusedBatchNorm/Offset", "shape": [88], "dtype": "float32"}, {"name": "NASNet/separable_conv_1_normal_right1_5/separable_conv2d/merged_input", "shape": [1, 1, 88, 88], "dtype": "float32"}, {"name": "separable_conv_1_normal_right1_5/depthwise_kernel", "shape": [3, 3, 88, 1], "dtype": "float32"}, {"name": "NASNet/separable_conv_2_bn_normal_left1_5/FusedBatchNorm/Offset", "shape": [88], "dtype": "float32"}, {"name": "NASNet/separable_conv_2_normal_left1_5/separable_conv2d/merged_input", "shape": [1, 1, 88, 88], "dtype": "float32"}, {"name": "separable_conv_2_normal_left1_5/depthwise_kernel", "shape": [5, 5, 88, 1], "dtype": "float32"}, {"name": "NASNet/separable_conv_1_bn_normal_left1_5/FusedBatchNorm/Offset", "shape": [88], "dtype": "float32"}, {"name": "NASNet/separable_conv_1_normal_left1_5/separable_conv2d/merged_input", "shape": [1, 1, 88, 88], "dtype": "float32"}, {"name": "separable_conv_1_normal_left1_5/depthwise_kernel", "shape": [5, 5, 88, 1], "dtype": "float32"}, {"name": "NASNet/adjust_bn_6/FusedBatchNorm/Offset", "shape": [88], "dtype": "float32"}, {"name": "NASNet/adjust_conv_projection_6/Conv2D/merged_input", "shape": [1, 1, 352, 88], "dtype": "float32"}, {"name": "NASNet/separable_conv_2_bn_normal_right2_6/FusedBatchNorm/Offset", "shape": [88], "dtype": "float32"}, {"name": "NASNet/separable_conv_2_normal_right2_6/separable_conv2d/merged_input", "shape": [1, 1, 88, 88], "dtype": "float32"}, {"name": "separable_conv_2_normal_right2_6/depthwise_kernel", "shape": [3, 3, 88, 1], "dtype": "float32"}, {"name": "NASNet/separable_conv_1_bn_normal_right2_6/FusedBatchNorm/Offset", "shape": [88], "dtype": "float32"}, {"name": "NASNet/separable_conv_1_normal_right2_6/separable_conv2d/merged_input", "shape": [1, 1, 88, 88], "dtype": "float32"}, {"name": "separable_conv_1_normal_right2_6/depthwise_kernel", "shape": [3, 3, 88, 1], "dtype": "float32"}, {"name": "NASNet/separable_conv_2_bn_normal_left2_6/FusedBatchNorm/Offset", "shape": [88], "dtype": "float32"}, {"name": "NASNet/separable_conv_2_normal_left2_6/separable_conv2d/merged_input", "shape": [1, 1, 88, 88], "dtype": "float32"}, {"name": "separable_conv_2_normal_left2_6/depthwise_kernel", "shape": [5, 5, 88, 1], "dtype": "float32"}, {"name": "NASNet/separable_conv_1_bn_normal_left2_6/FusedBatchNorm/Offset", "shape": [88], "dtype": "float32"}, {"name": "NASNet/separable_conv_1_normal_left2_6/separable_conv2d/merged_input", "shape": [1, 1, 88, 88], "dtype": "float32"}, {"name": "separable_conv_1_normal_left2_6/depthwise_kernel", "shape": [5, 5, 88, 1], "dtype": "float32"}, {"name": "NASNet/separable_conv_2_bn_normal_right1_6/FusedBatchNorm/Offset", "shape": [88], "dtype": "float32"}, {"name": "NASNet/separable_conv_2_normal_right1_6/separable_conv2d/merged_input", "shape": [1, 1, 88, 88], "dtype": "float32"}, {"name": "separable_conv_2_normal_right1_6/depthwise_kernel", "shape": [3, 3, 88, 1], "dtype": "float32"}, {"name": "NASNet/separable_conv_1_bn_normal_right1_6/FusedBatchNorm/Offset", "shape": [88], "dtype": "float32"}, {"name": "NASNet/separable_conv_1_normal_right1_6/separable_conv2d/merged_input", "shape": [1, 1, 88, 88], "dtype": "float32"}, {"name": "separable_conv_1_normal_right1_6/depthwise_kernel", "shape": [3, 3, 88, 1], "dtype": "float32"}, {"name": "NASNet/separable_conv_2_bn_normal_left1_6/FusedBatchNorm/Offset", "shape": [88], "dtype": "float32"}, {"name": "NASNet/separable_conv_2_normal_left1_6/separable_conv2d/merged_input", "shape": [1, 1, 88, 88], "dtype": "float32"}, {"name": "separable_conv_2_normal_left1_6/depthwise_kernel", "shape": [5, 5, 88, 1], "dtype": "float32"}, {"name": "NASNet/separable_conv_1_bn_normal_left1_6/FusedBatchNorm/Offset", "shape": [88], "dtype": "float32"}, {"name": "NASNet/separable_conv_1_normal_left1_6/separable_conv2d/merged_input", "shape": [1, 1, 88, 88], "dtype": "float32"}, {"name": "separable_conv_1_normal_left1_6/depthwise_kernel", "shape": [5, 5, 88, 1], "dtype": "float32"}, {"name": "NASNet/adjust_bn_7/FusedBatchNorm/Offset", "shape": [88], "dtype": "float32"}, {"name": "NASNet/adjust_conv_projection_7/Conv2D/merged_input", "shape": [1, 1, 528, 88], "dtype": "float32"}, {"name": "NASNet/separable_conv_2_bn_normal_right2_7/FusedBatchNorm/Offset", "shape": [88], "dtype": "float32"}, {"name": "NASNet/separable_conv_2_normal_right2_7/separable_conv2d/merged_input", "shape": [1, 1, 88, 88], "dtype": "float32"}, {"name": "separable_conv_2_normal_right2_7/depthwise_kernel", "shape": [3, 3, 88, 1], "dtype": "float32"}, {"name": "NASNet/separable_conv_1_bn_normal_right2_7/FusedBatchNorm/Offset", "shape": [88], "dtype": "float32"}, {"name": "NASNet/separable_conv_1_normal_right2_7/separable_conv2d/merged_input", "shape": [1, 1, 88, 88], "dtype": "float32"}, {"name": "separable_conv_1_normal_right2_7/depthwise_kernel", "shape": [3, 3, 88, 1], "dtype": "float32"}, {"name": "NASNet/separable_conv_2_bn_normal_left2_7/FusedBatchNorm/Offset", "shape": [88], "dtype": "float32"}, {"name": "NASNet/separable_conv_2_normal_left2_7/separable_conv2d/merged_input", "shape": [1, 1, 88, 88], "dtype": "float32"}, {"name": "separable_conv_2_normal_left2_7/depthwise_kernel", "shape": [5, 5, 88, 1], "dtype": "float32"}, {"name": "NASNet/separable_conv_1_bn_normal_left2_7/FusedBatchNorm/Offset", "shape": [88], "dtype": "float32"}, {"name": "NASNet/separable_conv_1_normal_left2_7/separable_conv2d/merged_input", "shape": [1, 1, 88, 88], "dtype": "float32"}, {"name": "separable_conv_1_normal_left2_7/depthwise_kernel", "shape": [5, 5, 88, 1], "dtype": "float32"}, {"name": "NASNet/separable_conv_2_bn_normal_right1_7/FusedBatchNorm/Offset", "shape": [88], "dtype": "float32"}, {"name": "NASNet/separable_conv_2_normal_right1_7/separable_conv2d/merged_input", "shape": [1, 1, 88, 88], "dtype": "float32"}, {"name": "separable_conv_2_normal_right1_7/depthwise_kernel", "shape": [3, 3, 88, 1], "dtype": "float32"}, {"name": "NASNet/separable_conv_1_bn_normal_right1_7/FusedBatchNorm/Offset", "shape": [88], "dtype": "float32"}, {"name": "NASNet/separable_conv_1_normal_right1_7/separable_conv2d/merged_input", "shape": [1, 1, 88, 88], "dtype": "float32"}, {"name": "separable_conv_1_normal_right1_7/depthwise_kernel", "shape": [3, 3, 88, 1], "dtype": "float32"}, {"name": "NASNet/separable_conv_2_bn_normal_left1_7/FusedBatchNorm/Offset", "shape": [88], "dtype": "float32"}, {"name": "NASNet/separable_conv_2_normal_left1_7/separable_conv2d/merged_input", "shape": [1, 1, 88, 88], "dtype": "float32"}, {"name": "separable_conv_2_normal_left1_7/depthwise_kernel", "shape": [5, 5, 88, 1], "dtype": "float32"}, {"name": "NASNet/separable_conv_1_bn_normal_left1_7/FusedBatchNorm/Offset", "shape": [88], "dtype": "float32"}, {"name": "NASNet/separable_conv_1_normal_left1_7/separable_conv2d/merged_input", "shape": [1, 1, 88, 88], "dtype": "float32"}, {"name": "separable_conv_1_normal_left1_7/depthwise_kernel", "shape": [5, 5, 88, 1], "dtype": "float32"}, {"name": "NASNet/separable_conv_2_bn_reduction_left1_reduce_8/FusedBatchNorm/Offset", "shape": [176], "dtype": "float32"}, {"name": "NASNet/separable_conv_2_reduction_left1_reduce_8/separable_conv2d/merged_input", "shape": [1, 1, 176, 176], "dtype": "float32"}, {"name": "separable_conv_2_reduction_left1_reduce_8/depthwise_kernel", "shape": [5, 5, 176, 1], "dtype": "float32"}, {"name": "NASNet/separable_conv_1_bn_reduction_left1_reduce_8/FusedBatchNorm/Offset", "shape": [176], "dtype": "float32"}, {"name": "NASNet/separable_conv_1_reduction_left1_reduce_8/separable_conv2d/merged_input", "shape": [1, 1, 176, 176], "dtype": "float32"}, {"name": "separable_conv_1_reduction_left1_reduce_8/depthwise_kernel", "shape": [5, 5, 176, 1], "dtype": "float32"}, {"name": "NASNet/reduction_bn_1_reduce_8/FusedBatchNorm/Offset", "shape": [176], "dtype": "float32"}, {"name": "NASNet/reduction_conv_1_reduce_8/Conv2D/merged_input", "shape": [1, 1, 528, 176], "dtype": "float32"}, {"name": "NASNet/separable_conv_2_bn_normal_left5_8/FusedBatchNorm/Offset", "shape": [88], "dtype": "float32"}, {"name": "NASNet/separable_conv_2_normal_left5_8/separable_conv2d/merged_input", "shape": [1, 1, 88, 88], "dtype": "float32"}, {"name": "separable_conv_2_normal_left5_8/depthwise_kernel", "shape": [3, 3, 88, 1], "dtype": "float32"}, {"name": "NASNet/separable_conv_1_bn_normal_left5_8/FusedBatchNorm/Offset", "shape": [88], "dtype": "float32"}, {"name": "NASNet/separable_conv_1_normal_left5_8/separable_conv2d/merged_input", "shape": [1, 1, 88, 88], "dtype": "float32"}, {"name": "separable_conv_1_normal_left5_8/depthwise_kernel", "shape": [3, 3, 88, 1], "dtype": "float32"}, {"name": "NASNet/normal_bn_1_8/FusedBatchNorm/Offset", "shape": [88], "dtype": "float32"}, {"name": "NASNet/normal_conv_1_8/Conv2D/merged_input", "shape": [1, 1, 528, 88], "dtype": "float32"}, {"name": "NASNet/adjust_bn_8/FusedBatchNorm/Offset", "shape": [88], "dtype": "float32"}, {"name": "NASNet/adjust_conv_projection_8/Conv2D/merged_input", "shape": [1, 1, 528, 88], "dtype": "float32"}, {"name": "NASNet/separable_conv_2_bn_normal_right2_8/FusedBatchNorm/Offset", "shape": [88], "dtype": "float32"}, {"name": "NASNet/separable_conv_2_normal_right2_8/separable_conv2d/merged_input", "shape": [1, 1, 88, 88], "dtype": "float32"}, {"name": "separable_conv_2_normal_right2_8/depthwise_kernel", "shape": [3, 3, 88, 1], "dtype": "float32"}, {"name": "NASNet/separable_conv_1_bn_normal_right2_8/FusedBatchNorm/Offset", "shape": [88], "dtype": "float32"}, {"name": "NASNet/separable_conv_1_normal_right2_8/separable_conv2d/merged_input", "shape": [1, 1, 88, 88], "dtype": "float32"}, {"name": "separable_conv_1_normal_right2_8/depthwise_kernel", "shape": [3, 3, 88, 1], "dtype": "float32"}, {"name": "NASNet/separable_conv_2_bn_normal_left2_8/FusedBatchNorm/Offset", "shape": [88], "dtype": "float32"}, {"name": "NASNet/separable_conv_2_normal_left2_8/separable_conv2d/merged_input", "shape": [1, 1, 88, 88], "dtype": "float32"}, {"name": "separable_conv_2_normal_left2_8/depthwise_kernel", "shape": [5, 5, 88, 1], "dtype": "float32"}, {"name": "NASNet/separable_conv_1_bn_normal_left2_8/FusedBatchNorm/Offset", "shape": [88], "dtype": "float32"}, {"name": "NASNet/separable_conv_1_normal_left2_8/separable_conv2d/merged_input", "shape": [1, 1, 88, 88], "dtype": "float32"}, {"name": "separable_conv_1_normal_left2_8/depthwise_kernel", "shape": [5, 5, 88, 1], "dtype": "float32"}, {"name": "NASNet/separable_conv_2_bn_normal_right1_8/FusedBatchNorm/Offset", "shape": [88], "dtype": "float32"}, {"name": "NASNet/separable_conv_2_normal_right1_8/separable_conv2d/merged_input", "shape": [1, 1, 88, 88], "dtype": "float32"}, {"name": "separable_conv_2_normal_right1_8/depthwise_kernel", "shape": [3, 3, 88, 1], "dtype": "float32"}, {"name": "NASNet/separable_conv_1_bn_normal_right1_8/FusedBatchNorm/Offset", "shape": [88], "dtype": "float32"}, {"name": "NASNet/separable_conv_1_normal_right1_8/separable_conv2d/merged_input", "shape": [1, 1, 88, 88], "dtype": "float32"}, {"name": "separable_conv_1_normal_right1_8/depthwise_kernel", "shape": [3, 3, 88, 1], "dtype": "float32"}, {"name": "NASNet/separable_conv_2_bn_normal_left1_8/FusedBatchNorm/Offset", "shape": [88], "dtype": "float32"}, {"name": "NASNet/separable_conv_2_normal_left1_8/separable_conv2d/merged_input", "shape": [1, 1, 88, 88], "dtype": "float32"}, {"name": "separable_conv_2_normal_left1_8/depthwise_kernel", "shape": [5, 5, 88, 1], "dtype": "float32"}, {"name": "NASNet/separable_conv_1_bn_normal_left1_8/FusedBatchNorm/Offset", "shape": [88], "dtype": "float32"}, {"name": "NASNet/separable_conv_1_normal_left1_8/separable_conv2d/merged_input", "shape": [1, 1, 88, 88], "dtype": "float32"}, {"name": "separable_conv_1_normal_left1_8/depthwise_kernel", "shape": [5, 5, 88, 1], "dtype": "float32"}, {"name": "NASNet/separable_conv_2_bn_reduction_right2_reduce_8/FusedBatchNorm/Offset", "shape": [176], "dtype": "float32"}, {"name": "NASNet/separable_conv_2_reduction_right2_reduce_8/separable_conv2d/merged_input", "shape": [1, 1, 176, 176], "dtype": "float32"}, {"name": "separable_conv_2_reduction_right2_reduce_8/depthwise_kernel", "shape": [7, 7, 176, 1], "dtype": "float32"}, {"name": "NASNet/separable_conv_1_bn_reduction_right2_reduce_8/FusedBatchNorm/Offset", "shape": [176], "dtype": "float32"}, {"name": "NASNet/separable_conv_1_reduction_right2_reduce_8/separable_conv2d/merged_input", "shape": [1, 1, 176, 176], "dtype": "float32"}, {"name": "separable_conv_1_reduction_right2_reduce_8/depthwise_kernel", "shape": [7, 7, 176, 1], "dtype": "float32"}, {"name": "NASNet/separable_conv_2_bn_reduction_right3_reduce_8/FusedBatchNorm/Offset", "shape": [176], "dtype": "float32"}, {"name": "NASNet/separable_conv_2_reduction_right3_reduce_8/separable_conv2d/merged_input", "shape": [1, 1, 176, 176], "dtype": "float32"}, {"name": "separable_conv_2_reduction_right3_reduce_8/depthwise_kernel", "shape": [5, 5, 176, 1], "dtype": "float32"}, {"name": "NASNet/separable_conv_1_bn_reduction_right3_reduce_8/FusedBatchNorm/Offset", "shape": [176], "dtype": "float32"}, {"name": "NASNet/separable_conv_1_reduction_right3_reduce_8/separable_conv2d/merged_input", "shape": [1, 1, 176, 176], "dtype": "float32"}, {"name": "separable_conv_1_reduction_right3_reduce_8/depthwise_kernel", "shape": [5, 5, 176, 1], "dtype": "float32"}, {"name": "NASNet/adjust_bn_9/FusedBatchNorm/Offset", "shape": [176], "dtype": "float32"}, {"name": "adjust_conv_2_9/kernel", "shape": [1, 1, 528, 88], "dtype": "float32"}, {"name": "adjust_conv_1_9/kernel", "shape": [1, 1, 528, 88], "dtype": "float32"}, {"name": "NASNet/adjust_bn_9/FusedBatchNorm/Scaled", "shape": [176], "dtype": "float32"}, {"name": "NASNet/separable_conv_2_bn_normal_right2_9/FusedBatchNorm/Offset", "shape": [176], "dtype": "float32"}, {"name": "NASNet/separable_conv_2_normal_right2_9/separable_conv2d/merged_input", "shape": [1, 1, 176, 176], "dtype": "float32"}, {"name": "separable_conv_2_normal_right2_9/depthwise_kernel", "shape": [3, 3, 176, 1], "dtype": "float32"}, {"name": "NASNet/separable_conv_1_bn_normal_right2_9/FusedBatchNorm/Offset", "shape": [176], "dtype": "float32"}, {"name": "NASNet/separable_conv_1_normal_right2_9/separable_conv2d/merged_input", "shape": [1, 1, 176, 176], "dtype": "float32"}, {"name": "separable_conv_1_normal_right2_9/depthwise_kernel", "shape": [3, 3, 176, 1], "dtype": "float32"}, {"name": "NASNet/separable_conv_2_bn_normal_left2_9/FusedBatchNorm/Offset", "shape": [176], "dtype": "float32"}, {"name": "NASNet/separable_conv_2_normal_left2_9/separable_conv2d/merged_input", "shape": [1, 1, 176, 176], "dtype": "float32"}, {"name": "separable_conv_2_normal_left2_9/depthwise_kernel", "shape": [5, 5, 176, 1], "dtype": "float32"}, {"name": "NASNet/separable_conv_1_bn_normal_left2_9/FusedBatchNorm/Offset", "shape": [176], "dtype": "float32"}, {"name": "NASNet/separable_conv_1_normal_left2_9/separable_conv2d/merged_input", "shape": [1, 1, 176, 176], "dtype": "float32"}, {"name": "separable_conv_1_normal_left2_9/depthwise_kernel", "shape": [5, 5, 176, 1], "dtype": "float32"}, {"name": "NASNet/separable_conv_2_bn_normal_right1_9/FusedBatchNorm/Offset", "shape": [176], "dtype": "float32"}, {"name": "NASNet/separable_conv_2_normal_right1_9/separable_conv2d/merged_input", "shape": [1, 1, 176, 176], "dtype": "float32"}, {"name": "separable_conv_2_normal_right1_9/depthwise_kernel", "shape": [3, 3, 176, 1], "dtype": "float32"}, {"name": "NASNet/separable_conv_1_bn_normal_right1_9/FusedBatchNorm/Offset", "shape": [176], "dtype": "float32"}, {"name": "NASNet/separable_conv_1_normal_right1_9/separable_conv2d/merged_input", "shape": [1, 1, 176, 176], "dtype": "float32"}, {"name": "separable_conv_1_normal_right1_9/depthwise_kernel", "shape": [3, 3, 176, 1], "dtype": "float32"}, {"name": "NASNet/separable_conv_2_bn_normal_left1_9/FusedBatchNorm/Offset", "shape": [176], "dtype": "float32"}, {"name": "NASNet/separable_conv_2_normal_left1_9/separable_conv2d/merged_input", "shape": [1, 1, 176, 176], "dtype": "float32"}, {"name": "separable_conv_2_normal_left1_9/depthwise_kernel", "shape": [5, 5, 176, 1], "dtype": "float32"}, {"name": "NASNet/separable_conv_1_bn_normal_left1_9/FusedBatchNorm/Offset", "shape": [176], "dtype": "float32"}, {"name": "NASNet/separable_conv_1_normal_left1_9/separable_conv2d/merged_input", "shape": [1, 1, 176, 176], "dtype": "float32"}, {"name": "separable_conv_1_normal_left1_9/depthwise_kernel", "shape": [5, 5, 176, 1], "dtype": "float32"}, {"name": "NASNet/adjust_bn_10/FusedBatchNorm/Offset", "shape": [176], "dtype": "float32"}, {"name": "NASNet/adjust_conv_projection_10/Conv2D/merged_input", "shape": [1, 1, 704, 176], "dtype": "float32"}, {"name": "NASNet/separable_conv_2_bn_normal_right2_10/FusedBatchNorm/Offset", "shape": [176], "dtype": "float32"}, {"name": "NASNet/separable_conv_2_normal_right2_10/separable_conv2d/merged_input", "shape": [1, 1, 176, 176], "dtype": "float32"}, {"name": "separable_conv_2_normal_right2_10/depthwise_kernel", "shape": [3, 3, 176, 1], "dtype": "float32"}, {"name": "NASNet/separable_conv_1_bn_normal_right2_10/FusedBatchNorm/Offset", "shape": [176], "dtype": "float32"}, {"name": "NASNet/separable_conv_1_normal_right2_10/separable_conv2d/merged_input", "shape": [1, 1, 176, 176], "dtype": "float32"}, {"name": "separable_conv_1_normal_right2_10/depthwise_kernel", "shape": [3, 3, 176, 1], "dtype": "float32"}, {"name": "NASNet/separable_conv_2_bn_normal_left2_10/FusedBatchNorm/Offset", "shape": [176], "dtype": "float32"}, {"name": "NASNet/separable_conv_2_normal_left2_10/separable_conv2d/merged_input", "shape": [1, 1, 176, 176], "dtype": "float32"}, {"name": "separable_conv_2_normal_left2_10/depthwise_kernel", "shape": [5, 5, 176, 1], "dtype": "float32"}, {"name": "NASNet/separable_conv_1_bn_normal_left2_10/FusedBatchNorm/Offset", "shape": [176], "dtype": "float32"}, {"name": "NASNet/separable_conv_1_normal_left2_10/separable_conv2d/merged_input", "shape": [1, 1, 176, 176], "dtype": "float32"}, {"name": "separable_conv_1_normal_left2_10/depthwise_kernel", "shape": [5, 5, 176, 1], "dtype": "float32"}, {"name": "NASNet/separable_conv_2_bn_normal_right1_10/FusedBatchNorm/Offset", "shape": [176], "dtype": "float32"}, {"name": "NASNet/separable_conv_2_normal_right1_10/separable_conv2d/merged_input", "shape": [1, 1, 176, 176], "dtype": "float32"}, {"name": "separable_conv_2_normal_right1_10/depthwise_kernel", "shape": [3, 3, 176, 1], "dtype": "float32"}, {"name": "NASNet/separable_conv_1_bn_normal_right1_10/FusedBatchNorm/Offset", "shape": [176], "dtype": "float32"}, {"name": "NASNet/separable_conv_1_normal_right1_10/separable_conv2d/merged_input", "shape": [1, 1, 176, 176], "dtype": "float32"}, {"name": "separable_conv_1_normal_right1_10/depthwise_kernel", "shape": [3, 3, 176, 1], "dtype": "float32"}, {"name": "NASNet/separable_conv_2_bn_normal_left1_10/FusedBatchNorm/Offset", "shape": [176], "dtype": "float32"}, {"name": "NASNet/separable_conv_2_normal_left1_10/separable_conv2d/merged_input", "shape": [1, 1, 176, 176], "dtype": "float32"}, {"name": "separable_conv_2_normal_left1_10/depthwise_kernel", "shape": [5, 5, 176, 1], "dtype": "float32"}, {"name": "NASNet/separable_conv_1_bn_normal_left1_10/FusedBatchNorm/Offset", "shape": [176], "dtype": "float32"}, {"name": "NASNet/separable_conv_1_normal_left1_10/separable_conv2d/merged_input", "shape": [1, 1, 176, 176], "dtype": "float32"}, {"name": "separable_conv_1_normal_left1_10/depthwise_kernel", "shape": [5, 5, 176, 1], "dtype": "float32"}, {"name": "NASNet/adjust_bn_11/FusedBatchNorm/Offset", "shape": [176], "dtype": "float32"}, {"name": "NASNet/adjust_conv_projection_11/Conv2D/merged_input", "shape": [1, 1, 1056, 176], "dtype": "float32"}, {"name": "NASNet/separable_conv_2_bn_normal_right2_11/FusedBatchNorm/Offset", "shape": [176], "dtype": "float32"}, {"name": "NASNet/separable_conv_2_normal_right2_11/separable_conv2d/merged_input", "shape": [1, 1, 176, 176], "dtype": "float32"}, {"name": "separable_conv_2_normal_right2_11/depthwise_kernel", "shape": [3, 3, 176, 1], "dtype": "float32"}, {"name": "NASNet/separable_conv_1_bn_normal_right2_11/FusedBatchNorm/Offset", "shape": [176], "dtype": "float32"}, {"name": "NASNet/separable_conv_1_normal_right2_11/separable_conv2d/merged_input", "shape": [1, 1, 176, 176], "dtype": "float32"}, {"name": "separable_conv_1_normal_right2_11/depthwise_kernel", "shape": [3, 3, 176, 1], "dtype": "float32"}, {"name": "NASNet/separable_conv_2_bn_normal_left2_11/FusedBatchNorm/Offset", "shape": [176], "dtype": "float32"}, {"name": "NASNet/separable_conv_2_normal_left2_11/separable_conv2d/merged_input", "shape": [1, 1, 176, 176], "dtype": "float32"}, {"name": "separable_conv_2_normal_left2_11/depthwise_kernel", "shape": [5, 5, 176, 1], "dtype": "float32"}, {"name": "NASNet/separable_conv_1_bn_normal_left2_11/FusedBatchNorm/Offset", "shape": [176], "dtype": "float32"}, {"name": "NASNet/separable_conv_1_normal_left2_11/separable_conv2d/merged_input", "shape": [1, 1, 176, 176], "dtype": "float32"}, {"name": "separable_conv_1_normal_left2_11/depthwise_kernel", "shape": [5, 5, 176, 1], "dtype": "float32"}, {"name": "NASNet/separable_conv_2_bn_normal_right1_11/FusedBatchNorm/Offset", "shape": [176], "dtype": "float32"}, {"name": "NASNet/separable_conv_2_normal_right1_11/separable_conv2d/merged_input", "shape": [1, 1, 176, 176], "dtype": "float32"}, {"name": "separable_conv_2_normal_right1_11/depthwise_kernel", "shape": [3, 3, 176, 1], "dtype": "float32"}, {"name": "NASNet/separable_conv_1_bn_normal_right1_11/FusedBatchNorm/Offset", "shape": [176], "dtype": "float32"}, {"name": "NASNet/separable_conv_1_normal_right1_11/separable_conv2d/merged_input", "shape": [1, 1, 176, 176], "dtype": "float32"}, {"name": "separable_conv_1_normal_right1_11/depthwise_kernel", "shape": [3, 3, 176, 1], "dtype": "float32"}, {"name": "NASNet/separable_conv_2_bn_normal_left1_11/FusedBatchNorm/Offset", "shape": [176], "dtype": "float32"}, {"name": "NASNet/separable_conv_2_normal_left1_11/separable_conv2d/merged_input", "shape": [1, 1, 176, 176], "dtype": "float32"}, {"name": "separable_conv_2_normal_left1_11/depthwise_kernel", "shape": [5, 5, 176, 1], "dtype": "float32"}, {"name": "NASNet/separable_conv_1_bn_normal_left1_11/FusedBatchNorm/Offset", "shape": [176], "dtype": "float32"}, {"name": "NASNet/separable_conv_1_normal_left1_11/separable_conv2d/merged_input", "shape": [1, 1, 176, 176], "dtype": "float32"}, {"name": "separable_conv_1_normal_left1_11/depthwise_kernel", "shape": [5, 5, 176, 1], "dtype": "float32"}, {"name": "NASNet/adjust_bn_12/FusedBatchNorm/Offset", "shape": [176], "dtype": "float32"}, {"name": "NASNet/adjust_conv_projection_12/Conv2D/merged_input", "shape": [1, 1, 1056, 176], "dtype": "float32"}, {"name": "NASNet/separable_conv_2_bn_normal_right2_12/FusedBatchNorm/Offset", "shape": [176], "dtype": "float32"}, {"name": "NASNet/separable_conv_2_normal_right2_12/separable_conv2d/merged_input", "shape": [1, 1, 176, 176], "dtype": "float32"}, {"name": "separable_conv_2_normal_right2_12/depthwise_kernel", "shape": [3, 3, 176, 1], "dtype": "float32"}, {"name": "NASNet/separable_conv_1_bn_normal_right2_12/FusedBatchNorm/Offset", "shape": [176], "dtype": "float32"}, {"name": "NASNet/separable_conv_1_normal_right2_12/separable_conv2d/merged_input", "shape": [1, 1, 176, 176], "dtype": "float32"}, {"name": "separable_conv_1_normal_right2_12/depthwise_kernel", "shape": [3, 3, 176, 1], "dtype": "float32"}, {"name": "NASNet/separable_conv_2_bn_normal_left2_12/FusedBatchNorm/Offset", "shape": [176], "dtype": "float32"}, {"name": "NASNet/separable_conv_2_normal_left2_12/separable_conv2d/merged_input", "shape": [1, 1, 176, 176], "dtype": "float32"}, {"name": "separable_conv_2_normal_left2_12/depthwise_kernel", "shape": [5, 5, 176, 1], "dtype": "float32"}, {"name": "NASNet/separable_conv_1_bn_normal_left2_12/FusedBatchNorm/Offset", "shape": [176], "dtype": "float32"}, {"name": "NASNet/separable_conv_1_normal_left2_12/separable_conv2d/merged_input", "shape": [1, 1, 176, 176], "dtype": "float32"}, {"name": "separable_conv_1_normal_left2_12/depthwise_kernel", "shape": [5, 5, 176, 1], "dtype": "float32"}, {"name": "NASNet/separable_conv_2_bn_normal_right1_12/FusedBatchNorm/Offset", "shape": [176], "dtype": "float32"}, {"name": "NASNet/separable_conv_2_normal_right1_12/separable_conv2d/merged_input", "shape": [1, 1, 176, 176], "dtype": "float32"}, {"name": "separable_conv_2_normal_right1_12/depthwise_kernel", "shape": [3, 3, 176, 1], "dtype": "float32"}, {"name": "NASNet/separable_conv_1_bn_normal_right1_12/FusedBatchNorm/Offset", "shape": [176], "dtype": "float32"}, {"name": "NASNet/separable_conv_1_normal_right1_12/separable_conv2d/merged_input", "shape": [1, 1, 176, 176], "dtype": "float32"}, {"name": "separable_conv_1_normal_right1_12/depthwise_kernel", "shape": [3, 3, 176, 1], "dtype": "float32"}, {"name": "NASNet/separable_conv_2_bn_normal_left1_12/FusedBatchNorm/Offset", "shape": [176], "dtype": "float32"}, {"name": "NASNet/separable_conv_2_normal_left1_12/separable_conv2d/merged_input", "shape": [1, 1, 176, 176], "dtype": "float32"}, {"name": "separable_conv_2_normal_left1_12/depthwise_kernel", "shape": [5, 5, 176, 1], "dtype": "float32"}, {"name": "NASNet/separable_conv_1_bn_normal_left1_12/FusedBatchNorm/Offset", "shape": [176], "dtype": "float32"}, {"name": "NASNet/separable_conv_1_normal_left1_12/separable_conv2d/merged_input", "shape": [1, 1, 176, 176], "dtype": "float32"}, {"name": "separable_conv_1_normal_left1_12/depthwise_kernel", "shape": [5, 5, 176, 1], "dtype": "float32"}, {"name": "NASNet/normal_add_4_0/ArithmeticOptimizer/SimplifyAggregation_Const_add", "shape": [], "dtype": "float32"}, {"name": "NASNet/normal_add_4_1/ArithmeticOptimizer/SimplifyAggregation_Const_add", "shape": [], "dtype": "float32"}, {"name": "NASNet/normal_add_4_2/ArithmeticOptimizer/SimplifyAggregation_Const_add", "shape": [], "dtype": "float32"}, {"name": "NASNet/normal_add_4_3/ArithmeticOptimizer/SimplifyAggregation_Const_add", "shape": [], "dtype": "float32"}, {"name": "NASNet/normal_add_4_5/ArithmeticOptimizer/SimplifyAggregation_Const_add", "shape": [], "dtype": "float32"}, {"name": "NASNet/normal_add_4_6/ArithmeticOptimizer/SimplifyAggregation_Const_add", "shape": [], "dtype": "float32"}, {"name": "NASNet/normal_add_4_7/ArithmeticOptimizer/SimplifyAggregation_Const_add", "shape": [], "dtype": "float32"}, {"name": "NASNet/normal_add_4_8/ArithmeticOptimizer/SimplifyAggregation_Const_add", "shape": [], "dtype": "float32"}, {"name": "NASNet/normal_add_4_9/ArithmeticOptimizer/SimplifyAggregation_Const_add", "shape": [], "dtype": "float32"}, {"name": "NASNet/normal_add_4_10/ArithmeticOptimizer/SimplifyAggregation_Const_add", "shape": [], "dtype": "float32"}, {"name": "NASNet/normal_add_4_11/ArithmeticOptimizer/SimplifyAggregation_Const_add", "shape": [], "dtype": "float32"}, {"name": "NASNet/normal_add_4_12/ArithmeticOptimizer/SimplifyAggregation_Const_add", "shape": [], "dtype": "float32"}]}]}